"builtin.module"() ({
  "func.func"() <{arg_attrs = [{hacc.arg_type = #hacc.arg_type<ffts_base_address>}, {hacc.arg_type = #hacc.arg_type<sync_block_lock>}, {hacc.arg_type = #hacc.arg_type<workspace>}, {tt.divisibility = 16 : i32, tt.tensor_kind = 0 : i32}, {tt.divisibility = 16 : i32, tt.tensor_kind = 1 : i32}, {}, {}, {}], function_type = (i64, memref<?xi8>, memref<?xi8>, memref<?xf32>, memref<?xf32>, i32, i32, i32) -> (), sym_name = "static_range_kernel"}> ({
  ^bb0(%arg0: i64, %arg1: memref<?xi8>, %arg2: memref<?xi8>, %arg3: memref<?xf32>, %arg4: memref<?xf32>, %arg5: i32, %arg6: i32, %arg7: i32):
    %0 = "arith.constant"() <{value = 0 : index}> : () -> index
    "hivm.hir.set_mask_norm"() : () -> ()
    %1 = "arith.muli"(%arg5, %arg6) <{overflowFlags = #arith.overflow<none>}> : (i32, i32) -> i32
    %2 = "arith.muli"(%1, %arg7) <{overflowFlags = #arith.overflow<none>}> : (i32, i32) -> i32
    "annotation.mark"(%2) {logical_block_num} : (i32) -> ()
    %3 = "memref.reinterpret_cast"(%arg3) <{operandSegmentSizes = array<i32: 1, 0, 0, 0>, static_offsets = array<i64: 0>, static_sizes = array<i64: 1>, static_strides = array<i64: 1>}> : (memref<?xf32>) -> memref<1xf32, strided<[1]>>
    %4 = "memref.load"(%3, %0) : (memref<1xf32, strided<[1]>>, index) -> f32
    %5 = "tensor.empty"() : () -> tensor<1xf32>
    %6 = "tensor.empty"() : () -> tensor<1xf32>
    %7 = "tensor.empty"() : () -> tensor<1xf32>
    %8 = "tensor.empty"() : () -> tensor<1xf32>
    %9 = "tensor.empty"() : () -> tensor<1xf32>
    %10 = "tensor.empty"() : () -> tensor<1xf32>
    %11 = "tensor.empty"() : () -> tensor<1xf32>
    %12 = "tensor.empty"() : () -> tensor<1xf32>
    %13 = "tensor.empty"() : () -> tensor<1xf32>
    %14 = "tensor.empty"() : () -> tensor<1xf32>
    %15 = "tensor.empty"() : () -> tensor<1xf32>
    %16 = "tensor.empty"() : () -> tensor<1xf32>
    %17 = "tensor.empty"() : () -> tensor<1xf32>
    %18 = "tensor.empty"() : () -> tensor<1xf32>
    %19 = "tensor.empty"() : () -> tensor<1xf32>
    %20 = "tensor.empty"() : () -> tensor<1xf32>
    %21 = "tensor.empty"() : () -> tensor<1xf32>
    %22 = "tensor.empty"() : () -> tensor<1xf32>
    %23 = "tensor.empty"() : () -> tensor<1xf32>
    %24 = "tensor.empty"() : () -> tensor<1xf32>
    %25 = "tensor.empty"() : () -> tensor<1xf32>
    %26 = "tensor.empty"() : () -> tensor<1xf32>
    %27 = "tensor.empty"() : () -> tensor<1xf32>
    %28 = "tensor.empty"() : () -> tensor<1xf32>
    %29 = "tensor.empty"() : () -> tensor<1xf32>
    %30 = "tensor.empty"() : () -> tensor<1xf32>
    %31 = "tensor.empty"() : () -> tensor<1xf32>
    %32 = "tensor.empty"() : () -> tensor<1xf32>
    %33 = "tensor.empty"() : () -> tensor<1xf32>
    %34 = "tensor.empty"() : () -> tensor<1xf32>
    %35 = "tensor.empty"() : () -> tensor<1xf32>
    %36 = "tensor.empty"() : () -> tensor<1xf32>
    %37 = "tensor.empty"() : () -> tensor<1xf32>
    %38 = "tensor.empty"() : () -> tensor<1xf32>
    %39 = "tensor.empty"() : () -> tensor<1xf32>
    %40 = "tensor.empty"() : () -> tensor<1xf32>
    %41 = "tensor.empty"() : () -> tensor<1xf32>
    %42 = "tensor.empty"() : () -> tensor<1xf32>
    %43 = "tensor.empty"() : () -> tensor<1xf32>
    %44 = "tensor.empty"() : () -> tensor<1xf32>
    %45 = "tensor.empty"() : () -> tensor<1xf32>
    %46 = "tensor.empty"() : () -> tensor<1xf32>
    %47 = "tensor.empty"() : () -> tensor<1xf32>
    %48 = "tensor.empty"() : () -> tensor<1xf32>
    %49 = "tensor.empty"() : () -> tensor<1xf32>
    %50 = "tensor.empty"() : () -> tensor<1xf32>
    %51 = "tensor.empty"() : () -> tensor<1xf32>
    %52 = "tensor.empty"() : () -> tensor<1xf32>
    %53 = "tensor.empty"() : () -> tensor<1xf32>
    %54 = "tensor.empty"() : () -> tensor<1xf32>
    %55 = "tensor.empty"() : () -> tensor<1xf32>
    %56 = "tensor.empty"() : () -> tensor<1xf32>
    %57 = "tensor.empty"() : () -> tensor<1xf32>
    %58 = "tensor.empty"() : () -> tensor<1xf32>
    %59 = "tensor.empty"() : () -> tensor<1xf32>
    %60 = "tensor.empty"() : () -> tensor<1xf32>
    %61 = "tensor.empty"() : () -> tensor<1xf32>
    %62 = "tensor.empty"() : () -> tensor<1xf32>
    %63 = "tensor.empty"() : () -> tensor<1xf32>
    %64 = "tensor.empty"() : () -> tensor<1xf32>
    %65 = "tensor.empty"() : () -> tensor<1xf32>
    %66 = "tensor.empty"() : () -> tensor<1xf32>
    %67 = "tensor.empty"() : () -> tensor<1xf32>
    %68 = "tensor.empty"() : () -> tensor<1xf32>
    %69 = "tensor.empty"() : () -> tensor<1xf32>
    %70 = "tensor.empty"() : () -> tensor<1xf32>
    %71 = "tensor.empty"() : () -> tensor<1xf32>
    %72 = "tensor.empty"() : () -> tensor<1xf32>
    %73 = "tensor.empty"() : () -> tensor<1xf32>
    %74 = "tensor.empty"() : () -> tensor<1xf32>
    %75 = "tensor.empty"() : () -> tensor<1xf32>
    %76 = "tensor.empty"() : () -> tensor<1xf32>
    %77 = "tensor.empty"() : () -> tensor<1xf32>
    %78 = "tensor.empty"() : () -> tensor<1xf32>
    %79 = "tensor.empty"() : () -> tensor<1xf32>
    %80 = "tensor.empty"() : () -> tensor<1xf32>
    %81 = "tensor.empty"() : () -> tensor<1xf32>
    %82 = "tensor.empty"() : () -> tensor<1xf32>
    %83 = "tensor.empty"() : () -> tensor<1xf32>
    %84 = "tensor.empty"() : () -> tensor<1xf32>
    %85 = "tensor.empty"() : () -> tensor<1xf32>
    %86 = "tensor.empty"() : () -> tensor<1xf32>
    %87 = "tensor.empty"() : () -> tensor<1xf32>
    %88 = "tensor.empty"() : () -> tensor<1xf32>
    %89 = "tensor.empty"() : () -> tensor<1xf32>
    %90 = "tensor.empty"() : () -> tensor<1xf32>
    %91 = "tensor.empty"() : () -> tensor<1xf32>
    %92 = "tensor.empty"() : () -> tensor<1xf32>
    %93 = "tensor.empty"() : () -> tensor<1xf32>
    %94 = "tensor.empty"() : () -> tensor<1xf32>
    %95 = "tensor.empty"() : () -> tensor<1xf32>
    %96 = "tensor.empty"() : () -> tensor<1xf32>
    %97 = "tensor.empty"() : () -> tensor<1xf32>
    %98 = "tensor.empty"() : () -> tensor<1xf32>
    %99 = "tensor.empty"() : () -> tensor<1xf32>
    %100 = "tensor.empty"() : () -> tensor<1xf32>
    %101 = "tensor.empty"() : () -> tensor<1xf32>
    %102 = "tensor.empty"() : () -> tensor<1xf32>
    %103 = "tensor.empty"() : () -> tensor<1xf32>
    %104 = "tensor.empty"() : () -> tensor<1xf32>
    %105 = "tensor.empty"() : () -> tensor<1xf32>
    %106 = "tensor.empty"() : () -> tensor<1xf32>
    %107 = "tensor.empty"() : () -> tensor<1xf32>
    %108 = "tensor.empty"() : () -> tensor<1xf32>
    %109 = "tensor.empty"() : () -> tensor<1xf32>
    %110 = "tensor.empty"() : () -> tensor<1xf32>
    %111 = "tensor.empty"() : () -> tensor<1xf32>
    %112 = "tensor.empty"() : () -> tensor<1xf32>
    %113 = "tensor.empty"() : () -> tensor<1xf32>
    %114 = "tensor.empty"() : () -> tensor<1xf32>
    %115 = "tensor.empty"() : () -> tensor<1xf32>
    %116 = "tensor.empty"() : () -> tensor<1xf32>
    %117 = "tensor.empty"() : () -> tensor<1xf32>
    %118 = "tensor.empty"() : () -> tensor<1xf32>
    %119 = "tensor.empty"() : () -> tensor<1xf32>
    %120 = "tensor.empty"() : () -> tensor<1xf32>
    %121 = "tensor.empty"() : () -> tensor<1xf32>
    %122 = "tensor.empty"() : () -> tensor<1xf32>
    %123 = "tensor.empty"() : () -> tensor<1xf32>
    %124 = "tensor.empty"() : () -> tensor<1xf32>
    %125 = "tensor.empty"() : () -> tensor<1xf32>
    %126 = "tensor.empty"() : () -> tensor<1xf32>
    %127 = "tensor.empty"() : () -> tensor<1xf32>
    %128 = "tensor.empty"() : () -> tensor<1xf32>
    %129 = "tensor.empty"() : () -> tensor<1xf32>
    %130 = "tensor.empty"() : () -> tensor<1xf32>
    %131 = "tensor.empty"() : () -> tensor<1xf32>
    %132 = "tensor.empty"() : () -> tensor<1xf32>
    %133 = "tensor.empty"() : () -> tensor<1xf32>
    %134 = "tensor.empty"() : () -> tensor<1xf32>
    %135 = "tensor.empty"() : () -> tensor<1xf32>
    %136 = "tensor.empty"() : () -> tensor<1xf32>
    %137 = "tensor.empty"() : () -> tensor<1xf32>
    %138 = "tensor.empty"() : () -> tensor<1xf32>
    %139 = "tensor.empty"() : () -> tensor<1xf32>
    %140 = "tensor.empty"() : () -> tensor<1xf32>
    %141 = "tensor.empty"() : () -> tensor<1xf32>
    %142 = "tensor.empty"() : () -> tensor<1xf32>
    %143 = "tensor.empty"() : () -> tensor<1xf32>
    %144 = "tensor.empty"() : () -> tensor<1xf32>
    %145 = "tensor.empty"() : () -> tensor<1xf32>
    %146 = "tensor.empty"() : () -> tensor<1xf32>
    %147 = "tensor.empty"() : () -> tensor<1xf32>
    %148 = "tensor.empty"() : () -> tensor<1xf32>
    %149 = "tensor.empty"() : () -> tensor<1xf32>
    %150 = "tensor.empty"() : () -> tensor<1xf32>
    %151 = "tensor.empty"() : () -> tensor<1xf32>
    %152 = "tensor.empty"() : () -> tensor<1xf32>
    %153 = "tensor.empty"() : () -> tensor<1xf32>
    %154 = "tensor.empty"() : () -> tensor<1xf32>
    %155 = "tensor.empty"() : () -> tensor<1xf32>
    %156 = "tensor.empty"() : () -> tensor<1xf32>
    %157 = "tensor.empty"() : () -> tensor<1xf32>
    %158 = "tensor.empty"() : () -> tensor<1xf32>
    %159 = "tensor.empty"() : () -> tensor<1xf32>
    %160 = "tensor.empty"() : () -> tensor<1xf32>
    %161 = "tensor.empty"() : () -> tensor<1xf32>
    %162 = "tensor.empty"() : () -> tensor<1xf32>
    %163 = "tensor.empty"() : () -> tensor<1xf32>
    %164 = "tensor.empty"() : () -> tensor<1xf32>
    %165 = "tensor.empty"() : () -> tensor<1xf32>
    %166 = "tensor.empty"() : () -> tensor<1xf32>
    %167 = "tensor.empty"() : () -> tensor<1xf32>
    %168 = "tensor.empty"() : () -> tensor<1xf32>
    %169 = "tensor.empty"() : () -> tensor<1xf32>
    %170 = "tensor.empty"() : () -> tensor<1xf32>
    %171 = "tensor.empty"() : () -> tensor<1xf32>
    %172 = "tensor.empty"() : () -> tensor<1xf32>
    %173 = "tensor.empty"() : () -> tensor<1xf32>
    %174 = "tensor.empty"() : () -> tensor<1xf32>
    %175 = "tensor.empty"() : () -> tensor<1xf32>
    %176 = "tensor.empty"() : () -> tensor<1xf32>
    %177 = "tensor.empty"() : () -> tensor<1xf32>
    %178 = "tensor.empty"() : () -> tensor<1xf32>
    %179 = "tensor.empty"() : () -> tensor<1xf32>
    %180 = "tensor.empty"() : () -> tensor<1xf32>
    %181 = "tensor.empty"() : () -> tensor<1xf32>
    %182 = "tensor.empty"() : () -> tensor<1xf32>
    %183 = "tensor.empty"() : () -> tensor<1xf32>
    %184 = "tensor.empty"() : () -> tensor<1xf32>
    %185 = "tensor.empty"() : () -> tensor<1xf32>
    %186 = "tensor.empty"() : () -> tensor<1xf32>
    %187 = "tensor.empty"() : () -> tensor<1xf32>
    %188 = "tensor.empty"() : () -> tensor<1xf32>
    %189 = "tensor.empty"() : () -> tensor<1xf32>
    %190 = "tensor.empty"() : () -> tensor<1xf32>
    %191 = "tensor.empty"() : () -> tensor<1xf32>
    %192 = "tensor.empty"() : () -> tensor<1xf32>
    %193 = "tensor.empty"() : () -> tensor<1xf32>
    %194 = "tensor.empty"() : () -> tensor<1xf32>
    %195 = "tensor.empty"() : () -> tensor<1xf32>
    %196 = "tensor.empty"() : () -> tensor<1xf32>
    %197 = "tensor.empty"() : () -> tensor<1xf32>
    %198 = "tensor.empty"() : () -> tensor<1xf32>
    %199 = "tensor.empty"() : () -> tensor<1xf32>
    %200 = "tensor.empty"() : () -> tensor<1xf32>
    %201 = "tensor.empty"() : () -> tensor<1xf32>
    %202 = "tensor.empty"() : () -> tensor<1xf32>
    %203 = "tensor.empty"() : () -> tensor<1xf32>
    %204 = "tensor.empty"() : () -> tensor<1xf32>
    %205 = "tensor.empty"() : () -> tensor<1xf32>
    %206 = "tensor.empty"() : () -> tensor<1xf32>
    %207 = "tensor.empty"() : () -> tensor<1xf32>
    %208 = "tensor.empty"() : () -> tensor<1xf32>
    %209 = "tensor.empty"() : () -> tensor<1xf32>
    %210 = "tensor.empty"() : () -> tensor<1xf32>
    %211 = "tensor.empty"() : () -> tensor<1xf32>
    %212 = "tensor.empty"() : () -> tensor<1xf32>
    %213 = "tensor.empty"() : () -> tensor<1xf32>
    %214 = "tensor.empty"() : () -> tensor<1xf32>
    %215 = "tensor.empty"() : () -> tensor<1xf32>
    %216 = "tensor.empty"() : () -> tensor<1xf32>
    %217 = "tensor.empty"() : () -> tensor<1xf32>
    %218 = "tensor.empty"() : () -> tensor<1xf32>
    %219 = "tensor.empty"() : () -> tensor<1xf32>
    %220 = "tensor.empty"() : () -> tensor<1xf32>
    %221 = "tensor.empty"() : () -> tensor<1xf32>
    %222 = "tensor.empty"() : () -> tensor<1xf32>
    %223 = "tensor.empty"() : () -> tensor<1xf32>
    %224 = "tensor.empty"() : () -> tensor<1xf32>
    %225 = "tensor.empty"() : () -> tensor<1xf32>
    %226 = "tensor.empty"() : () -> tensor<1xf32>
    %227 = "tensor.empty"() : () -> tensor<1xf32>
    %228 = "tensor.empty"() : () -> tensor<1xf32>
    %229 = "tensor.empty"() : () -> tensor<1xf32>
    %230 = "tensor.empty"() : () -> tensor<1xf32>
    %231 = "tensor.empty"() : () -> tensor<1xf32>
    %232 = "tensor.empty"() : () -> tensor<1xf32>
    %233 = "tensor.empty"() : () -> tensor<1xf32>
    %234 = "tensor.empty"() : () -> tensor<1xf32>
    %235 = "tensor.empty"() : () -> tensor<1xf32>
    %236 = "tensor.empty"() : () -> tensor<1xf32>
    %237 = "tensor.empty"() : () -> tensor<1xf32>
    %238 = "tensor.empty"() : () -> tensor<1xf32>
    %239 = "tensor.empty"() : () -> tensor<1xf32>
    %240 = "tensor.empty"() : () -> tensor<1xf32>
    %241 = "tensor.empty"() : () -> tensor<1xf32>
    %242 = "tensor.empty"() : () -> tensor<1xf32>
    %243 = "tensor.empty"() : () -> tensor<1xf32>
    %244 = "tensor.empty"() : () -> tensor<1xf32>
    %245 = "tensor.empty"() : () -> tensor<1xf32>
    %246 = "tensor.empty"() : () -> tensor<1xf32>
    %247 = "tensor.empty"() : () -> tensor<1xf32>
    %248 = "tensor.empty"() : () -> tensor<1xf32>
    %249 = "tensor.empty"() : () -> tensor<1xf32>
    %250 = "tensor.empty"() : () -> tensor<1xf32>
    %251 = "tensor.empty"() : () -> tensor<1xf32>
    %252 = "tensor.empty"() : () -> tensor<1xf32>
    %253 = "tensor.empty"() : () -> tensor<1xf32>
    %254 = "tensor.empty"() : () -> tensor<1xf32>
    %255 = "tensor.empty"() : () -> tensor<1xf32>
    %256 = "tensor.empty"() : () -> tensor<1xf32>
    %257 = "tensor.empty"() : () -> tensor<1xf32>
    %258 = "tensor.empty"() : () -> tensor<1xf32>
    %259 = "tensor.empty"() : () -> tensor<1xf32>
    %260 = "tensor.empty"() : () -> tensor<1xf32>
    %261 = "tensor.empty"() : () -> tensor<1xf32>
    %262 = "tensor.empty"() : () -> tensor<1xf32>
    %263 = "tensor.empty"() : () -> tensor<1xf32>
    %264 = "tensor.empty"() : () -> tensor<1xf32>
    %265 = "tensor.empty"() : () -> tensor<1xf32>
    %266 = "tensor.empty"() : () -> tensor<1xf32>
    %267 = "tensor.empty"() : () -> tensor<1xf32>
    %268 = "tensor.empty"() : () -> tensor<1xf32>
    %269 = "tensor.empty"() : () -> tensor<1xf32>
    %270 = "tensor.empty"() : () -> tensor<1xf32>
    %271 = "tensor.empty"() : () -> tensor<1xf32>
    %272 = "tensor.empty"() : () -> tensor<1xf32>
    %273 = "tensor.empty"() : () -> tensor<1xf32>
    %274 = "tensor.empty"() : () -> tensor<1xf32>
    %275 = "tensor.empty"() : () -> tensor<1xf32>
    %276 = "tensor.empty"() : () -> tensor<1xf32>
    %277 = "tensor.empty"() : () -> tensor<1xf32>
    %278 = "tensor.empty"() : () -> tensor<1xf32>
    %279 = "tensor.empty"() : () -> tensor<1xf32>
    %280 = "tensor.empty"() : () -> tensor<1xf32>
    %281 = "tensor.empty"() : () -> tensor<1xf32>
    %282 = "tensor.empty"() : () -> tensor<1xf32>
    %283 = "tensor.empty"() : () -> tensor<1xf32>
    %284 = "tensor.empty"() : () -> tensor<1xf32>
    %285 = "tensor.empty"() : () -> tensor<1xf32>
    %286 = "tensor.empty"() : () -> tensor<1xf32>
    %287 = "tensor.empty"() : () -> tensor<1xf32>
    %288 = "tensor.empty"() : () -> tensor<1xf32>
    %289 = "tensor.empty"() : () -> tensor<1xf32>
    %290 = "tensor.empty"() : () -> tensor<1xf32>
    %291 = "tensor.empty"() : () -> tensor<1xf32>
    %292 = "tensor.empty"() : () -> tensor<1xf32>
    %293 = "tensor.empty"() : () -> tensor<1xf32>
    %294 = "tensor.empty"() : () -> tensor<1xf32>
    %295 = "tensor.empty"() : () -> tensor<1xf32>
    %296 = "tensor.empty"() : () -> tensor<1xf32>
    %297 = "tensor.empty"() : () -> tensor<1xf32>
    %298 = "tensor.empty"() : () -> tensor<1xf32>
    %299 = "tensor.empty"() : () -> tensor<1xf32>
    %300 = "tensor.empty"() : () -> tensor<1xf32>
    %301 = "tensor.empty"() : () -> tensor<1xf32>
    %302 = "tensor.empty"() : () -> tensor<1xf32>
    %303 = "tensor.empty"() : () -> tensor<1xf32>
    %304 = "tensor.empty"() : () -> tensor<1xf32>
    %305 = "tensor.empty"() : () -> tensor<1xf32>
    %306 = "tensor.empty"() : () -> tensor<1xf32>
    %307 = "tensor.empty"() : () -> tensor<1xf32>
    %308 = "tensor.empty"() : () -> tensor<1xf32>
    %309 = "tensor.empty"() : () -> tensor<1xf32>
    %310 = "tensor.empty"() : () -> tensor<1xf32>
    %311 = "tensor.empty"() : () -> tensor<1xf32>
    %312 = "tensor.empty"() : () -> tensor<1xf32>
    %313 = "tensor.empty"() : () -> tensor<1xf32>
    %314 = "tensor.empty"() : () -> tensor<1xf32>
    %315 = "tensor.empty"() : () -> tensor<1xf32>
    %316 = "tensor.empty"() : () -> tensor<1xf32>
    %317 = "tensor.empty"() : () -> tensor<1xf32>
    %318 = "tensor.empty"() : () -> tensor<1xf32>
    %319 = "tensor.empty"() : () -> tensor<1xf32>
    %320 = "tensor.empty"() : () -> tensor<1xf32>
    %321 = "tensor.empty"() : () -> tensor<1xf32>
    %322 = "tensor.empty"() : () -> tensor<1xf32>
    %323 = "tensor.empty"() : () -> tensor<1xf32>
    %324 = "tensor.empty"() : () -> tensor<1xf32>
    %325 = "tensor.empty"() : () -> tensor<1xf32>
    %326 = "tensor.empty"() : () -> tensor<1xf32>
    %327 = "tensor.empty"() : () -> tensor<1xf32>
    %328 = "tensor.empty"() : () -> tensor<1xf32>
    %329 = "tensor.empty"() : () -> tensor<1xf32>
    %330 = "tensor.empty"() : () -> tensor<1xf32>
    %331 = "tensor.empty"() : () -> tensor<1xf32>
    %332 = "tensor.empty"() : () -> tensor<1xf32>
    %333 = "tensor.empty"() : () -> tensor<1xf32>
    %334 = "tensor.empty"() : () -> tensor<1xf32>
    %335 = "tensor.empty"() : () -> tensor<1xf32>
    %336 = "tensor.empty"() : () -> tensor<1xf32>
    %337 = "tensor.empty"() : () -> tensor<1xf32>
    %338 = "tensor.empty"() : () -> tensor<1xf32>
    %339 = "tensor.empty"() : () -> tensor<1xf32>
    %340 = "tensor.empty"() : () -> tensor<1xf32>
    %341 = "tensor.empty"() : () -> tensor<1xf32>
    %342 = "tensor.empty"() : () -> tensor<1xf32>
    %343 = "tensor.empty"() : () -> tensor<1xf32>
    %344 = "tensor.empty"() : () -> tensor<1xf32>
    %345 = "tensor.empty"() : () -> tensor<1xf32>
    %346 = "tensor.empty"() : () -> tensor<1xf32>
    %347 = "tensor.empty"() : () -> tensor<1xf32>
    %348 = "tensor.empty"() : () -> tensor<1xf32>
    %349 = "tensor.empty"() : () -> tensor<1xf32>
    %350 = "tensor.empty"() : () -> tensor<1xf32>
    %351 = "tensor.empty"() : () -> tensor<1xf32>
    %352 = "tensor.empty"() : () -> tensor<1xf32>
    %353 = "tensor.empty"() : () -> tensor<1xf32>
    %354 = "tensor.empty"() : () -> tensor<1xf32>
    %355 = "tensor.empty"() : () -> tensor<1xf32>
    %356 = "tensor.empty"() : () -> tensor<1xf32>
    %357 = "tensor.empty"() : () -> tensor<1xf32>
    %358 = "tensor.empty"() : () -> tensor<1xf32>
    %359 = "tensor.empty"() : () -> tensor<1xf32>
    %360 = "tensor.empty"() : () -> tensor<1xf32>
    %361 = "tensor.empty"() : () -> tensor<1xf32>
    %362 = "tensor.empty"() : () -> tensor<1xf32>
    %363 = "tensor.empty"() : () -> tensor<1xf32>
    %364 = "tensor.empty"() : () -> tensor<1xf32>
    %365 = "tensor.empty"() : () -> tensor<1xf32>
    %366 = "tensor.empty"() : () -> tensor<1xf32>
    %367 = "tensor.empty"() : () -> tensor<1xf32>
    %368 = "tensor.empty"() : () -> tensor<1xf32>
    %369 = "tensor.empty"() : () -> tensor<1xf32>
    %370 = "tensor.empty"() : () -> tensor<1xf32>
    %371 = "tensor.empty"() : () -> tensor<1xf32>
    %372 = "tensor.empty"() : () -> tensor<1xf32>
    %373 = "tensor.empty"() : () -> tensor<1xf32>
    %374 = "tensor.empty"() : () -> tensor<1xf32>
    %375 = "tensor.empty"() : () -> tensor<1xf32>
    %376 = "tensor.empty"() : () -> tensor<1xf32>
    %377 = "tensor.empty"() : () -> tensor<1xf32>
    %378 = "tensor.empty"() : () -> tensor<1xf32>
    %379 = "tensor.empty"() : () -> tensor<1xf32>
    %380 = "tensor.empty"() : () -> tensor<1xf32>
    %381 = "tensor.empty"() : () -> tensor<1xf32>
    %382 = "tensor.empty"() : () -> tensor<1xf32>
    %383 = "tensor.empty"() : () -> tensor<1xf32>
    %384 = "tensor.empty"() : () -> tensor<1xf32>
    %385 = "tensor.empty"() : () -> tensor<1xf32>
    %386 = "tensor.empty"() : () -> tensor<1xf32>
    %387 = "tensor.empty"() : () -> tensor<1xf32>
    %388 = "tensor.empty"() : () -> tensor<1xf32>
    %389 = "tensor.insert"(%4, %388, %0) : (f32, tensor<1xf32>, index) -> tensor<1xf32>
    %390 = "hivm.hir.vmul"(%389, %389, %132) <{broadcast = array<i64>, operandSegmentSizes = array<i32: 2, 1, 0>, transpose = array<i64>}> : (tensor<1xf32>, tensor<1xf32>, tensor<1xf32>) -> tensor<1xf32>
    %391 = "tensor.extract"(%390, %0) : (tensor<1xf32>, index) -> f32
    %392 = "tensor.insert"(%391, %387, %0) : (f32, tensor<1xf32>, index) -> tensor<1xf32>
    %393 = "memref.reinterpret_cast"(%arg4) <{operandSegmentSizes = array<i32: 1, 0, 0, 0>, static_offsets = array<i64: 0>, static_sizes = array<i64: 1>, static_strides = array<i64: 1>}> : (memref<?xf32>) -> memref<1xf32, strided<[1]>>
    "hivm.hir.store"(%392, %393) : (tensor<1xf32>, memref<1xf32, strided<[1]>>) -> ()
    %394 = "memref.reinterpret_cast"(%arg3) <{operandSegmentSizes = array<i32: 1, 0, 0, 0>, static_offsets = array<i64: 1>, static_sizes = array<i64: 1>, static_strides = array<i64: 1>}> : (memref<?xf32>) -> memref<1xf32, strided<[1], offset: 1>>
    %395 = "memref.load"(%394, %0) : (memref<1xf32, strided<[1], offset: 1>>, index) -> f32
    %396 = "tensor.insert"(%395, %386, %0) : (f32, tensor<1xf32>, index) -> tensor<1xf32>
    %397 = "hivm.hir.vmul"(%396, %396, %131) <{broadcast = array<i64>, operandSegmentSizes = array<i32: 2, 1, 0>, transpose = array<i64>}> : (tensor<1xf32>, tensor<1xf32>, tensor<1xf32>) -> tensor<1xf32>
    %398 = "tensor.extract"(%397, %0) : (tensor<1xf32>, index) -> f32
    %399 = "tensor.insert"(%398, %385, %0) : (f32, tensor<1xf32>, index) -> tensor<1xf32>
    %400 = "memref.reinterpret_cast"(%arg4) <{operandSegmentSizes = array<i32: 1, 0, 0, 0>, static_offsets = array<i64: 1>, static_sizes = array<i64: 1>, static_strides = array<i64: 1>}> : (memref<?xf32>) -> memref<1xf32, strided<[1], offset: 1>>
    "hivm.hir.store"(%399, %400) : (tensor<1xf32>, memref<1xf32, strided<[1], offset: 1>>) -> ()
    %401 = "memref.reinterpret_cast"(%arg3) <{operandSegmentSizes = array<i32: 1, 0, 0, 0>, static_offsets = array<i64: 2>, static_sizes = array<i64: 1>, static_strides = array<i64: 1>}> : (memref<?xf32>) -> memref<1xf32, strided<[1], offset: 2>>
    %402 = "memref.load"(%401, %0) : (memref<1xf32, strided<[1], offset: 2>>, index) -> f32
    %403 = "tensor.insert"(%402, %384, %0) : (f32, tensor<1xf32>, index) -> tensor<1xf32>
    %404 = "hivm.hir.vmul"(%403, %403, %130) <{broadcast = array<i64>, operandSegmentSizes = array<i32: 2, 1, 0>, transpose = array<i64>}> : (tensor<1xf32>, tensor<1xf32>, tensor<1xf32>) -> tensor<1xf32>
    %405 = "tensor.extract"(%404, %0) : (tensor<1xf32>, index) -> f32
    %406 = "tensor.insert"(%405, %383, %0) : (f32, tensor<1xf32>, index) -> tensor<1xf32>
    %407 = "memref.reinterpret_cast"(%arg4) <{operandSegmentSizes = array<i32: 1, 0, 0, 0>, static_offsets = array<i64: 2>, static_sizes = array<i64: 1>, static_strides = array<i64: 1>}> : (memref<?xf32>) -> memref<1xf32, strided<[1], offset: 2>>
    "hivm.hir.store"(%406, %407) : (tensor<1xf32>, memref<1xf32, strided<[1], offset: 2>>) -> ()
    %408 = "memref.reinterpret_cast"(%arg3) <{operandSegmentSizes = array<i32: 1, 0, 0, 0>, static_offsets = array<i64: 3>, static_sizes = array<i64: 1>, static_strides = array<i64: 1>}> : (memref<?xf32>) -> memref<1xf32, strided<[1], offset: 3>>
    %409 = "memref.load"(%408, %0) : (memref<1xf32, strided<[1], offset: 3>>, index) -> f32
    %410 = "tensor.insert"(%409, %382, %0) : (f32, tensor<1xf32>, index) -> tensor<1xf32>
    %411 = "hivm.hir.vmul"(%410, %410, %129) <{broadcast = array<i64>, operandSegmentSizes = array<i32: 2, 1, 0>, transpose = array<i64>}> : (tensor<1xf32>, tensor<1xf32>, tensor<1xf32>) -> tensor<1xf32>
    %412 = "tensor.extract"(%411, %0) : (tensor<1xf32>, index) -> f32
    %413 = "tensor.insert"(%412, %381, %0) : (f32, tensor<1xf32>, index) -> tensor<1xf32>
    %414 = "memref.reinterpret_cast"(%arg4) <{operandSegmentSizes = array<i32: 1, 0, 0, 0>, static_offsets = array<i64: 3>, static_sizes = array<i64: 1>, static_strides = array<i64: 1>}> : (memref<?xf32>) -> memref<1xf32, strided<[1], offset: 3>>
    "hivm.hir.store"(%413, %414) : (tensor<1xf32>, memref<1xf32, strided<[1], offset: 3>>) -> ()
    %415 = "memref.reinterpret_cast"(%arg3) <{operandSegmentSizes = array<i32: 1, 0, 0, 0>, static_offsets = array<i64: 4>, static_sizes = array<i64: 1>, static_strides = array<i64: 1>}> : (memref<?xf32>) -> memref<1xf32, strided<[1], offset: 4>>
    %416 = "memref.load"(%415, %0) : (memref<1xf32, strided<[1], offset: 4>>, index) -> f32
    %417 = "tensor.insert"(%416, %380, %0) : (f32, tensor<1xf32>, index) -> tensor<1xf32>
    %418 = "hivm.hir.vmul"(%417, %417, %128) <{broadcast = array<i64>, operandSegmentSizes = array<i32: 2, 1, 0>, transpose = array<i64>}> : (tensor<1xf32>, tensor<1xf32>, tensor<1xf32>) -> tensor<1xf32>
    %419 = "tensor.extract"(%418, %0) : (tensor<1xf32>, index) -> f32
    %420 = "tensor.insert"(%419, %379, %0) : (f32, tensor<1xf32>, index) -> tensor<1xf32>
    %421 = "memref.reinterpret_cast"(%arg4) <{operandSegmentSizes = array<i32: 1, 0, 0, 0>, static_offsets = array<i64: 4>, static_sizes = array<i64: 1>, static_strides = array<i64: 1>}> : (memref<?xf32>) -> memref<1xf32, strided<[1], offset: 4>>
    "hivm.hir.store"(%420, %421) : (tensor<1xf32>, memref<1xf32, strided<[1], offset: 4>>) -> ()
    %422 = "memref.reinterpret_cast"(%arg3) <{operandSegmentSizes = array<i32: 1, 0, 0, 0>, static_offsets = array<i64: 5>, static_sizes = array<i64: 1>, static_strides = array<i64: 1>}> : (memref<?xf32>) -> memref<1xf32, strided<[1], offset: 5>>
    %423 = "memref.load"(%422, %0) : (memref<1xf32, strided<[1], offset: 5>>, index) -> f32
    %424 = "tensor.insert"(%423, %378, %0) : (f32, tensor<1xf32>, index) -> tensor<1xf32>
    %425 = "hivm.hir.vmul"(%424, %424, %127) <{broadcast = array<i64>, operandSegmentSizes = array<i32: 2, 1, 0>, transpose = array<i64>}> : (tensor<1xf32>, tensor<1xf32>, tensor<1xf32>) -> tensor<1xf32>
    %426 = "tensor.extract"(%425, %0) : (tensor<1xf32>, index) -> f32
    %427 = "tensor.insert"(%426, %377, %0) : (f32, tensor<1xf32>, index) -> tensor<1xf32>
    %428 = "memref.reinterpret_cast"(%arg4) <{operandSegmentSizes = array<i32: 1, 0, 0, 0>, static_offsets = array<i64: 5>, static_sizes = array<i64: 1>, static_strides = array<i64: 1>}> : (memref<?xf32>) -> memref<1xf32, strided<[1], offset: 5>>
    "hivm.hir.store"(%427, %428) : (tensor<1xf32>, memref<1xf32, strided<[1], offset: 5>>) -> ()
    %429 = "memref.reinterpret_cast"(%arg3) <{operandSegmentSizes = array<i32: 1, 0, 0, 0>, static_offsets = array<i64: 6>, static_sizes = array<i64: 1>, static_strides = array<i64: 1>}> : (memref<?xf32>) -> memref<1xf32, strided<[1], offset: 6>>
    %430 = "memref.load"(%429, %0) : (memref<1xf32, strided<[1], offset: 6>>, index) -> f32
    %431 = "tensor.insert"(%430, %376, %0) : (f32, tensor<1xf32>, index) -> tensor<1xf32>
    %432 = "hivm.hir.vmul"(%431, %431, %126) <{broadcast = array<i64>, operandSegmentSizes = array<i32: 2, 1, 0>, transpose = array<i64>}> : (tensor<1xf32>, tensor<1xf32>, tensor<1xf32>) -> tensor<1xf32>
    %433 = "tensor.extract"(%432, %0) : (tensor<1xf32>, index) -> f32
    %434 = "tensor.insert"(%433, %375, %0) : (f32, tensor<1xf32>, index) -> tensor<1xf32>
    %435 = "memref.reinterpret_cast"(%arg4) <{operandSegmentSizes = array<i32: 1, 0, 0, 0>, static_offsets = array<i64: 6>, static_sizes = array<i64: 1>, static_strides = array<i64: 1>}> : (memref<?xf32>) -> memref<1xf32, strided<[1], offset: 6>>
    "hivm.hir.store"(%434, %435) : (tensor<1xf32>, memref<1xf32, strided<[1], offset: 6>>) -> ()
    %436 = "memref.reinterpret_cast"(%arg3) <{operandSegmentSizes = array<i32: 1, 0, 0, 0>, static_offsets = array<i64: 7>, static_sizes = array<i64: 1>, static_strides = array<i64: 1>}> : (memref<?xf32>) -> memref<1xf32, strided<[1], offset: 7>>
    %437 = "memref.load"(%436, %0) : (memref<1xf32, strided<[1], offset: 7>>, index) -> f32
    %438 = "tensor.insert"(%437, %374, %0) : (f32, tensor<1xf32>, index) -> tensor<1xf32>
    %439 = "hivm.hir.vmul"(%438, %438, %125) <{broadcast = array<i64>, operandSegmentSizes = array<i32: 2, 1, 0>, transpose = array<i64>}> : (tensor<1xf32>, tensor<1xf32>, tensor<1xf32>) -> tensor<1xf32>
    %440 = "tensor.extract"(%439, %0) : (tensor<1xf32>, index) -> f32
    %441 = "tensor.insert"(%440, %373, %0) : (f32, tensor<1xf32>, index) -> tensor<1xf32>
    %442 = "memref.reinterpret_cast"(%arg4) <{operandSegmentSizes = array<i32: 1, 0, 0, 0>, static_offsets = array<i64: 7>, static_sizes = array<i64: 1>, static_strides = array<i64: 1>}> : (memref<?xf32>) -> memref<1xf32, strided<[1], offset: 7>>
    "hivm.hir.store"(%441, %442) : (tensor<1xf32>, memref<1xf32, strided<[1], offset: 7>>) -> ()
    %443 = "memref.reinterpret_cast"(%arg3) <{operandSegmentSizes = array<i32: 1, 0, 0, 0>, static_offsets = array<i64: 8>, static_sizes = array<i64: 1>, static_strides = array<i64: 1>}> : (memref<?xf32>) -> memref<1xf32, strided<[1], offset: 8>>
    %444 = "memref.load"(%443, %0) : (memref<1xf32, strided<[1], offset: 8>>, index) -> f32
    %445 = "tensor.insert"(%444, %372, %0) : (f32, tensor<1xf32>, index) -> tensor<1xf32>
    %446 = "hivm.hir.vmul"(%445, %445, %124) <{broadcast = array<i64>, operandSegmentSizes = array<i32: 2, 1, 0>, transpose = array<i64>}> : (tensor<1xf32>, tensor<1xf32>, tensor<1xf32>) -> tensor<1xf32>
    %447 = "tensor.extract"(%446, %0) : (tensor<1xf32>, index) -> f32
    %448 = "tensor.insert"(%447, %371, %0) : (f32, tensor<1xf32>, index) -> tensor<1xf32>
    %449 = "memref.reinterpret_cast"(%arg4) <{operandSegmentSizes = array<i32: 1, 0, 0, 0>, static_offsets = array<i64: 8>, static_sizes = array<i64: 1>, static_strides = array<i64: 1>}> : (memref<?xf32>) -> memref<1xf32, strided<[1], offset: 8>>
    "hivm.hir.store"(%448, %449) : (tensor<1xf32>, memref<1xf32, strided<[1], offset: 8>>) -> ()
    %450 = "memref.reinterpret_cast"(%arg3) <{operandSegmentSizes = array<i32: 1, 0, 0, 0>, static_offsets = array<i64: 9>, static_sizes = array<i64: 1>, static_strides = array<i64: 1>}> : (memref<?xf32>) -> memref<1xf32, strided<[1], offset: 9>>
    %451 = "memref.load"(%450, %0) : (memref<1xf32, strided<[1], offset: 9>>, index) -> f32
    %452 = "tensor.insert"(%451, %370, %0) : (f32, tensor<1xf32>, index) -> tensor<1xf32>
    %453 = "hivm.hir.vmul"(%452, %452, %123) <{broadcast = array<i64>, operandSegmentSizes = array<i32: 2, 1, 0>, transpose = array<i64>}> : (tensor<1xf32>, tensor<1xf32>, tensor<1xf32>) -> tensor<1xf32>
    %454 = "tensor.extract"(%453, %0) : (tensor<1xf32>, index) -> f32
    %455 = "tensor.insert"(%454, %369, %0) : (f32, tensor<1xf32>, index) -> tensor<1xf32>
    %456 = "memref.reinterpret_cast"(%arg4) <{operandSegmentSizes = array<i32: 1, 0, 0, 0>, static_offsets = array<i64: 9>, static_sizes = array<i64: 1>, static_strides = array<i64: 1>}> : (memref<?xf32>) -> memref<1xf32, strided<[1], offset: 9>>
    "hivm.hir.store"(%455, %456) : (tensor<1xf32>, memref<1xf32, strided<[1], offset: 9>>) -> ()
    %457 = "memref.reinterpret_cast"(%arg3) <{operandSegmentSizes = array<i32: 1, 0, 0, 0>, static_offsets = array<i64: 10>, static_sizes = array<i64: 1>, static_strides = array<i64: 1>}> : (memref<?xf32>) -> memref<1xf32, strided<[1], offset: 10>>
    %458 = "memref.load"(%457, %0) : (memref<1xf32, strided<[1], offset: 10>>, index) -> f32
    %459 = "tensor.insert"(%458, %368, %0) : (f32, tensor<1xf32>, index) -> tensor<1xf32>
    %460 = "hivm.hir.vmul"(%459, %459, %122) <{broadcast = array<i64>, operandSegmentSizes = array<i32: 2, 1, 0>, transpose = array<i64>}> : (tensor<1xf32>, tensor<1xf32>, tensor<1xf32>) -> tensor<1xf32>
    %461 = "tensor.extract"(%460, %0) : (tensor<1xf32>, index) -> f32
    %462 = "tensor.insert"(%461, %367, %0) : (f32, tensor<1xf32>, index) -> tensor<1xf32>
    %463 = "memref.reinterpret_cast"(%arg4) <{operandSegmentSizes = array<i32: 1, 0, 0, 0>, static_offsets = array<i64: 10>, static_sizes = array<i64: 1>, static_strides = array<i64: 1>}> : (memref<?xf32>) -> memref<1xf32, strided<[1], offset: 10>>
    "hivm.hir.store"(%462, %463) : (tensor<1xf32>, memref<1xf32, strided<[1], offset: 10>>) -> ()
    %464 = "memref.reinterpret_cast"(%arg3) <{operandSegmentSizes = array<i32: 1, 0, 0, 0>, static_offsets = array<i64: 11>, static_sizes = array<i64: 1>, static_strides = array<i64: 1>}> : (memref<?xf32>) -> memref<1xf32, strided<[1], offset: 11>>
    %465 = "memref.load"(%464, %0) : (memref<1xf32, strided<[1], offset: 11>>, index) -> f32
    %466 = "tensor.insert"(%465, %366, %0) : (f32, tensor<1xf32>, index) -> tensor<1xf32>
    %467 = "hivm.hir.vmul"(%466, %466, %121) <{broadcast = array<i64>, operandSegmentSizes = array<i32: 2, 1, 0>, transpose = array<i64>}> : (tensor<1xf32>, tensor<1xf32>, tensor<1xf32>) -> tensor<1xf32>
    %468 = "tensor.extract"(%467, %0) : (tensor<1xf32>, index) -> f32
    %469 = "tensor.insert"(%468, %365, %0) : (f32, tensor<1xf32>, index) -> tensor<1xf32>
    %470 = "memref.reinterpret_cast"(%arg4) <{operandSegmentSizes = array<i32: 1, 0, 0, 0>, static_offsets = array<i64: 11>, static_sizes = array<i64: 1>, static_strides = array<i64: 1>}> : (memref<?xf32>) -> memref<1xf32, strided<[1], offset: 11>>
    "hivm.hir.store"(%469, %470) : (tensor<1xf32>, memref<1xf32, strided<[1], offset: 11>>) -> ()
    %471 = "memref.reinterpret_cast"(%arg3) <{operandSegmentSizes = array<i32: 1, 0, 0, 0>, static_offsets = array<i64: 12>, static_sizes = array<i64: 1>, static_strides = array<i64: 1>}> : (memref<?xf32>) -> memref<1xf32, strided<[1], offset: 12>>
    %472 = "memref.load"(%471, %0) : (memref<1xf32, strided<[1], offset: 12>>, index) -> f32
    %473 = "tensor.insert"(%472, %364, %0) : (f32, tensor<1xf32>, index) -> tensor<1xf32>
    %474 = "hivm.hir.vmul"(%473, %473, %120) <{broadcast = array<i64>, operandSegmentSizes = array<i32: 2, 1, 0>, transpose = array<i64>}> : (tensor<1xf32>, tensor<1xf32>, tensor<1xf32>) -> tensor<1xf32>
    %475 = "tensor.extract"(%474, %0) : (tensor<1xf32>, index) -> f32
    %476 = "tensor.insert"(%475, %363, %0) : (f32, tensor<1xf32>, index) -> tensor<1xf32>
    %477 = "memref.reinterpret_cast"(%arg4) <{operandSegmentSizes = array<i32: 1, 0, 0, 0>, static_offsets = array<i64: 12>, static_sizes = array<i64: 1>, static_strides = array<i64: 1>}> : (memref<?xf32>) -> memref<1xf32, strided<[1], offset: 12>>
    "hivm.hir.store"(%476, %477) : (tensor<1xf32>, memref<1xf32, strided<[1], offset: 12>>) -> ()
    %478 = "memref.reinterpret_cast"(%arg3) <{operandSegmentSizes = array<i32: 1, 0, 0, 0>, static_offsets = array<i64: 13>, static_sizes = array<i64: 1>, static_strides = array<i64: 1>}> : (memref<?xf32>) -> memref<1xf32, strided<[1], offset: 13>>
    %479 = "memref.load"(%478, %0) : (memref<1xf32, strided<[1], offset: 13>>, index) -> f32
    %480 = "tensor.insert"(%479, %362, %0) : (f32, tensor<1xf32>, index) -> tensor<1xf32>
    %481 = "hivm.hir.vmul"(%480, %480, %119) <{broadcast = array<i64>, operandSegmentSizes = array<i32: 2, 1, 0>, transpose = array<i64>}> : (tensor<1xf32>, tensor<1xf32>, tensor<1xf32>) -> tensor<1xf32>
    %482 = "tensor.extract"(%481, %0) : (tensor<1xf32>, index) -> f32
    %483 = "tensor.insert"(%482, %361, %0) : (f32, tensor<1xf32>, index) -> tensor<1xf32>
    %484 = "memref.reinterpret_cast"(%arg4) <{operandSegmentSizes = array<i32: 1, 0, 0, 0>, static_offsets = array<i64: 13>, static_sizes = array<i64: 1>, static_strides = array<i64: 1>}> : (memref<?xf32>) -> memref<1xf32, strided<[1], offset: 13>>
    "hivm.hir.store"(%483, %484) : (tensor<1xf32>, memref<1xf32, strided<[1], offset: 13>>) -> ()
    %485 = "memref.reinterpret_cast"(%arg3) <{operandSegmentSizes = array<i32: 1, 0, 0, 0>, static_offsets = array<i64: 14>, static_sizes = array<i64: 1>, static_strides = array<i64: 1>}> : (memref<?xf32>) -> memref<1xf32, strided<[1], offset: 14>>
    %486 = "memref.load"(%485, %0) : (memref<1xf32, strided<[1], offset: 14>>, index) -> f32
    %487 = "tensor.insert"(%486, %360, %0) : (f32, tensor<1xf32>, index) -> tensor<1xf32>
    %488 = "hivm.hir.vmul"(%487, %487, %118) <{broadcast = array<i64>, operandSegmentSizes = array<i32: 2, 1, 0>, transpose = array<i64>}> : (tensor<1xf32>, tensor<1xf32>, tensor<1xf32>) -> tensor<1xf32>
    %489 = "tensor.extract"(%488, %0) : (tensor<1xf32>, index) -> f32
    %490 = "tensor.insert"(%489, %359, %0) : (f32, tensor<1xf32>, index) -> tensor<1xf32>
    %491 = "memref.reinterpret_cast"(%arg4) <{operandSegmentSizes = array<i32: 1, 0, 0, 0>, static_offsets = array<i64: 14>, static_sizes = array<i64: 1>, static_strides = array<i64: 1>}> : (memref<?xf32>) -> memref<1xf32, strided<[1], offset: 14>>
    "hivm.hir.store"(%490, %491) : (tensor<1xf32>, memref<1xf32, strided<[1], offset: 14>>) -> ()
    %492 = "memref.reinterpret_cast"(%arg3) <{operandSegmentSizes = array<i32: 1, 0, 0, 0>, static_offsets = array<i64: 15>, static_sizes = array<i64: 1>, static_strides = array<i64: 1>}> : (memref<?xf32>) -> memref<1xf32, strided<[1], offset: 15>>
    %493 = "memref.load"(%492, %0) : (memref<1xf32, strided<[1], offset: 15>>, index) -> f32
    %494 = "tensor.insert"(%493, %358, %0) : (f32, tensor<1xf32>, index) -> tensor<1xf32>
    %495 = "hivm.hir.vmul"(%494, %494, %117) <{broadcast = array<i64>, operandSegmentSizes = array<i32: 2, 1, 0>, transpose = array<i64>}> : (tensor<1xf32>, tensor<1xf32>, tensor<1xf32>) -> tensor<1xf32>
    %496 = "tensor.extract"(%495, %0) : (tensor<1xf32>, index) -> f32
    %497 = "tensor.insert"(%496, %357, %0) : (f32, tensor<1xf32>, index) -> tensor<1xf32>
    %498 = "memref.reinterpret_cast"(%arg4) <{operandSegmentSizes = array<i32: 1, 0, 0, 0>, static_offsets = array<i64: 15>, static_sizes = array<i64: 1>, static_strides = array<i64: 1>}> : (memref<?xf32>) -> memref<1xf32, strided<[1], offset: 15>>
    "hivm.hir.store"(%497, %498) : (tensor<1xf32>, memref<1xf32, strided<[1], offset: 15>>) -> ()
    %499 = "memref.reinterpret_cast"(%arg3) <{operandSegmentSizes = array<i32: 1, 0, 0, 0>, static_offsets = array<i64: 16>, static_sizes = array<i64: 1>, static_strides = array<i64: 1>}> : (memref<?xf32>) -> memref<1xf32, strided<[1], offset: 16>>
    %500 = "memref.load"(%499, %0) : (memref<1xf32, strided<[1], offset: 16>>, index) -> f32
    %501 = "tensor.insert"(%500, %356, %0) : (f32, tensor<1xf32>, index) -> tensor<1xf32>
    %502 = "hivm.hir.vmul"(%501, %501, %116) <{broadcast = array<i64>, operandSegmentSizes = array<i32: 2, 1, 0>, transpose = array<i64>}> : (tensor<1xf32>, tensor<1xf32>, tensor<1xf32>) -> tensor<1xf32>
    %503 = "tensor.extract"(%502, %0) : (tensor<1xf32>, index) -> f32
    %504 = "tensor.insert"(%503, %355, %0) : (f32, tensor<1xf32>, index) -> tensor<1xf32>
    %505 = "memref.reinterpret_cast"(%arg4) <{operandSegmentSizes = array<i32: 1, 0, 0, 0>, static_offsets = array<i64: 16>, static_sizes = array<i64: 1>, static_strides = array<i64: 1>}> : (memref<?xf32>) -> memref<1xf32, strided<[1], offset: 16>>
    "hivm.hir.store"(%504, %505) : (tensor<1xf32>, memref<1xf32, strided<[1], offset: 16>>) -> ()
    %506 = "memref.reinterpret_cast"(%arg3) <{operandSegmentSizes = array<i32: 1, 0, 0, 0>, static_offsets = array<i64: 17>, static_sizes = array<i64: 1>, static_strides = array<i64: 1>}> : (memref<?xf32>) -> memref<1xf32, strided<[1], offset: 17>>
    %507 = "memref.load"(%506, %0) : (memref<1xf32, strided<[1], offset: 17>>, index) -> f32
    %508 = "tensor.insert"(%507, %354, %0) : (f32, tensor<1xf32>, index) -> tensor<1xf32>
    %509 = "hivm.hir.vmul"(%508, %508, %115) <{broadcast = array<i64>, operandSegmentSizes = array<i32: 2, 1, 0>, transpose = array<i64>}> : (tensor<1xf32>, tensor<1xf32>, tensor<1xf32>) -> tensor<1xf32>
    %510 = "tensor.extract"(%509, %0) : (tensor<1xf32>, index) -> f32
    %511 = "tensor.insert"(%510, %353, %0) : (f32, tensor<1xf32>, index) -> tensor<1xf32>
    %512 = "memref.reinterpret_cast"(%arg4) <{operandSegmentSizes = array<i32: 1, 0, 0, 0>, static_offsets = array<i64: 17>, static_sizes = array<i64: 1>, static_strides = array<i64: 1>}> : (memref<?xf32>) -> memref<1xf32, strided<[1], offset: 17>>
    "hivm.hir.store"(%511, %512) : (tensor<1xf32>, memref<1xf32, strided<[1], offset: 17>>) -> ()
    %513 = "memref.reinterpret_cast"(%arg3) <{operandSegmentSizes = array<i32: 1, 0, 0, 0>, static_offsets = array<i64: 18>, static_sizes = array<i64: 1>, static_strides = array<i64: 1>}> : (memref<?xf32>) -> memref<1xf32, strided<[1], offset: 18>>
    %514 = "memref.load"(%513, %0) : (memref<1xf32, strided<[1], offset: 18>>, index) -> f32
    %515 = "tensor.insert"(%514, %352, %0) : (f32, tensor<1xf32>, index) -> tensor<1xf32>
    %516 = "hivm.hir.vmul"(%515, %515, %114) <{broadcast = array<i64>, operandSegmentSizes = array<i32: 2, 1, 0>, transpose = array<i64>}> : (tensor<1xf32>, tensor<1xf32>, tensor<1xf32>) -> tensor<1xf32>
    %517 = "tensor.extract"(%516, %0) : (tensor<1xf32>, index) -> f32
    %518 = "tensor.insert"(%517, %351, %0) : (f32, tensor<1xf32>, index) -> tensor<1xf32>
    %519 = "memref.reinterpret_cast"(%arg4) <{operandSegmentSizes = array<i32: 1, 0, 0, 0>, static_offsets = array<i64: 18>, static_sizes = array<i64: 1>, static_strides = array<i64: 1>}> : (memref<?xf32>) -> memref<1xf32, strided<[1], offset: 18>>
    "hivm.hir.store"(%518, %519) : (tensor<1xf32>, memref<1xf32, strided<[1], offset: 18>>) -> ()
    %520 = "memref.reinterpret_cast"(%arg3) <{operandSegmentSizes = array<i32: 1, 0, 0, 0>, static_offsets = array<i64: 19>, static_sizes = array<i64: 1>, static_strides = array<i64: 1>}> : (memref<?xf32>) -> memref<1xf32, strided<[1], offset: 19>>
    %521 = "memref.load"(%520, %0) : (memref<1xf32, strided<[1], offset: 19>>, index) -> f32
    %522 = "tensor.insert"(%521, %350, %0) : (f32, tensor<1xf32>, index) -> tensor<1xf32>
    %523 = "hivm.hir.vmul"(%522, %522, %113) <{broadcast = array<i64>, operandSegmentSizes = array<i32: 2, 1, 0>, transpose = array<i64>}> : (tensor<1xf32>, tensor<1xf32>, tensor<1xf32>) -> tensor<1xf32>
    %524 = "tensor.extract"(%523, %0) : (tensor<1xf32>, index) -> f32
    %525 = "tensor.insert"(%524, %349, %0) : (f32, tensor<1xf32>, index) -> tensor<1xf32>
    %526 = "memref.reinterpret_cast"(%arg4) <{operandSegmentSizes = array<i32: 1, 0, 0, 0>, static_offsets = array<i64: 19>, static_sizes = array<i64: 1>, static_strides = array<i64: 1>}> : (memref<?xf32>) -> memref<1xf32, strided<[1], offset: 19>>
    "hivm.hir.store"(%525, %526) : (tensor<1xf32>, memref<1xf32, strided<[1], offset: 19>>) -> ()
    %527 = "memref.reinterpret_cast"(%arg3) <{operandSegmentSizes = array<i32: 1, 0, 0, 0>, static_offsets = array<i64: 20>, static_sizes = array<i64: 1>, static_strides = array<i64: 1>}> : (memref<?xf32>) -> memref<1xf32, strided<[1], offset: 20>>
    %528 = "memref.load"(%527, %0) : (memref<1xf32, strided<[1], offset: 20>>, index) -> f32
    %529 = "tensor.insert"(%528, %348, %0) : (f32, tensor<1xf32>, index) -> tensor<1xf32>
    %530 = "hivm.hir.vmul"(%529, %529, %112) <{broadcast = array<i64>, operandSegmentSizes = array<i32: 2, 1, 0>, transpose = array<i64>}> : (tensor<1xf32>, tensor<1xf32>, tensor<1xf32>) -> tensor<1xf32>
    %531 = "tensor.extract"(%530, %0) : (tensor<1xf32>, index) -> f32
    %532 = "tensor.insert"(%531, %347, %0) : (f32, tensor<1xf32>, index) -> tensor<1xf32>
    %533 = "memref.reinterpret_cast"(%arg4) <{operandSegmentSizes = array<i32: 1, 0, 0, 0>, static_offsets = array<i64: 20>, static_sizes = array<i64: 1>, static_strides = array<i64: 1>}> : (memref<?xf32>) -> memref<1xf32, strided<[1], offset: 20>>
    "hivm.hir.store"(%532, %533) : (tensor<1xf32>, memref<1xf32, strided<[1], offset: 20>>) -> ()
    %534 = "memref.reinterpret_cast"(%arg3) <{operandSegmentSizes = array<i32: 1, 0, 0, 0>, static_offsets = array<i64: 21>, static_sizes = array<i64: 1>, static_strides = array<i64: 1>}> : (memref<?xf32>) -> memref<1xf32, strided<[1], offset: 21>>
    %535 = "memref.load"(%534, %0) : (memref<1xf32, strided<[1], offset: 21>>, index) -> f32
    %536 = "tensor.insert"(%535, %346, %0) : (f32, tensor<1xf32>, index) -> tensor<1xf32>
    %537 = "hivm.hir.vmul"(%536, %536, %111) <{broadcast = array<i64>, operandSegmentSizes = array<i32: 2, 1, 0>, transpose = array<i64>}> : (tensor<1xf32>, tensor<1xf32>, tensor<1xf32>) -> tensor<1xf32>
    %538 = "tensor.extract"(%537, %0) : (tensor<1xf32>, index) -> f32
    %539 = "tensor.insert"(%538, %345, %0) : (f32, tensor<1xf32>, index) -> tensor<1xf32>
    %540 = "memref.reinterpret_cast"(%arg4) <{operandSegmentSizes = array<i32: 1, 0, 0, 0>, static_offsets = array<i64: 21>, static_sizes = array<i64: 1>, static_strides = array<i64: 1>}> : (memref<?xf32>) -> memref<1xf32, strided<[1], offset: 21>>
    "hivm.hir.store"(%539, %540) : (tensor<1xf32>, memref<1xf32, strided<[1], offset: 21>>) -> ()
    %541 = "memref.reinterpret_cast"(%arg3) <{operandSegmentSizes = array<i32: 1, 0, 0, 0>, static_offsets = array<i64: 22>, static_sizes = array<i64: 1>, static_strides = array<i64: 1>}> : (memref<?xf32>) -> memref<1xf32, strided<[1], offset: 22>>
    %542 = "memref.load"(%541, %0) : (memref<1xf32, strided<[1], offset: 22>>, index) -> f32
    %543 = "tensor.insert"(%542, %344, %0) : (f32, tensor<1xf32>, index) -> tensor<1xf32>
    %544 = "hivm.hir.vmul"(%543, %543, %110) <{broadcast = array<i64>, operandSegmentSizes = array<i32: 2, 1, 0>, transpose = array<i64>}> : (tensor<1xf32>, tensor<1xf32>, tensor<1xf32>) -> tensor<1xf32>
    %545 = "tensor.extract"(%544, %0) : (tensor<1xf32>, index) -> f32
    %546 = "tensor.insert"(%545, %343, %0) : (f32, tensor<1xf32>, index) -> tensor<1xf32>
    %547 = "memref.reinterpret_cast"(%arg4) <{operandSegmentSizes = array<i32: 1, 0, 0, 0>, static_offsets = array<i64: 22>, static_sizes = array<i64: 1>, static_strides = array<i64: 1>}> : (memref<?xf32>) -> memref<1xf32, strided<[1], offset: 22>>
    "hivm.hir.store"(%546, %547) : (tensor<1xf32>, memref<1xf32, strided<[1], offset: 22>>) -> ()
    %548 = "memref.reinterpret_cast"(%arg3) <{operandSegmentSizes = array<i32: 1, 0, 0, 0>, static_offsets = array<i64: 23>, static_sizes = array<i64: 1>, static_strides = array<i64: 1>}> : (memref<?xf32>) -> memref<1xf32, strided<[1], offset: 23>>
    %549 = "memref.load"(%548, %0) : (memref<1xf32, strided<[1], offset: 23>>, index) -> f32
    %550 = "tensor.insert"(%549, %342, %0) : (f32, tensor<1xf32>, index) -> tensor<1xf32>
    %551 = "hivm.hir.vmul"(%550, %550, %109) <{broadcast = array<i64>, operandSegmentSizes = array<i32: 2, 1, 0>, transpose = array<i64>}> : (tensor<1xf32>, tensor<1xf32>, tensor<1xf32>) -> tensor<1xf32>
    %552 = "tensor.extract"(%551, %0) : (tensor<1xf32>, index) -> f32
    %553 = "tensor.insert"(%552, %341, %0) : (f32, tensor<1xf32>, index) -> tensor<1xf32>
    %554 = "memref.reinterpret_cast"(%arg4) <{operandSegmentSizes = array<i32: 1, 0, 0, 0>, static_offsets = array<i64: 23>, static_sizes = array<i64: 1>, static_strides = array<i64: 1>}> : (memref<?xf32>) -> memref<1xf32, strided<[1], offset: 23>>
    "hivm.hir.store"(%553, %554) : (tensor<1xf32>, memref<1xf32, strided<[1], offset: 23>>) -> ()
    %555 = "memref.reinterpret_cast"(%arg3) <{operandSegmentSizes = array<i32: 1, 0, 0, 0>, static_offsets = array<i64: 24>, static_sizes = array<i64: 1>, static_strides = array<i64: 1>}> : (memref<?xf32>) -> memref<1xf32, strided<[1], offset: 24>>
    %556 = "memref.load"(%555, %0) : (memref<1xf32, strided<[1], offset: 24>>, index) -> f32
    %557 = "tensor.insert"(%556, %340, %0) : (f32, tensor<1xf32>, index) -> tensor<1xf32>
    %558 = "hivm.hir.vmul"(%557, %557, %108) <{broadcast = array<i64>, operandSegmentSizes = array<i32: 2, 1, 0>, transpose = array<i64>}> : (tensor<1xf32>, tensor<1xf32>, tensor<1xf32>) -> tensor<1xf32>
    %559 = "tensor.extract"(%558, %0) : (tensor<1xf32>, index) -> f32
    %560 = "tensor.insert"(%559, %339, %0) : (f32, tensor<1xf32>, index) -> tensor<1xf32>
    %561 = "memref.reinterpret_cast"(%arg4) <{operandSegmentSizes = array<i32: 1, 0, 0, 0>, static_offsets = array<i64: 24>, static_sizes = array<i64: 1>, static_strides = array<i64: 1>}> : (memref<?xf32>) -> memref<1xf32, strided<[1], offset: 24>>
    "hivm.hir.store"(%560, %561) : (tensor<1xf32>, memref<1xf32, strided<[1], offset: 24>>) -> ()
    %562 = "memref.reinterpret_cast"(%arg3) <{operandSegmentSizes = array<i32: 1, 0, 0, 0>, static_offsets = array<i64: 25>, static_sizes = array<i64: 1>, static_strides = array<i64: 1>}> : (memref<?xf32>) -> memref<1xf32, strided<[1], offset: 25>>
    %563 = "memref.load"(%562, %0) : (memref<1xf32, strided<[1], offset: 25>>, index) -> f32
    %564 = "tensor.insert"(%563, %338, %0) : (f32, tensor<1xf32>, index) -> tensor<1xf32>
    %565 = "hivm.hir.vmul"(%564, %564, %107) <{broadcast = array<i64>, operandSegmentSizes = array<i32: 2, 1, 0>, transpose = array<i64>}> : (tensor<1xf32>, tensor<1xf32>, tensor<1xf32>) -> tensor<1xf32>
    %566 = "tensor.extract"(%565, %0) : (tensor<1xf32>, index) -> f32
    %567 = "tensor.insert"(%566, %337, %0) : (f32, tensor<1xf32>, index) -> tensor<1xf32>
    %568 = "memref.reinterpret_cast"(%arg4) <{operandSegmentSizes = array<i32: 1, 0, 0, 0>, static_offsets = array<i64: 25>, static_sizes = array<i64: 1>, static_strides = array<i64: 1>}> : (memref<?xf32>) -> memref<1xf32, strided<[1], offset: 25>>
    "hivm.hir.store"(%567, %568) : (tensor<1xf32>, memref<1xf32, strided<[1], offset: 25>>) -> ()
    %569 = "memref.reinterpret_cast"(%arg3) <{operandSegmentSizes = array<i32: 1, 0, 0, 0>, static_offsets = array<i64: 26>, static_sizes = array<i64: 1>, static_strides = array<i64: 1>}> : (memref<?xf32>) -> memref<1xf32, strided<[1], offset: 26>>
    %570 = "memref.load"(%569, %0) : (memref<1xf32, strided<[1], offset: 26>>, index) -> f32
    %571 = "tensor.insert"(%570, %336, %0) : (f32, tensor<1xf32>, index) -> tensor<1xf32>
    %572 = "hivm.hir.vmul"(%571, %571, %106) <{broadcast = array<i64>, operandSegmentSizes = array<i32: 2, 1, 0>, transpose = array<i64>}> : (tensor<1xf32>, tensor<1xf32>, tensor<1xf32>) -> tensor<1xf32>
    %573 = "tensor.extract"(%572, %0) : (tensor<1xf32>, index) -> f32
    %574 = "tensor.insert"(%573, %335, %0) : (f32, tensor<1xf32>, index) -> tensor<1xf32>
    %575 = "memref.reinterpret_cast"(%arg4) <{operandSegmentSizes = array<i32: 1, 0, 0, 0>, static_offsets = array<i64: 26>, static_sizes = array<i64: 1>, static_strides = array<i64: 1>}> : (memref<?xf32>) -> memref<1xf32, strided<[1], offset: 26>>
    "hivm.hir.store"(%574, %575) : (tensor<1xf32>, memref<1xf32, strided<[1], offset: 26>>) -> ()
    %576 = "memref.reinterpret_cast"(%arg3) <{operandSegmentSizes = array<i32: 1, 0, 0, 0>, static_offsets = array<i64: 27>, static_sizes = array<i64: 1>, static_strides = array<i64: 1>}> : (memref<?xf32>) -> memref<1xf32, strided<[1], offset: 27>>
    %577 = "memref.load"(%576, %0) : (memref<1xf32, strided<[1], offset: 27>>, index) -> f32
    %578 = "tensor.insert"(%577, %334, %0) : (f32, tensor<1xf32>, index) -> tensor<1xf32>
    %579 = "hivm.hir.vmul"(%578, %578, %105) <{broadcast = array<i64>, operandSegmentSizes = array<i32: 2, 1, 0>, transpose = array<i64>}> : (tensor<1xf32>, tensor<1xf32>, tensor<1xf32>) -> tensor<1xf32>
    %580 = "tensor.extract"(%579, %0) : (tensor<1xf32>, index) -> f32
    %581 = "tensor.insert"(%580, %333, %0) : (f32, tensor<1xf32>, index) -> tensor<1xf32>
    %582 = "memref.reinterpret_cast"(%arg4) <{operandSegmentSizes = array<i32: 1, 0, 0, 0>, static_offsets = array<i64: 27>, static_sizes = array<i64: 1>, static_strides = array<i64: 1>}> : (memref<?xf32>) -> memref<1xf32, strided<[1], offset: 27>>
    "hivm.hir.store"(%581, %582) : (tensor<1xf32>, memref<1xf32, strided<[1], offset: 27>>) -> ()
    %583 = "memref.reinterpret_cast"(%arg3) <{operandSegmentSizes = array<i32: 1, 0, 0, 0>, static_offsets = array<i64: 28>, static_sizes = array<i64: 1>, static_strides = array<i64: 1>}> : (memref<?xf32>) -> memref<1xf32, strided<[1], offset: 28>>
    %584 = "memref.load"(%583, %0) : (memref<1xf32, strided<[1], offset: 28>>, index) -> f32
    %585 = "tensor.insert"(%584, %332, %0) : (f32, tensor<1xf32>, index) -> tensor<1xf32>
    %586 = "hivm.hir.vmul"(%585, %585, %104) <{broadcast = array<i64>, operandSegmentSizes = array<i32: 2, 1, 0>, transpose = array<i64>}> : (tensor<1xf32>, tensor<1xf32>, tensor<1xf32>) -> tensor<1xf32>
    %587 = "tensor.extract"(%586, %0) : (tensor<1xf32>, index) -> f32
    %588 = "tensor.insert"(%587, %331, %0) : (f32, tensor<1xf32>, index) -> tensor<1xf32>
    %589 = "memref.reinterpret_cast"(%arg4) <{operandSegmentSizes = array<i32: 1, 0, 0, 0>, static_offsets = array<i64: 28>, static_sizes = array<i64: 1>, static_strides = array<i64: 1>}> : (memref<?xf32>) -> memref<1xf32, strided<[1], offset: 28>>
    "hivm.hir.store"(%588, %589) : (tensor<1xf32>, memref<1xf32, strided<[1], offset: 28>>) -> ()
    %590 = "memref.reinterpret_cast"(%arg3) <{operandSegmentSizes = array<i32: 1, 0, 0, 0>, static_offsets = array<i64: 29>, static_sizes = array<i64: 1>, static_strides = array<i64: 1>}> : (memref<?xf32>) -> memref<1xf32, strided<[1], offset: 29>>
    %591 = "memref.load"(%590, %0) : (memref<1xf32, strided<[1], offset: 29>>, index) -> f32
    %592 = "tensor.insert"(%591, %330, %0) : (f32, tensor<1xf32>, index) -> tensor<1xf32>
    %593 = "hivm.hir.vmul"(%592, %592, %103) <{broadcast = array<i64>, operandSegmentSizes = array<i32: 2, 1, 0>, transpose = array<i64>}> : (tensor<1xf32>, tensor<1xf32>, tensor<1xf32>) -> tensor<1xf32>
    %594 = "tensor.extract"(%593, %0) : (tensor<1xf32>, index) -> f32
    %595 = "tensor.insert"(%594, %329, %0) : (f32, tensor<1xf32>, index) -> tensor<1xf32>
    %596 = "memref.reinterpret_cast"(%arg4) <{operandSegmentSizes = array<i32: 1, 0, 0, 0>, static_offsets = array<i64: 29>, static_sizes = array<i64: 1>, static_strides = array<i64: 1>}> : (memref<?xf32>) -> memref<1xf32, strided<[1], offset: 29>>
    "hivm.hir.store"(%595, %596) : (tensor<1xf32>, memref<1xf32, strided<[1], offset: 29>>) -> ()
    %597 = "memref.reinterpret_cast"(%arg3) <{operandSegmentSizes = array<i32: 1, 0, 0, 0>, static_offsets = array<i64: 30>, static_sizes = array<i64: 1>, static_strides = array<i64: 1>}> : (memref<?xf32>) -> memref<1xf32, strided<[1], offset: 30>>
    %598 = "memref.load"(%597, %0) : (memref<1xf32, strided<[1], offset: 30>>, index) -> f32
    %599 = "tensor.insert"(%598, %328, %0) : (f32, tensor<1xf32>, index) -> tensor<1xf32>
    %600 = "hivm.hir.vmul"(%599, %599, %102) <{broadcast = array<i64>, operandSegmentSizes = array<i32: 2, 1, 0>, transpose = array<i64>}> : (tensor<1xf32>, tensor<1xf32>, tensor<1xf32>) -> tensor<1xf32>
    %601 = "tensor.extract"(%600, %0) : (tensor<1xf32>, index) -> f32
    %602 = "tensor.insert"(%601, %327, %0) : (f32, tensor<1xf32>, index) -> tensor<1xf32>
    %603 = "memref.reinterpret_cast"(%arg4) <{operandSegmentSizes = array<i32: 1, 0, 0, 0>, static_offsets = array<i64: 30>, static_sizes = array<i64: 1>, static_strides = array<i64: 1>}> : (memref<?xf32>) -> memref<1xf32, strided<[1], offset: 30>>
    "hivm.hir.store"(%602, %603) : (tensor<1xf32>, memref<1xf32, strided<[1], offset: 30>>) -> ()
    %604 = "memref.reinterpret_cast"(%arg3) <{operandSegmentSizes = array<i32: 1, 0, 0, 0>, static_offsets = array<i64: 31>, static_sizes = array<i64: 1>, static_strides = array<i64: 1>}> : (memref<?xf32>) -> memref<1xf32, strided<[1], offset: 31>>
    %605 = "memref.load"(%604, %0) : (memref<1xf32, strided<[1], offset: 31>>, index) -> f32
    %606 = "tensor.insert"(%605, %326, %0) : (f32, tensor<1xf32>, index) -> tensor<1xf32>
    %607 = "hivm.hir.vmul"(%606, %606, %101) <{broadcast = array<i64>, operandSegmentSizes = array<i32: 2, 1, 0>, transpose = array<i64>}> : (tensor<1xf32>, tensor<1xf32>, tensor<1xf32>) -> tensor<1xf32>
    %608 = "tensor.extract"(%607, %0) : (tensor<1xf32>, index) -> f32
    %609 = "tensor.insert"(%608, %325, %0) : (f32, tensor<1xf32>, index) -> tensor<1xf32>
    %610 = "memref.reinterpret_cast"(%arg4) <{operandSegmentSizes = array<i32: 1, 0, 0, 0>, static_offsets = array<i64: 31>, static_sizes = array<i64: 1>, static_strides = array<i64: 1>}> : (memref<?xf32>) -> memref<1xf32, strided<[1], offset: 31>>
    "hivm.hir.store"(%609, %610) : (tensor<1xf32>, memref<1xf32, strided<[1], offset: 31>>) -> ()
    %611 = "memref.reinterpret_cast"(%arg3) <{operandSegmentSizes = array<i32: 1, 0, 0, 0>, static_offsets = array<i64: 32>, static_sizes = array<i64: 1>, static_strides = array<i64: 1>}> : (memref<?xf32>) -> memref<1xf32, strided<[1], offset: 32>>
    %612 = "memref.load"(%611, %0) : (memref<1xf32, strided<[1], offset: 32>>, index) -> f32
    %613 = "tensor.insert"(%612, %324, %0) : (f32, tensor<1xf32>, index) -> tensor<1xf32>
    %614 = "hivm.hir.vmul"(%613, %613, %100) <{broadcast = array<i64>, operandSegmentSizes = array<i32: 2, 1, 0>, transpose = array<i64>}> : (tensor<1xf32>, tensor<1xf32>, tensor<1xf32>) -> tensor<1xf32>
    %615 = "tensor.extract"(%614, %0) : (tensor<1xf32>, index) -> f32
    %616 = "tensor.insert"(%615, %323, %0) : (f32, tensor<1xf32>, index) -> tensor<1xf32>
    %617 = "memref.reinterpret_cast"(%arg4) <{operandSegmentSizes = array<i32: 1, 0, 0, 0>, static_offsets = array<i64: 32>, static_sizes = array<i64: 1>, static_strides = array<i64: 1>}> : (memref<?xf32>) -> memref<1xf32, strided<[1], offset: 32>>
    "hivm.hir.store"(%616, %617) : (tensor<1xf32>, memref<1xf32, strided<[1], offset: 32>>) -> ()
    %618 = "memref.reinterpret_cast"(%arg3) <{operandSegmentSizes = array<i32: 1, 0, 0, 0>, static_offsets = array<i64: 33>, static_sizes = array<i64: 1>, static_strides = array<i64: 1>}> : (memref<?xf32>) -> memref<1xf32, strided<[1], offset: 33>>
    %619 = "memref.load"(%618, %0) : (memref<1xf32, strided<[1], offset: 33>>, index) -> f32
    %620 = "tensor.insert"(%619, %322, %0) : (f32, tensor<1xf32>, index) -> tensor<1xf32>
    %621 = "hivm.hir.vmul"(%620, %620, %99) <{broadcast = array<i64>, operandSegmentSizes = array<i32: 2, 1, 0>, transpose = array<i64>}> : (tensor<1xf32>, tensor<1xf32>, tensor<1xf32>) -> tensor<1xf32>
    %622 = "tensor.extract"(%621, %0) : (tensor<1xf32>, index) -> f32
    %623 = "tensor.insert"(%622, %321, %0) : (f32, tensor<1xf32>, index) -> tensor<1xf32>
    %624 = "memref.reinterpret_cast"(%arg4) <{operandSegmentSizes = array<i32: 1, 0, 0, 0>, static_offsets = array<i64: 33>, static_sizes = array<i64: 1>, static_strides = array<i64: 1>}> : (memref<?xf32>) -> memref<1xf32, strided<[1], offset: 33>>
    "hivm.hir.store"(%623, %624) : (tensor<1xf32>, memref<1xf32, strided<[1], offset: 33>>) -> ()
    %625 = "memref.reinterpret_cast"(%arg3) <{operandSegmentSizes = array<i32: 1, 0, 0, 0>, static_offsets = array<i64: 34>, static_sizes = array<i64: 1>, static_strides = array<i64: 1>}> : (memref<?xf32>) -> memref<1xf32, strided<[1], offset: 34>>
    %626 = "memref.load"(%625, %0) : (memref<1xf32, strided<[1], offset: 34>>, index) -> f32
    %627 = "tensor.insert"(%626, %320, %0) : (f32, tensor<1xf32>, index) -> tensor<1xf32>
    %628 = "hivm.hir.vmul"(%627, %627, %98) <{broadcast = array<i64>, operandSegmentSizes = array<i32: 2, 1, 0>, transpose = array<i64>}> : (tensor<1xf32>, tensor<1xf32>, tensor<1xf32>) -> tensor<1xf32>
    %629 = "tensor.extract"(%628, %0) : (tensor<1xf32>, index) -> f32
    %630 = "tensor.insert"(%629, %319, %0) : (f32, tensor<1xf32>, index) -> tensor<1xf32>
    %631 = "memref.reinterpret_cast"(%arg4) <{operandSegmentSizes = array<i32: 1, 0, 0, 0>, static_offsets = array<i64: 34>, static_sizes = array<i64: 1>, static_strides = array<i64: 1>}> : (memref<?xf32>) -> memref<1xf32, strided<[1], offset: 34>>
    "hivm.hir.store"(%630, %631) : (tensor<1xf32>, memref<1xf32, strided<[1], offset: 34>>) -> ()
    %632 = "memref.reinterpret_cast"(%arg3) <{operandSegmentSizes = array<i32: 1, 0, 0, 0>, static_offsets = array<i64: 35>, static_sizes = array<i64: 1>, static_strides = array<i64: 1>}> : (memref<?xf32>) -> memref<1xf32, strided<[1], offset: 35>>
    %633 = "memref.load"(%632, %0) : (memref<1xf32, strided<[1], offset: 35>>, index) -> f32
    %634 = "tensor.insert"(%633, %318, %0) : (f32, tensor<1xf32>, index) -> tensor<1xf32>
    %635 = "hivm.hir.vmul"(%634, %634, %97) <{broadcast = array<i64>, operandSegmentSizes = array<i32: 2, 1, 0>, transpose = array<i64>}> : (tensor<1xf32>, tensor<1xf32>, tensor<1xf32>) -> tensor<1xf32>
    %636 = "tensor.extract"(%635, %0) : (tensor<1xf32>, index) -> f32
    %637 = "tensor.insert"(%636, %317, %0) : (f32, tensor<1xf32>, index) -> tensor<1xf32>
    %638 = "memref.reinterpret_cast"(%arg4) <{operandSegmentSizes = array<i32: 1, 0, 0, 0>, static_offsets = array<i64: 35>, static_sizes = array<i64: 1>, static_strides = array<i64: 1>}> : (memref<?xf32>) -> memref<1xf32, strided<[1], offset: 35>>
    "hivm.hir.store"(%637, %638) : (tensor<1xf32>, memref<1xf32, strided<[1], offset: 35>>) -> ()
    %639 = "memref.reinterpret_cast"(%arg3) <{operandSegmentSizes = array<i32: 1, 0, 0, 0>, static_offsets = array<i64: 36>, static_sizes = array<i64: 1>, static_strides = array<i64: 1>}> : (memref<?xf32>) -> memref<1xf32, strided<[1], offset: 36>>
    %640 = "memref.load"(%639, %0) : (memref<1xf32, strided<[1], offset: 36>>, index) -> f32
    %641 = "tensor.insert"(%640, %316, %0) : (f32, tensor<1xf32>, index) -> tensor<1xf32>
    %642 = "hivm.hir.vmul"(%641, %641, %96) <{broadcast = array<i64>, operandSegmentSizes = array<i32: 2, 1, 0>, transpose = array<i64>}> : (tensor<1xf32>, tensor<1xf32>, tensor<1xf32>) -> tensor<1xf32>
    %643 = "tensor.extract"(%642, %0) : (tensor<1xf32>, index) -> f32
    %644 = "tensor.insert"(%643, %315, %0) : (f32, tensor<1xf32>, index) -> tensor<1xf32>
    %645 = "memref.reinterpret_cast"(%arg4) <{operandSegmentSizes = array<i32: 1, 0, 0, 0>, static_offsets = array<i64: 36>, static_sizes = array<i64: 1>, static_strides = array<i64: 1>}> : (memref<?xf32>) -> memref<1xf32, strided<[1], offset: 36>>
    "hivm.hir.store"(%644, %645) : (tensor<1xf32>, memref<1xf32, strided<[1], offset: 36>>) -> ()
    %646 = "memref.reinterpret_cast"(%arg3) <{operandSegmentSizes = array<i32: 1, 0, 0, 0>, static_offsets = array<i64: 37>, static_sizes = array<i64: 1>, static_strides = array<i64: 1>}> : (memref<?xf32>) -> memref<1xf32, strided<[1], offset: 37>>
    %647 = "memref.load"(%646, %0) : (memref<1xf32, strided<[1], offset: 37>>, index) -> f32
    %648 = "tensor.insert"(%647, %314, %0) : (f32, tensor<1xf32>, index) -> tensor<1xf32>
    %649 = "hivm.hir.vmul"(%648, %648, %95) <{broadcast = array<i64>, operandSegmentSizes = array<i32: 2, 1, 0>, transpose = array<i64>}> : (tensor<1xf32>, tensor<1xf32>, tensor<1xf32>) -> tensor<1xf32>
    %650 = "tensor.extract"(%649, %0) : (tensor<1xf32>, index) -> f32
    %651 = "tensor.insert"(%650, %313, %0) : (f32, tensor<1xf32>, index) -> tensor<1xf32>
    %652 = "memref.reinterpret_cast"(%arg4) <{operandSegmentSizes = array<i32: 1, 0, 0, 0>, static_offsets = array<i64: 37>, static_sizes = array<i64: 1>, static_strides = array<i64: 1>}> : (memref<?xf32>) -> memref<1xf32, strided<[1], offset: 37>>
    "hivm.hir.store"(%651, %652) : (tensor<1xf32>, memref<1xf32, strided<[1], offset: 37>>) -> ()
    %653 = "memref.reinterpret_cast"(%arg3) <{operandSegmentSizes = array<i32: 1, 0, 0, 0>, static_offsets = array<i64: 38>, static_sizes = array<i64: 1>, static_strides = array<i64: 1>}> : (memref<?xf32>) -> memref<1xf32, strided<[1], offset: 38>>
    %654 = "memref.load"(%653, %0) : (memref<1xf32, strided<[1], offset: 38>>, index) -> f32
    %655 = "tensor.insert"(%654, %312, %0) : (f32, tensor<1xf32>, index) -> tensor<1xf32>
    %656 = "hivm.hir.vmul"(%655, %655, %94) <{broadcast = array<i64>, operandSegmentSizes = array<i32: 2, 1, 0>, transpose = array<i64>}> : (tensor<1xf32>, tensor<1xf32>, tensor<1xf32>) -> tensor<1xf32>
    %657 = "tensor.extract"(%656, %0) : (tensor<1xf32>, index) -> f32
    %658 = "tensor.insert"(%657, %311, %0) : (f32, tensor<1xf32>, index) -> tensor<1xf32>
    %659 = "memref.reinterpret_cast"(%arg4) <{operandSegmentSizes = array<i32: 1, 0, 0, 0>, static_offsets = array<i64: 38>, static_sizes = array<i64: 1>, static_strides = array<i64: 1>}> : (memref<?xf32>) -> memref<1xf32, strided<[1], offset: 38>>
    "hivm.hir.store"(%658, %659) : (tensor<1xf32>, memref<1xf32, strided<[1], offset: 38>>) -> ()
    %660 = "memref.reinterpret_cast"(%arg3) <{operandSegmentSizes = array<i32: 1, 0, 0, 0>, static_offsets = array<i64: 39>, static_sizes = array<i64: 1>, static_strides = array<i64: 1>}> : (memref<?xf32>) -> memref<1xf32, strided<[1], offset: 39>>
    %661 = "memref.load"(%660, %0) : (memref<1xf32, strided<[1], offset: 39>>, index) -> f32
    %662 = "tensor.insert"(%661, %310, %0) : (f32, tensor<1xf32>, index) -> tensor<1xf32>
    %663 = "hivm.hir.vmul"(%662, %662, %93) <{broadcast = array<i64>, operandSegmentSizes = array<i32: 2, 1, 0>, transpose = array<i64>}> : (tensor<1xf32>, tensor<1xf32>, tensor<1xf32>) -> tensor<1xf32>
    %664 = "tensor.extract"(%663, %0) : (tensor<1xf32>, index) -> f32
    %665 = "tensor.insert"(%664, %309, %0) : (f32, tensor<1xf32>, index) -> tensor<1xf32>
    %666 = "memref.reinterpret_cast"(%arg4) <{operandSegmentSizes = array<i32: 1, 0, 0, 0>, static_offsets = array<i64: 39>, static_sizes = array<i64: 1>, static_strides = array<i64: 1>}> : (memref<?xf32>) -> memref<1xf32, strided<[1], offset: 39>>
    "hivm.hir.store"(%665, %666) : (tensor<1xf32>, memref<1xf32, strided<[1], offset: 39>>) -> ()
    %667 = "memref.reinterpret_cast"(%arg3) <{operandSegmentSizes = array<i32: 1, 0, 0, 0>, static_offsets = array<i64: 40>, static_sizes = array<i64: 1>, static_strides = array<i64: 1>}> : (memref<?xf32>) -> memref<1xf32, strided<[1], offset: 40>>
    %668 = "memref.load"(%667, %0) : (memref<1xf32, strided<[1], offset: 40>>, index) -> f32
    %669 = "tensor.insert"(%668, %308, %0) : (f32, tensor<1xf32>, index) -> tensor<1xf32>
    %670 = "hivm.hir.vmul"(%669, %669, %92) <{broadcast = array<i64>, operandSegmentSizes = array<i32: 2, 1, 0>, transpose = array<i64>}> : (tensor<1xf32>, tensor<1xf32>, tensor<1xf32>) -> tensor<1xf32>
    %671 = "tensor.extract"(%670, %0) : (tensor<1xf32>, index) -> f32
    %672 = "tensor.insert"(%671, %307, %0) : (f32, tensor<1xf32>, index) -> tensor<1xf32>
    %673 = "memref.reinterpret_cast"(%arg4) <{operandSegmentSizes = array<i32: 1, 0, 0, 0>, static_offsets = array<i64: 40>, static_sizes = array<i64: 1>, static_strides = array<i64: 1>}> : (memref<?xf32>) -> memref<1xf32, strided<[1], offset: 40>>
    "hivm.hir.store"(%672, %673) : (tensor<1xf32>, memref<1xf32, strided<[1], offset: 40>>) -> ()
    %674 = "memref.reinterpret_cast"(%arg3) <{operandSegmentSizes = array<i32: 1, 0, 0, 0>, static_offsets = array<i64: 41>, static_sizes = array<i64: 1>, static_strides = array<i64: 1>}> : (memref<?xf32>) -> memref<1xf32, strided<[1], offset: 41>>
    %675 = "memref.load"(%674, %0) : (memref<1xf32, strided<[1], offset: 41>>, index) -> f32
    %676 = "tensor.insert"(%675, %306, %0) : (f32, tensor<1xf32>, index) -> tensor<1xf32>
    %677 = "hivm.hir.vmul"(%676, %676, %91) <{broadcast = array<i64>, operandSegmentSizes = array<i32: 2, 1, 0>, transpose = array<i64>}> : (tensor<1xf32>, tensor<1xf32>, tensor<1xf32>) -> tensor<1xf32>
    %678 = "tensor.extract"(%677, %0) : (tensor<1xf32>, index) -> f32
    %679 = "tensor.insert"(%678, %305, %0) : (f32, tensor<1xf32>, index) -> tensor<1xf32>
    %680 = "memref.reinterpret_cast"(%arg4) <{operandSegmentSizes = array<i32: 1, 0, 0, 0>, static_offsets = array<i64: 41>, static_sizes = array<i64: 1>, static_strides = array<i64: 1>}> : (memref<?xf32>) -> memref<1xf32, strided<[1], offset: 41>>
    "hivm.hir.store"(%679, %680) : (tensor<1xf32>, memref<1xf32, strided<[1], offset: 41>>) -> ()
    %681 = "memref.reinterpret_cast"(%arg3) <{operandSegmentSizes = array<i32: 1, 0, 0, 0>, static_offsets = array<i64: 42>, static_sizes = array<i64: 1>, static_strides = array<i64: 1>}> : (memref<?xf32>) -> memref<1xf32, strided<[1], offset: 42>>
    %682 = "memref.load"(%681, %0) : (memref<1xf32, strided<[1], offset: 42>>, index) -> f32
    %683 = "tensor.insert"(%682, %304, %0) : (f32, tensor<1xf32>, index) -> tensor<1xf32>
    %684 = "hivm.hir.vmul"(%683, %683, %90) <{broadcast = array<i64>, operandSegmentSizes = array<i32: 2, 1, 0>, transpose = array<i64>}> : (tensor<1xf32>, tensor<1xf32>, tensor<1xf32>) -> tensor<1xf32>
    %685 = "tensor.extract"(%684, %0) : (tensor<1xf32>, index) -> f32
    %686 = "tensor.insert"(%685, %303, %0) : (f32, tensor<1xf32>, index) -> tensor<1xf32>
    %687 = "memref.reinterpret_cast"(%arg4) <{operandSegmentSizes = array<i32: 1, 0, 0, 0>, static_offsets = array<i64: 42>, static_sizes = array<i64: 1>, static_strides = array<i64: 1>}> : (memref<?xf32>) -> memref<1xf32, strided<[1], offset: 42>>
    "hivm.hir.store"(%686, %687) : (tensor<1xf32>, memref<1xf32, strided<[1], offset: 42>>) -> ()
    %688 = "memref.reinterpret_cast"(%arg3) <{operandSegmentSizes = array<i32: 1, 0, 0, 0>, static_offsets = array<i64: 43>, static_sizes = array<i64: 1>, static_strides = array<i64: 1>}> : (memref<?xf32>) -> memref<1xf32, strided<[1], offset: 43>>
    %689 = "memref.load"(%688, %0) : (memref<1xf32, strided<[1], offset: 43>>, index) -> f32
    %690 = "tensor.insert"(%689, %302, %0) : (f32, tensor<1xf32>, index) -> tensor<1xf32>
    %691 = "hivm.hir.vmul"(%690, %690, %89) <{broadcast = array<i64>, operandSegmentSizes = array<i32: 2, 1, 0>, transpose = array<i64>}> : (tensor<1xf32>, tensor<1xf32>, tensor<1xf32>) -> tensor<1xf32>
    %692 = "tensor.extract"(%691, %0) : (tensor<1xf32>, index) -> f32
    %693 = "tensor.insert"(%692, %301, %0) : (f32, tensor<1xf32>, index) -> tensor<1xf32>
    %694 = "memref.reinterpret_cast"(%arg4) <{operandSegmentSizes = array<i32: 1, 0, 0, 0>, static_offsets = array<i64: 43>, static_sizes = array<i64: 1>, static_strides = array<i64: 1>}> : (memref<?xf32>) -> memref<1xf32, strided<[1], offset: 43>>
    "hivm.hir.store"(%693, %694) : (tensor<1xf32>, memref<1xf32, strided<[1], offset: 43>>) -> ()
    %695 = "memref.reinterpret_cast"(%arg3) <{operandSegmentSizes = array<i32: 1, 0, 0, 0>, static_offsets = array<i64: 44>, static_sizes = array<i64: 1>, static_strides = array<i64: 1>}> : (memref<?xf32>) -> memref<1xf32, strided<[1], offset: 44>>
    %696 = "memref.load"(%695, %0) : (memref<1xf32, strided<[1], offset: 44>>, index) -> f32
    %697 = "tensor.insert"(%696, %300, %0) : (f32, tensor<1xf32>, index) -> tensor<1xf32>
    %698 = "hivm.hir.vmul"(%697, %697, %88) <{broadcast = array<i64>, operandSegmentSizes = array<i32: 2, 1, 0>, transpose = array<i64>}> : (tensor<1xf32>, tensor<1xf32>, tensor<1xf32>) -> tensor<1xf32>
    %699 = "tensor.extract"(%698, %0) : (tensor<1xf32>, index) -> f32
    %700 = "tensor.insert"(%699, %299, %0) : (f32, tensor<1xf32>, index) -> tensor<1xf32>
    %701 = "memref.reinterpret_cast"(%arg4) <{operandSegmentSizes = array<i32: 1, 0, 0, 0>, static_offsets = array<i64: 44>, static_sizes = array<i64: 1>, static_strides = array<i64: 1>}> : (memref<?xf32>) -> memref<1xf32, strided<[1], offset: 44>>
    "hivm.hir.store"(%700, %701) : (tensor<1xf32>, memref<1xf32, strided<[1], offset: 44>>) -> ()
    %702 = "memref.reinterpret_cast"(%arg3) <{operandSegmentSizes = array<i32: 1, 0, 0, 0>, static_offsets = array<i64: 45>, static_sizes = array<i64: 1>, static_strides = array<i64: 1>}> : (memref<?xf32>) -> memref<1xf32, strided<[1], offset: 45>>
    %703 = "memref.load"(%702, %0) : (memref<1xf32, strided<[1], offset: 45>>, index) -> f32
    %704 = "tensor.insert"(%703, %298, %0) : (f32, tensor<1xf32>, index) -> tensor<1xf32>
    %705 = "hivm.hir.vmul"(%704, %704, %87) <{broadcast = array<i64>, operandSegmentSizes = array<i32: 2, 1, 0>, transpose = array<i64>}> : (tensor<1xf32>, tensor<1xf32>, tensor<1xf32>) -> tensor<1xf32>
    %706 = "tensor.extract"(%705, %0) : (tensor<1xf32>, index) -> f32
    %707 = "tensor.insert"(%706, %297, %0) : (f32, tensor<1xf32>, index) -> tensor<1xf32>
    %708 = "memref.reinterpret_cast"(%arg4) <{operandSegmentSizes = array<i32: 1, 0, 0, 0>, static_offsets = array<i64: 45>, static_sizes = array<i64: 1>, static_strides = array<i64: 1>}> : (memref<?xf32>) -> memref<1xf32, strided<[1], offset: 45>>
    "hivm.hir.store"(%707, %708) : (tensor<1xf32>, memref<1xf32, strided<[1], offset: 45>>) -> ()
    %709 = "memref.reinterpret_cast"(%arg3) <{operandSegmentSizes = array<i32: 1, 0, 0, 0>, static_offsets = array<i64: 46>, static_sizes = array<i64: 1>, static_strides = array<i64: 1>}> : (memref<?xf32>) -> memref<1xf32, strided<[1], offset: 46>>
    %710 = "memref.load"(%709, %0) : (memref<1xf32, strided<[1], offset: 46>>, index) -> f32
    %711 = "tensor.insert"(%710, %296, %0) : (f32, tensor<1xf32>, index) -> tensor<1xf32>
    %712 = "hivm.hir.vmul"(%711, %711, %86) <{broadcast = array<i64>, operandSegmentSizes = array<i32: 2, 1, 0>, transpose = array<i64>}> : (tensor<1xf32>, tensor<1xf32>, tensor<1xf32>) -> tensor<1xf32>
    %713 = "tensor.extract"(%712, %0) : (tensor<1xf32>, index) -> f32
    %714 = "tensor.insert"(%713, %295, %0) : (f32, tensor<1xf32>, index) -> tensor<1xf32>
    %715 = "memref.reinterpret_cast"(%arg4) <{operandSegmentSizes = array<i32: 1, 0, 0, 0>, static_offsets = array<i64: 46>, static_sizes = array<i64: 1>, static_strides = array<i64: 1>}> : (memref<?xf32>) -> memref<1xf32, strided<[1], offset: 46>>
    "hivm.hir.store"(%714, %715) : (tensor<1xf32>, memref<1xf32, strided<[1], offset: 46>>) -> ()
    %716 = "memref.reinterpret_cast"(%arg3) <{operandSegmentSizes = array<i32: 1, 0, 0, 0>, static_offsets = array<i64: 47>, static_sizes = array<i64: 1>, static_strides = array<i64: 1>}> : (memref<?xf32>) -> memref<1xf32, strided<[1], offset: 47>>
    %717 = "memref.load"(%716, %0) : (memref<1xf32, strided<[1], offset: 47>>, index) -> f32
    %718 = "tensor.insert"(%717, %294, %0) : (f32, tensor<1xf32>, index) -> tensor<1xf32>
    %719 = "hivm.hir.vmul"(%718, %718, %85) <{broadcast = array<i64>, operandSegmentSizes = array<i32: 2, 1, 0>, transpose = array<i64>}> : (tensor<1xf32>, tensor<1xf32>, tensor<1xf32>) -> tensor<1xf32>
    %720 = "tensor.extract"(%719, %0) : (tensor<1xf32>, index) -> f32
    %721 = "tensor.insert"(%720, %293, %0) : (f32, tensor<1xf32>, index) -> tensor<1xf32>
    %722 = "memref.reinterpret_cast"(%arg4) <{operandSegmentSizes = array<i32: 1, 0, 0, 0>, static_offsets = array<i64: 47>, static_sizes = array<i64: 1>, static_strides = array<i64: 1>}> : (memref<?xf32>) -> memref<1xf32, strided<[1], offset: 47>>
    "hivm.hir.store"(%721, %722) : (tensor<1xf32>, memref<1xf32, strided<[1], offset: 47>>) -> ()
    %723 = "memref.reinterpret_cast"(%arg3) <{operandSegmentSizes = array<i32: 1, 0, 0, 0>, static_offsets = array<i64: 48>, static_sizes = array<i64: 1>, static_strides = array<i64: 1>}> : (memref<?xf32>) -> memref<1xf32, strided<[1], offset: 48>>
    %724 = "memref.load"(%723, %0) : (memref<1xf32, strided<[1], offset: 48>>, index) -> f32
    %725 = "tensor.insert"(%724, %292, %0) : (f32, tensor<1xf32>, index) -> tensor<1xf32>
    %726 = "hivm.hir.vmul"(%725, %725, %84) <{broadcast = array<i64>, operandSegmentSizes = array<i32: 2, 1, 0>, transpose = array<i64>}> : (tensor<1xf32>, tensor<1xf32>, tensor<1xf32>) -> tensor<1xf32>
    %727 = "tensor.extract"(%726, %0) : (tensor<1xf32>, index) -> f32
    %728 = "tensor.insert"(%727, %291, %0) : (f32, tensor<1xf32>, index) -> tensor<1xf32>
    %729 = "memref.reinterpret_cast"(%arg4) <{operandSegmentSizes = array<i32: 1, 0, 0, 0>, static_offsets = array<i64: 48>, static_sizes = array<i64: 1>, static_strides = array<i64: 1>}> : (memref<?xf32>) -> memref<1xf32, strided<[1], offset: 48>>
    "hivm.hir.store"(%728, %729) : (tensor<1xf32>, memref<1xf32, strided<[1], offset: 48>>) -> ()
    %730 = "memref.reinterpret_cast"(%arg3) <{operandSegmentSizes = array<i32: 1, 0, 0, 0>, static_offsets = array<i64: 49>, static_sizes = array<i64: 1>, static_strides = array<i64: 1>}> : (memref<?xf32>) -> memref<1xf32, strided<[1], offset: 49>>
    %731 = "memref.load"(%730, %0) : (memref<1xf32, strided<[1], offset: 49>>, index) -> f32
    %732 = "tensor.insert"(%731, %290, %0) : (f32, tensor<1xf32>, index) -> tensor<1xf32>
    %733 = "hivm.hir.vmul"(%732, %732, %83) <{broadcast = array<i64>, operandSegmentSizes = array<i32: 2, 1, 0>, transpose = array<i64>}> : (tensor<1xf32>, tensor<1xf32>, tensor<1xf32>) -> tensor<1xf32>
    %734 = "tensor.extract"(%733, %0) : (tensor<1xf32>, index) -> f32
    %735 = "tensor.insert"(%734, %289, %0) : (f32, tensor<1xf32>, index) -> tensor<1xf32>
    %736 = "memref.reinterpret_cast"(%arg4) <{operandSegmentSizes = array<i32: 1, 0, 0, 0>, static_offsets = array<i64: 49>, static_sizes = array<i64: 1>, static_strides = array<i64: 1>}> : (memref<?xf32>) -> memref<1xf32, strided<[1], offset: 49>>
    "hivm.hir.store"(%735, %736) : (tensor<1xf32>, memref<1xf32, strided<[1], offset: 49>>) -> ()
    %737 = "memref.reinterpret_cast"(%arg3) <{operandSegmentSizes = array<i32: 1, 0, 0, 0>, static_offsets = array<i64: 50>, static_sizes = array<i64: 1>, static_strides = array<i64: 1>}> : (memref<?xf32>) -> memref<1xf32, strided<[1], offset: 50>>
    %738 = "memref.load"(%737, %0) : (memref<1xf32, strided<[1], offset: 50>>, index) -> f32
    %739 = "tensor.insert"(%738, %288, %0) : (f32, tensor<1xf32>, index) -> tensor<1xf32>
    %740 = "hivm.hir.vmul"(%739, %739, %82) <{broadcast = array<i64>, operandSegmentSizes = array<i32: 2, 1, 0>, transpose = array<i64>}> : (tensor<1xf32>, tensor<1xf32>, tensor<1xf32>) -> tensor<1xf32>
    %741 = "tensor.extract"(%740, %0) : (tensor<1xf32>, index) -> f32
    %742 = "tensor.insert"(%741, %287, %0) : (f32, tensor<1xf32>, index) -> tensor<1xf32>
    %743 = "memref.reinterpret_cast"(%arg4) <{operandSegmentSizes = array<i32: 1, 0, 0, 0>, static_offsets = array<i64: 50>, static_sizes = array<i64: 1>, static_strides = array<i64: 1>}> : (memref<?xf32>) -> memref<1xf32, strided<[1], offset: 50>>
    "hivm.hir.store"(%742, %743) : (tensor<1xf32>, memref<1xf32, strided<[1], offset: 50>>) -> ()
    %744 = "memref.reinterpret_cast"(%arg3) <{operandSegmentSizes = array<i32: 1, 0, 0, 0>, static_offsets = array<i64: 51>, static_sizes = array<i64: 1>, static_strides = array<i64: 1>}> : (memref<?xf32>) -> memref<1xf32, strided<[1], offset: 51>>
    %745 = "memref.load"(%744, %0) : (memref<1xf32, strided<[1], offset: 51>>, index) -> f32
    %746 = "tensor.insert"(%745, %286, %0) : (f32, tensor<1xf32>, index) -> tensor<1xf32>
    %747 = "hivm.hir.vmul"(%746, %746, %81) <{broadcast = array<i64>, operandSegmentSizes = array<i32: 2, 1, 0>, transpose = array<i64>}> : (tensor<1xf32>, tensor<1xf32>, tensor<1xf32>) -> tensor<1xf32>
    %748 = "tensor.extract"(%747, %0) : (tensor<1xf32>, index) -> f32
    %749 = "tensor.insert"(%748, %285, %0) : (f32, tensor<1xf32>, index) -> tensor<1xf32>
    %750 = "memref.reinterpret_cast"(%arg4) <{operandSegmentSizes = array<i32: 1, 0, 0, 0>, static_offsets = array<i64: 51>, static_sizes = array<i64: 1>, static_strides = array<i64: 1>}> : (memref<?xf32>) -> memref<1xf32, strided<[1], offset: 51>>
    "hivm.hir.store"(%749, %750) : (tensor<1xf32>, memref<1xf32, strided<[1], offset: 51>>) -> ()
    %751 = "memref.reinterpret_cast"(%arg3) <{operandSegmentSizes = array<i32: 1, 0, 0, 0>, static_offsets = array<i64: 52>, static_sizes = array<i64: 1>, static_strides = array<i64: 1>}> : (memref<?xf32>) -> memref<1xf32, strided<[1], offset: 52>>
    %752 = "memref.load"(%751, %0) : (memref<1xf32, strided<[1], offset: 52>>, index) -> f32
    %753 = "tensor.insert"(%752, %284, %0) : (f32, tensor<1xf32>, index) -> tensor<1xf32>
    %754 = "hivm.hir.vmul"(%753, %753, %80) <{broadcast = array<i64>, operandSegmentSizes = array<i32: 2, 1, 0>, transpose = array<i64>}> : (tensor<1xf32>, tensor<1xf32>, tensor<1xf32>) -> tensor<1xf32>
    %755 = "tensor.extract"(%754, %0) : (tensor<1xf32>, index) -> f32
    %756 = "tensor.insert"(%755, %283, %0) : (f32, tensor<1xf32>, index) -> tensor<1xf32>
    %757 = "memref.reinterpret_cast"(%arg4) <{operandSegmentSizes = array<i32: 1, 0, 0, 0>, static_offsets = array<i64: 52>, static_sizes = array<i64: 1>, static_strides = array<i64: 1>}> : (memref<?xf32>) -> memref<1xf32, strided<[1], offset: 52>>
    "hivm.hir.store"(%756, %757) : (tensor<1xf32>, memref<1xf32, strided<[1], offset: 52>>) -> ()
    %758 = "memref.reinterpret_cast"(%arg3) <{operandSegmentSizes = array<i32: 1, 0, 0, 0>, static_offsets = array<i64: 53>, static_sizes = array<i64: 1>, static_strides = array<i64: 1>}> : (memref<?xf32>) -> memref<1xf32, strided<[1], offset: 53>>
    %759 = "memref.load"(%758, %0) : (memref<1xf32, strided<[1], offset: 53>>, index) -> f32
    %760 = "tensor.insert"(%759, %282, %0) : (f32, tensor<1xf32>, index) -> tensor<1xf32>
    %761 = "hivm.hir.vmul"(%760, %760, %79) <{broadcast = array<i64>, operandSegmentSizes = array<i32: 2, 1, 0>, transpose = array<i64>}> : (tensor<1xf32>, tensor<1xf32>, tensor<1xf32>) -> tensor<1xf32>
    %762 = "tensor.extract"(%761, %0) : (tensor<1xf32>, index) -> f32
    %763 = "tensor.insert"(%762, %281, %0) : (f32, tensor<1xf32>, index) -> tensor<1xf32>
    %764 = "memref.reinterpret_cast"(%arg4) <{operandSegmentSizes = array<i32: 1, 0, 0, 0>, static_offsets = array<i64: 53>, static_sizes = array<i64: 1>, static_strides = array<i64: 1>}> : (memref<?xf32>) -> memref<1xf32, strided<[1], offset: 53>>
    "hivm.hir.store"(%763, %764) : (tensor<1xf32>, memref<1xf32, strided<[1], offset: 53>>) -> ()
    %765 = "memref.reinterpret_cast"(%arg3) <{operandSegmentSizes = array<i32: 1, 0, 0, 0>, static_offsets = array<i64: 54>, static_sizes = array<i64: 1>, static_strides = array<i64: 1>}> : (memref<?xf32>) -> memref<1xf32, strided<[1], offset: 54>>
    %766 = "memref.load"(%765, %0) : (memref<1xf32, strided<[1], offset: 54>>, index) -> f32
    %767 = "tensor.insert"(%766, %280, %0) : (f32, tensor<1xf32>, index) -> tensor<1xf32>
    %768 = "hivm.hir.vmul"(%767, %767, %78) <{broadcast = array<i64>, operandSegmentSizes = array<i32: 2, 1, 0>, transpose = array<i64>}> : (tensor<1xf32>, tensor<1xf32>, tensor<1xf32>) -> tensor<1xf32>
    %769 = "tensor.extract"(%768, %0) : (tensor<1xf32>, index) -> f32
    %770 = "tensor.insert"(%769, %279, %0) : (f32, tensor<1xf32>, index) -> tensor<1xf32>
    %771 = "memref.reinterpret_cast"(%arg4) <{operandSegmentSizes = array<i32: 1, 0, 0, 0>, static_offsets = array<i64: 54>, static_sizes = array<i64: 1>, static_strides = array<i64: 1>}> : (memref<?xf32>) -> memref<1xf32, strided<[1], offset: 54>>
    "hivm.hir.store"(%770, %771) : (tensor<1xf32>, memref<1xf32, strided<[1], offset: 54>>) -> ()
    %772 = "memref.reinterpret_cast"(%arg3) <{operandSegmentSizes = array<i32: 1, 0, 0, 0>, static_offsets = array<i64: 55>, static_sizes = array<i64: 1>, static_strides = array<i64: 1>}> : (memref<?xf32>) -> memref<1xf32, strided<[1], offset: 55>>
    %773 = "memref.load"(%772, %0) : (memref<1xf32, strided<[1], offset: 55>>, index) -> f32
    %774 = "tensor.insert"(%773, %278, %0) : (f32, tensor<1xf32>, index) -> tensor<1xf32>
    %775 = "hivm.hir.vmul"(%774, %774, %77) <{broadcast = array<i64>, operandSegmentSizes = array<i32: 2, 1, 0>, transpose = array<i64>}> : (tensor<1xf32>, tensor<1xf32>, tensor<1xf32>) -> tensor<1xf32>
    %776 = "tensor.extract"(%775, %0) : (tensor<1xf32>, index) -> f32
    %777 = "tensor.insert"(%776, %277, %0) : (f32, tensor<1xf32>, index) -> tensor<1xf32>
    %778 = "memref.reinterpret_cast"(%arg4) <{operandSegmentSizes = array<i32: 1, 0, 0, 0>, static_offsets = array<i64: 55>, static_sizes = array<i64: 1>, static_strides = array<i64: 1>}> : (memref<?xf32>) -> memref<1xf32, strided<[1], offset: 55>>
    "hivm.hir.store"(%777, %778) : (tensor<1xf32>, memref<1xf32, strided<[1], offset: 55>>) -> ()
    %779 = "memref.reinterpret_cast"(%arg3) <{operandSegmentSizes = array<i32: 1, 0, 0, 0>, static_offsets = array<i64: 56>, static_sizes = array<i64: 1>, static_strides = array<i64: 1>}> : (memref<?xf32>) -> memref<1xf32, strided<[1], offset: 56>>
    %780 = "memref.load"(%779, %0) : (memref<1xf32, strided<[1], offset: 56>>, index) -> f32
    %781 = "tensor.insert"(%780, %276, %0) : (f32, tensor<1xf32>, index) -> tensor<1xf32>
    %782 = "hivm.hir.vmul"(%781, %781, %76) <{broadcast = array<i64>, operandSegmentSizes = array<i32: 2, 1, 0>, transpose = array<i64>}> : (tensor<1xf32>, tensor<1xf32>, tensor<1xf32>) -> tensor<1xf32>
    %783 = "tensor.extract"(%782, %0) : (tensor<1xf32>, index) -> f32
    %784 = "tensor.insert"(%783, %275, %0) : (f32, tensor<1xf32>, index) -> tensor<1xf32>
    %785 = "memref.reinterpret_cast"(%arg4) <{operandSegmentSizes = array<i32: 1, 0, 0, 0>, static_offsets = array<i64: 56>, static_sizes = array<i64: 1>, static_strides = array<i64: 1>}> : (memref<?xf32>) -> memref<1xf32, strided<[1], offset: 56>>
    "hivm.hir.store"(%784, %785) : (tensor<1xf32>, memref<1xf32, strided<[1], offset: 56>>) -> ()
    %786 = "memref.reinterpret_cast"(%arg3) <{operandSegmentSizes = array<i32: 1, 0, 0, 0>, static_offsets = array<i64: 57>, static_sizes = array<i64: 1>, static_strides = array<i64: 1>}> : (memref<?xf32>) -> memref<1xf32, strided<[1], offset: 57>>
    %787 = "memref.load"(%786, %0) : (memref<1xf32, strided<[1], offset: 57>>, index) -> f32
    %788 = "tensor.insert"(%787, %274, %0) : (f32, tensor<1xf32>, index) -> tensor<1xf32>
    %789 = "hivm.hir.vmul"(%788, %788, %75) <{broadcast = array<i64>, operandSegmentSizes = array<i32: 2, 1, 0>, transpose = array<i64>}> : (tensor<1xf32>, tensor<1xf32>, tensor<1xf32>) -> tensor<1xf32>
    %790 = "tensor.extract"(%789, %0) : (tensor<1xf32>, index) -> f32
    %791 = "tensor.insert"(%790, %273, %0) : (f32, tensor<1xf32>, index) -> tensor<1xf32>
    %792 = "memref.reinterpret_cast"(%arg4) <{operandSegmentSizes = array<i32: 1, 0, 0, 0>, static_offsets = array<i64: 57>, static_sizes = array<i64: 1>, static_strides = array<i64: 1>}> : (memref<?xf32>) -> memref<1xf32, strided<[1], offset: 57>>
    "hivm.hir.store"(%791, %792) : (tensor<1xf32>, memref<1xf32, strided<[1], offset: 57>>) -> ()
    %793 = "memref.reinterpret_cast"(%arg3) <{operandSegmentSizes = array<i32: 1, 0, 0, 0>, static_offsets = array<i64: 58>, static_sizes = array<i64: 1>, static_strides = array<i64: 1>}> : (memref<?xf32>) -> memref<1xf32, strided<[1], offset: 58>>
    %794 = "memref.load"(%793, %0) : (memref<1xf32, strided<[1], offset: 58>>, index) -> f32
    %795 = "tensor.insert"(%794, %272, %0) : (f32, tensor<1xf32>, index) -> tensor<1xf32>
    %796 = "hivm.hir.vmul"(%795, %795, %74) <{broadcast = array<i64>, operandSegmentSizes = array<i32: 2, 1, 0>, transpose = array<i64>}> : (tensor<1xf32>, tensor<1xf32>, tensor<1xf32>) -> tensor<1xf32>
    %797 = "tensor.extract"(%796, %0) : (tensor<1xf32>, index) -> f32
    %798 = "tensor.insert"(%797, %271, %0) : (f32, tensor<1xf32>, index) -> tensor<1xf32>
    %799 = "memref.reinterpret_cast"(%arg4) <{operandSegmentSizes = array<i32: 1, 0, 0, 0>, static_offsets = array<i64: 58>, static_sizes = array<i64: 1>, static_strides = array<i64: 1>}> : (memref<?xf32>) -> memref<1xf32, strided<[1], offset: 58>>
    "hivm.hir.store"(%798, %799) : (tensor<1xf32>, memref<1xf32, strided<[1], offset: 58>>) -> ()
    %800 = "memref.reinterpret_cast"(%arg3) <{operandSegmentSizes = array<i32: 1, 0, 0, 0>, static_offsets = array<i64: 59>, static_sizes = array<i64: 1>, static_strides = array<i64: 1>}> : (memref<?xf32>) -> memref<1xf32, strided<[1], offset: 59>>
    %801 = "memref.load"(%800, %0) : (memref<1xf32, strided<[1], offset: 59>>, index) -> f32
    %802 = "tensor.insert"(%801, %270, %0) : (f32, tensor<1xf32>, index) -> tensor<1xf32>
    %803 = "hivm.hir.vmul"(%802, %802, %73) <{broadcast = array<i64>, operandSegmentSizes = array<i32: 2, 1, 0>, transpose = array<i64>}> : (tensor<1xf32>, tensor<1xf32>, tensor<1xf32>) -> tensor<1xf32>
    %804 = "tensor.extract"(%803, %0) : (tensor<1xf32>, index) -> f32
    %805 = "tensor.insert"(%804, %269, %0) : (f32, tensor<1xf32>, index) -> tensor<1xf32>
    %806 = "memref.reinterpret_cast"(%arg4) <{operandSegmentSizes = array<i32: 1, 0, 0, 0>, static_offsets = array<i64: 59>, static_sizes = array<i64: 1>, static_strides = array<i64: 1>}> : (memref<?xf32>) -> memref<1xf32, strided<[1], offset: 59>>
    "hivm.hir.store"(%805, %806) : (tensor<1xf32>, memref<1xf32, strided<[1], offset: 59>>) -> ()
    %807 = "memref.reinterpret_cast"(%arg3) <{operandSegmentSizes = array<i32: 1, 0, 0, 0>, static_offsets = array<i64: 60>, static_sizes = array<i64: 1>, static_strides = array<i64: 1>}> : (memref<?xf32>) -> memref<1xf32, strided<[1], offset: 60>>
    %808 = "memref.load"(%807, %0) : (memref<1xf32, strided<[1], offset: 60>>, index) -> f32
    %809 = "tensor.insert"(%808, %268, %0) : (f32, tensor<1xf32>, index) -> tensor<1xf32>
    %810 = "hivm.hir.vmul"(%809, %809, %72) <{broadcast = array<i64>, operandSegmentSizes = array<i32: 2, 1, 0>, transpose = array<i64>}> : (tensor<1xf32>, tensor<1xf32>, tensor<1xf32>) -> tensor<1xf32>
    %811 = "tensor.extract"(%810, %0) : (tensor<1xf32>, index) -> f32
    %812 = "tensor.insert"(%811, %267, %0) : (f32, tensor<1xf32>, index) -> tensor<1xf32>
    %813 = "memref.reinterpret_cast"(%arg4) <{operandSegmentSizes = array<i32: 1, 0, 0, 0>, static_offsets = array<i64: 60>, static_sizes = array<i64: 1>, static_strides = array<i64: 1>}> : (memref<?xf32>) -> memref<1xf32, strided<[1], offset: 60>>
    "hivm.hir.store"(%812, %813) : (tensor<1xf32>, memref<1xf32, strided<[1], offset: 60>>) -> ()
    %814 = "memref.reinterpret_cast"(%arg3) <{operandSegmentSizes = array<i32: 1, 0, 0, 0>, static_offsets = array<i64: 61>, static_sizes = array<i64: 1>, static_strides = array<i64: 1>}> : (memref<?xf32>) -> memref<1xf32, strided<[1], offset: 61>>
    %815 = "memref.load"(%814, %0) : (memref<1xf32, strided<[1], offset: 61>>, index) -> f32
    %816 = "tensor.insert"(%815, %266, %0) : (f32, tensor<1xf32>, index) -> tensor<1xf32>
    %817 = "hivm.hir.vmul"(%816, %816, %71) <{broadcast = array<i64>, operandSegmentSizes = array<i32: 2, 1, 0>, transpose = array<i64>}> : (tensor<1xf32>, tensor<1xf32>, tensor<1xf32>) -> tensor<1xf32>
    %818 = "tensor.extract"(%817, %0) : (tensor<1xf32>, index) -> f32
    %819 = "tensor.insert"(%818, %265, %0) : (f32, tensor<1xf32>, index) -> tensor<1xf32>
    %820 = "memref.reinterpret_cast"(%arg4) <{operandSegmentSizes = array<i32: 1, 0, 0, 0>, static_offsets = array<i64: 61>, static_sizes = array<i64: 1>, static_strides = array<i64: 1>}> : (memref<?xf32>) -> memref<1xf32, strided<[1], offset: 61>>
    "hivm.hir.store"(%819, %820) : (tensor<1xf32>, memref<1xf32, strided<[1], offset: 61>>) -> ()
    %821 = "memref.reinterpret_cast"(%arg3) <{operandSegmentSizes = array<i32: 1, 0, 0, 0>, static_offsets = array<i64: 62>, static_sizes = array<i64: 1>, static_strides = array<i64: 1>}> : (memref<?xf32>) -> memref<1xf32, strided<[1], offset: 62>>
    %822 = "memref.load"(%821, %0) : (memref<1xf32, strided<[1], offset: 62>>, index) -> f32
    %823 = "tensor.insert"(%822, %264, %0) : (f32, tensor<1xf32>, index) -> tensor<1xf32>
    %824 = "hivm.hir.vmul"(%823, %823, %70) <{broadcast = array<i64>, operandSegmentSizes = array<i32: 2, 1, 0>, transpose = array<i64>}> : (tensor<1xf32>, tensor<1xf32>, tensor<1xf32>) -> tensor<1xf32>
    %825 = "tensor.extract"(%824, %0) : (tensor<1xf32>, index) -> f32
    %826 = "tensor.insert"(%825, %263, %0) : (f32, tensor<1xf32>, index) -> tensor<1xf32>
    %827 = "memref.reinterpret_cast"(%arg4) <{operandSegmentSizes = array<i32: 1, 0, 0, 0>, static_offsets = array<i64: 62>, static_sizes = array<i64: 1>, static_strides = array<i64: 1>}> : (memref<?xf32>) -> memref<1xf32, strided<[1], offset: 62>>
    "hivm.hir.store"(%826, %827) : (tensor<1xf32>, memref<1xf32, strided<[1], offset: 62>>) -> ()
    %828 = "memref.reinterpret_cast"(%arg3) <{operandSegmentSizes = array<i32: 1, 0, 0, 0>, static_offsets = array<i64: 63>, static_sizes = array<i64: 1>, static_strides = array<i64: 1>}> : (memref<?xf32>) -> memref<1xf32, strided<[1], offset: 63>>
    %829 = "memref.load"(%828, %0) : (memref<1xf32, strided<[1], offset: 63>>, index) -> f32
    %830 = "tensor.insert"(%829, %262, %0) : (f32, tensor<1xf32>, index) -> tensor<1xf32>
    %831 = "hivm.hir.vmul"(%830, %830, %69) <{broadcast = array<i64>, operandSegmentSizes = array<i32: 2, 1, 0>, transpose = array<i64>}> : (tensor<1xf32>, tensor<1xf32>, tensor<1xf32>) -> tensor<1xf32>
    %832 = "tensor.extract"(%831, %0) : (tensor<1xf32>, index) -> f32
    %833 = "tensor.insert"(%832, %261, %0) : (f32, tensor<1xf32>, index) -> tensor<1xf32>
    %834 = "memref.reinterpret_cast"(%arg4) <{operandSegmentSizes = array<i32: 1, 0, 0, 0>, static_offsets = array<i64: 63>, static_sizes = array<i64: 1>, static_strides = array<i64: 1>}> : (memref<?xf32>) -> memref<1xf32, strided<[1], offset: 63>>
    "hivm.hir.store"(%833, %834) : (tensor<1xf32>, memref<1xf32, strided<[1], offset: 63>>) -> ()
    %835 = "memref.reinterpret_cast"(%arg3) <{operandSegmentSizes = array<i32: 1, 0, 0, 0>, static_offsets = array<i64: 64>, static_sizes = array<i64: 1>, static_strides = array<i64: 1>}> : (memref<?xf32>) -> memref<1xf32, strided<[1], offset: 64>>
    %836 = "memref.load"(%835, %0) : (memref<1xf32, strided<[1], offset: 64>>, index) -> f32
    %837 = "tensor.insert"(%836, %260, %0) : (f32, tensor<1xf32>, index) -> tensor<1xf32>
    %838 = "hivm.hir.vmul"(%837, %837, %68) <{broadcast = array<i64>, operandSegmentSizes = array<i32: 2, 1, 0>, transpose = array<i64>}> : (tensor<1xf32>, tensor<1xf32>, tensor<1xf32>) -> tensor<1xf32>
    %839 = "tensor.extract"(%838, %0) : (tensor<1xf32>, index) -> f32
    %840 = "tensor.insert"(%839, %259, %0) : (f32, tensor<1xf32>, index) -> tensor<1xf32>
    %841 = "memref.reinterpret_cast"(%arg4) <{operandSegmentSizes = array<i32: 1, 0, 0, 0>, static_offsets = array<i64: 64>, static_sizes = array<i64: 1>, static_strides = array<i64: 1>}> : (memref<?xf32>) -> memref<1xf32, strided<[1], offset: 64>>
    "hivm.hir.store"(%840, %841) : (tensor<1xf32>, memref<1xf32, strided<[1], offset: 64>>) -> ()
    %842 = "memref.reinterpret_cast"(%arg3) <{operandSegmentSizes = array<i32: 1, 0, 0, 0>, static_offsets = array<i64: 65>, static_sizes = array<i64: 1>, static_strides = array<i64: 1>}> : (memref<?xf32>) -> memref<1xf32, strided<[1], offset: 65>>
    %843 = "memref.load"(%842, %0) : (memref<1xf32, strided<[1], offset: 65>>, index) -> f32
    %844 = "tensor.insert"(%843, %258, %0) : (f32, tensor<1xf32>, index) -> tensor<1xf32>
    %845 = "hivm.hir.vmul"(%844, %844, %67) <{broadcast = array<i64>, operandSegmentSizes = array<i32: 2, 1, 0>, transpose = array<i64>}> : (tensor<1xf32>, tensor<1xf32>, tensor<1xf32>) -> tensor<1xf32>
    %846 = "tensor.extract"(%845, %0) : (tensor<1xf32>, index) -> f32
    %847 = "tensor.insert"(%846, %257, %0) : (f32, tensor<1xf32>, index) -> tensor<1xf32>
    %848 = "memref.reinterpret_cast"(%arg4) <{operandSegmentSizes = array<i32: 1, 0, 0, 0>, static_offsets = array<i64: 65>, static_sizes = array<i64: 1>, static_strides = array<i64: 1>}> : (memref<?xf32>) -> memref<1xf32, strided<[1], offset: 65>>
    "hivm.hir.store"(%847, %848) : (tensor<1xf32>, memref<1xf32, strided<[1], offset: 65>>) -> ()
    %849 = "memref.reinterpret_cast"(%arg3) <{operandSegmentSizes = array<i32: 1, 0, 0, 0>, static_offsets = array<i64: 66>, static_sizes = array<i64: 1>, static_strides = array<i64: 1>}> : (memref<?xf32>) -> memref<1xf32, strided<[1], offset: 66>>
    %850 = "memref.load"(%849, %0) : (memref<1xf32, strided<[1], offset: 66>>, index) -> f32
    %851 = "tensor.insert"(%850, %256, %0) : (f32, tensor<1xf32>, index) -> tensor<1xf32>
    %852 = "hivm.hir.vmul"(%851, %851, %66) <{broadcast = array<i64>, operandSegmentSizes = array<i32: 2, 1, 0>, transpose = array<i64>}> : (tensor<1xf32>, tensor<1xf32>, tensor<1xf32>) -> tensor<1xf32>
    %853 = "tensor.extract"(%852, %0) : (tensor<1xf32>, index) -> f32
    %854 = "tensor.insert"(%853, %255, %0) : (f32, tensor<1xf32>, index) -> tensor<1xf32>
    %855 = "memref.reinterpret_cast"(%arg4) <{operandSegmentSizes = array<i32: 1, 0, 0, 0>, static_offsets = array<i64: 66>, static_sizes = array<i64: 1>, static_strides = array<i64: 1>}> : (memref<?xf32>) -> memref<1xf32, strided<[1], offset: 66>>
    "hivm.hir.store"(%854, %855) : (tensor<1xf32>, memref<1xf32, strided<[1], offset: 66>>) -> ()
    %856 = "memref.reinterpret_cast"(%arg3) <{operandSegmentSizes = array<i32: 1, 0, 0, 0>, static_offsets = array<i64: 67>, static_sizes = array<i64: 1>, static_strides = array<i64: 1>}> : (memref<?xf32>) -> memref<1xf32, strided<[1], offset: 67>>
    %857 = "memref.load"(%856, %0) : (memref<1xf32, strided<[1], offset: 67>>, index) -> f32
    %858 = "tensor.insert"(%857, %254, %0) : (f32, tensor<1xf32>, index) -> tensor<1xf32>
    %859 = "hivm.hir.vmul"(%858, %858, %65) <{broadcast = array<i64>, operandSegmentSizes = array<i32: 2, 1, 0>, transpose = array<i64>}> : (tensor<1xf32>, tensor<1xf32>, tensor<1xf32>) -> tensor<1xf32>
    %860 = "tensor.extract"(%859, %0) : (tensor<1xf32>, index) -> f32
    %861 = "tensor.insert"(%860, %253, %0) : (f32, tensor<1xf32>, index) -> tensor<1xf32>
    %862 = "memref.reinterpret_cast"(%arg4) <{operandSegmentSizes = array<i32: 1, 0, 0, 0>, static_offsets = array<i64: 67>, static_sizes = array<i64: 1>, static_strides = array<i64: 1>}> : (memref<?xf32>) -> memref<1xf32, strided<[1], offset: 67>>
    "hivm.hir.store"(%861, %862) : (tensor<1xf32>, memref<1xf32, strided<[1], offset: 67>>) -> ()
    %863 = "memref.reinterpret_cast"(%arg3) <{operandSegmentSizes = array<i32: 1, 0, 0, 0>, static_offsets = array<i64: 68>, static_sizes = array<i64: 1>, static_strides = array<i64: 1>}> : (memref<?xf32>) -> memref<1xf32, strided<[1], offset: 68>>
    %864 = "memref.load"(%863, %0) : (memref<1xf32, strided<[1], offset: 68>>, index) -> f32
    %865 = "tensor.insert"(%864, %252, %0) : (f32, tensor<1xf32>, index) -> tensor<1xf32>
    %866 = "hivm.hir.vmul"(%865, %865, %64) <{broadcast = array<i64>, operandSegmentSizes = array<i32: 2, 1, 0>, transpose = array<i64>}> : (tensor<1xf32>, tensor<1xf32>, tensor<1xf32>) -> tensor<1xf32>
    %867 = "tensor.extract"(%866, %0) : (tensor<1xf32>, index) -> f32
    %868 = "tensor.insert"(%867, %251, %0) : (f32, tensor<1xf32>, index) -> tensor<1xf32>
    %869 = "memref.reinterpret_cast"(%arg4) <{operandSegmentSizes = array<i32: 1, 0, 0, 0>, static_offsets = array<i64: 68>, static_sizes = array<i64: 1>, static_strides = array<i64: 1>}> : (memref<?xf32>) -> memref<1xf32, strided<[1], offset: 68>>
    "hivm.hir.store"(%868, %869) : (tensor<1xf32>, memref<1xf32, strided<[1], offset: 68>>) -> ()
    %870 = "memref.reinterpret_cast"(%arg3) <{operandSegmentSizes = array<i32: 1, 0, 0, 0>, static_offsets = array<i64: 69>, static_sizes = array<i64: 1>, static_strides = array<i64: 1>}> : (memref<?xf32>) -> memref<1xf32, strided<[1], offset: 69>>
    %871 = "memref.load"(%870, %0) : (memref<1xf32, strided<[1], offset: 69>>, index) -> f32
    %872 = "tensor.insert"(%871, %250, %0) : (f32, tensor<1xf32>, index) -> tensor<1xf32>
    %873 = "hivm.hir.vmul"(%872, %872, %63) <{broadcast = array<i64>, operandSegmentSizes = array<i32: 2, 1, 0>, transpose = array<i64>}> : (tensor<1xf32>, tensor<1xf32>, tensor<1xf32>) -> tensor<1xf32>
    %874 = "tensor.extract"(%873, %0) : (tensor<1xf32>, index) -> f32
    %875 = "tensor.insert"(%874, %249, %0) : (f32, tensor<1xf32>, index) -> tensor<1xf32>
    %876 = "memref.reinterpret_cast"(%arg4) <{operandSegmentSizes = array<i32: 1, 0, 0, 0>, static_offsets = array<i64: 69>, static_sizes = array<i64: 1>, static_strides = array<i64: 1>}> : (memref<?xf32>) -> memref<1xf32, strided<[1], offset: 69>>
    "hivm.hir.store"(%875, %876) : (tensor<1xf32>, memref<1xf32, strided<[1], offset: 69>>) -> ()
    %877 = "memref.reinterpret_cast"(%arg3) <{operandSegmentSizes = array<i32: 1, 0, 0, 0>, static_offsets = array<i64: 70>, static_sizes = array<i64: 1>, static_strides = array<i64: 1>}> : (memref<?xf32>) -> memref<1xf32, strided<[1], offset: 70>>
    %878 = "memref.load"(%877, %0) : (memref<1xf32, strided<[1], offset: 70>>, index) -> f32
    %879 = "tensor.insert"(%878, %248, %0) : (f32, tensor<1xf32>, index) -> tensor<1xf32>
    %880 = "hivm.hir.vmul"(%879, %879, %62) <{broadcast = array<i64>, operandSegmentSizes = array<i32: 2, 1, 0>, transpose = array<i64>}> : (tensor<1xf32>, tensor<1xf32>, tensor<1xf32>) -> tensor<1xf32>
    %881 = "tensor.extract"(%880, %0) : (tensor<1xf32>, index) -> f32
    %882 = "tensor.insert"(%881, %247, %0) : (f32, tensor<1xf32>, index) -> tensor<1xf32>
    %883 = "memref.reinterpret_cast"(%arg4) <{operandSegmentSizes = array<i32: 1, 0, 0, 0>, static_offsets = array<i64: 70>, static_sizes = array<i64: 1>, static_strides = array<i64: 1>}> : (memref<?xf32>) -> memref<1xf32, strided<[1], offset: 70>>
    "hivm.hir.store"(%882, %883) : (tensor<1xf32>, memref<1xf32, strided<[1], offset: 70>>) -> ()
    %884 = "memref.reinterpret_cast"(%arg3) <{operandSegmentSizes = array<i32: 1, 0, 0, 0>, static_offsets = array<i64: 71>, static_sizes = array<i64: 1>, static_strides = array<i64: 1>}> : (memref<?xf32>) -> memref<1xf32, strided<[1], offset: 71>>
    %885 = "memref.load"(%884, %0) : (memref<1xf32, strided<[1], offset: 71>>, index) -> f32
    %886 = "tensor.insert"(%885, %246, %0) : (f32, tensor<1xf32>, index) -> tensor<1xf32>
    %887 = "hivm.hir.vmul"(%886, %886, %61) <{broadcast = array<i64>, operandSegmentSizes = array<i32: 2, 1, 0>, transpose = array<i64>}> : (tensor<1xf32>, tensor<1xf32>, tensor<1xf32>) -> tensor<1xf32>
    %888 = "tensor.extract"(%887, %0) : (tensor<1xf32>, index) -> f32
    %889 = "tensor.insert"(%888, %245, %0) : (f32, tensor<1xf32>, index) -> tensor<1xf32>
    %890 = "memref.reinterpret_cast"(%arg4) <{operandSegmentSizes = array<i32: 1, 0, 0, 0>, static_offsets = array<i64: 71>, static_sizes = array<i64: 1>, static_strides = array<i64: 1>}> : (memref<?xf32>) -> memref<1xf32, strided<[1], offset: 71>>
    "hivm.hir.store"(%889, %890) : (tensor<1xf32>, memref<1xf32, strided<[1], offset: 71>>) -> ()
    %891 = "memref.reinterpret_cast"(%arg3) <{operandSegmentSizes = array<i32: 1, 0, 0, 0>, static_offsets = array<i64: 72>, static_sizes = array<i64: 1>, static_strides = array<i64: 1>}> : (memref<?xf32>) -> memref<1xf32, strided<[1], offset: 72>>
    %892 = "memref.load"(%891, %0) : (memref<1xf32, strided<[1], offset: 72>>, index) -> f32
    %893 = "tensor.insert"(%892, %244, %0) : (f32, tensor<1xf32>, index) -> tensor<1xf32>
    %894 = "hivm.hir.vmul"(%893, %893, %60) <{broadcast = array<i64>, operandSegmentSizes = array<i32: 2, 1, 0>, transpose = array<i64>}> : (tensor<1xf32>, tensor<1xf32>, tensor<1xf32>) -> tensor<1xf32>
    %895 = "tensor.extract"(%894, %0) : (tensor<1xf32>, index) -> f32
    %896 = "tensor.insert"(%895, %243, %0) : (f32, tensor<1xf32>, index) -> tensor<1xf32>
    %897 = "memref.reinterpret_cast"(%arg4) <{operandSegmentSizes = array<i32: 1, 0, 0, 0>, static_offsets = array<i64: 72>, static_sizes = array<i64: 1>, static_strides = array<i64: 1>}> : (memref<?xf32>) -> memref<1xf32, strided<[1], offset: 72>>
    "hivm.hir.store"(%896, %897) : (tensor<1xf32>, memref<1xf32, strided<[1], offset: 72>>) -> ()
    %898 = "memref.reinterpret_cast"(%arg3) <{operandSegmentSizes = array<i32: 1, 0, 0, 0>, static_offsets = array<i64: 73>, static_sizes = array<i64: 1>, static_strides = array<i64: 1>}> : (memref<?xf32>) -> memref<1xf32, strided<[1], offset: 73>>
    %899 = "memref.load"(%898, %0) : (memref<1xf32, strided<[1], offset: 73>>, index) -> f32
    %900 = "tensor.insert"(%899, %242, %0) : (f32, tensor<1xf32>, index) -> tensor<1xf32>
    %901 = "hivm.hir.vmul"(%900, %900, %59) <{broadcast = array<i64>, operandSegmentSizes = array<i32: 2, 1, 0>, transpose = array<i64>}> : (tensor<1xf32>, tensor<1xf32>, tensor<1xf32>) -> tensor<1xf32>
    %902 = "tensor.extract"(%901, %0) : (tensor<1xf32>, index) -> f32
    %903 = "tensor.insert"(%902, %241, %0) : (f32, tensor<1xf32>, index) -> tensor<1xf32>
    %904 = "memref.reinterpret_cast"(%arg4) <{operandSegmentSizes = array<i32: 1, 0, 0, 0>, static_offsets = array<i64: 73>, static_sizes = array<i64: 1>, static_strides = array<i64: 1>}> : (memref<?xf32>) -> memref<1xf32, strided<[1], offset: 73>>
    "hivm.hir.store"(%903, %904) : (tensor<1xf32>, memref<1xf32, strided<[1], offset: 73>>) -> ()
    %905 = "memref.reinterpret_cast"(%arg3) <{operandSegmentSizes = array<i32: 1, 0, 0, 0>, static_offsets = array<i64: 74>, static_sizes = array<i64: 1>, static_strides = array<i64: 1>}> : (memref<?xf32>) -> memref<1xf32, strided<[1], offset: 74>>
    %906 = "memref.load"(%905, %0) : (memref<1xf32, strided<[1], offset: 74>>, index) -> f32
    %907 = "tensor.insert"(%906, %240, %0) : (f32, tensor<1xf32>, index) -> tensor<1xf32>
    %908 = "hivm.hir.vmul"(%907, %907, %58) <{broadcast = array<i64>, operandSegmentSizes = array<i32: 2, 1, 0>, transpose = array<i64>}> : (tensor<1xf32>, tensor<1xf32>, tensor<1xf32>) -> tensor<1xf32>
    %909 = "tensor.extract"(%908, %0) : (tensor<1xf32>, index) -> f32
    %910 = "tensor.insert"(%909, %239, %0) : (f32, tensor<1xf32>, index) -> tensor<1xf32>
    %911 = "memref.reinterpret_cast"(%arg4) <{operandSegmentSizes = array<i32: 1, 0, 0, 0>, static_offsets = array<i64: 74>, static_sizes = array<i64: 1>, static_strides = array<i64: 1>}> : (memref<?xf32>) -> memref<1xf32, strided<[1], offset: 74>>
    "hivm.hir.store"(%910, %911) : (tensor<1xf32>, memref<1xf32, strided<[1], offset: 74>>) -> ()
    %912 = "memref.reinterpret_cast"(%arg3) <{operandSegmentSizes = array<i32: 1, 0, 0, 0>, static_offsets = array<i64: 75>, static_sizes = array<i64: 1>, static_strides = array<i64: 1>}> : (memref<?xf32>) -> memref<1xf32, strided<[1], offset: 75>>
    %913 = "memref.load"(%912, %0) : (memref<1xf32, strided<[1], offset: 75>>, index) -> f32
    %914 = "tensor.insert"(%913, %238, %0) : (f32, tensor<1xf32>, index) -> tensor<1xf32>
    %915 = "hivm.hir.vmul"(%914, %914, %57) <{broadcast = array<i64>, operandSegmentSizes = array<i32: 2, 1, 0>, transpose = array<i64>}> : (tensor<1xf32>, tensor<1xf32>, tensor<1xf32>) -> tensor<1xf32>
    %916 = "tensor.extract"(%915, %0) : (tensor<1xf32>, index) -> f32
    %917 = "tensor.insert"(%916, %237, %0) : (f32, tensor<1xf32>, index) -> tensor<1xf32>
    %918 = "memref.reinterpret_cast"(%arg4) <{operandSegmentSizes = array<i32: 1, 0, 0, 0>, static_offsets = array<i64: 75>, static_sizes = array<i64: 1>, static_strides = array<i64: 1>}> : (memref<?xf32>) -> memref<1xf32, strided<[1], offset: 75>>
    "hivm.hir.store"(%917, %918) : (tensor<1xf32>, memref<1xf32, strided<[1], offset: 75>>) -> ()
    %919 = "memref.reinterpret_cast"(%arg3) <{operandSegmentSizes = array<i32: 1, 0, 0, 0>, static_offsets = array<i64: 76>, static_sizes = array<i64: 1>, static_strides = array<i64: 1>}> : (memref<?xf32>) -> memref<1xf32, strided<[1], offset: 76>>
    %920 = "memref.load"(%919, %0) : (memref<1xf32, strided<[1], offset: 76>>, index) -> f32
    %921 = "tensor.insert"(%920, %236, %0) : (f32, tensor<1xf32>, index) -> tensor<1xf32>
    %922 = "hivm.hir.vmul"(%921, %921, %56) <{broadcast = array<i64>, operandSegmentSizes = array<i32: 2, 1, 0>, transpose = array<i64>}> : (tensor<1xf32>, tensor<1xf32>, tensor<1xf32>) -> tensor<1xf32>
    %923 = "tensor.extract"(%922, %0) : (tensor<1xf32>, index) -> f32
    %924 = "tensor.insert"(%923, %235, %0) : (f32, tensor<1xf32>, index) -> tensor<1xf32>
    %925 = "memref.reinterpret_cast"(%arg4) <{operandSegmentSizes = array<i32: 1, 0, 0, 0>, static_offsets = array<i64: 76>, static_sizes = array<i64: 1>, static_strides = array<i64: 1>}> : (memref<?xf32>) -> memref<1xf32, strided<[1], offset: 76>>
    "hivm.hir.store"(%924, %925) : (tensor<1xf32>, memref<1xf32, strided<[1], offset: 76>>) -> ()
    %926 = "memref.reinterpret_cast"(%arg3) <{operandSegmentSizes = array<i32: 1, 0, 0, 0>, static_offsets = array<i64: 77>, static_sizes = array<i64: 1>, static_strides = array<i64: 1>}> : (memref<?xf32>) -> memref<1xf32, strided<[1], offset: 77>>
    %927 = "memref.load"(%926, %0) : (memref<1xf32, strided<[1], offset: 77>>, index) -> f32
    %928 = "tensor.insert"(%927, %234, %0) : (f32, tensor<1xf32>, index) -> tensor<1xf32>
    %929 = "hivm.hir.vmul"(%928, %928, %55) <{broadcast = array<i64>, operandSegmentSizes = array<i32: 2, 1, 0>, transpose = array<i64>}> : (tensor<1xf32>, tensor<1xf32>, tensor<1xf32>) -> tensor<1xf32>
    %930 = "tensor.extract"(%929, %0) : (tensor<1xf32>, index) -> f32
    %931 = "tensor.insert"(%930, %233, %0) : (f32, tensor<1xf32>, index) -> tensor<1xf32>
    %932 = "memref.reinterpret_cast"(%arg4) <{operandSegmentSizes = array<i32: 1, 0, 0, 0>, static_offsets = array<i64: 77>, static_sizes = array<i64: 1>, static_strides = array<i64: 1>}> : (memref<?xf32>) -> memref<1xf32, strided<[1], offset: 77>>
    "hivm.hir.store"(%931, %932) : (tensor<1xf32>, memref<1xf32, strided<[1], offset: 77>>) -> ()
    %933 = "memref.reinterpret_cast"(%arg3) <{operandSegmentSizes = array<i32: 1, 0, 0, 0>, static_offsets = array<i64: 78>, static_sizes = array<i64: 1>, static_strides = array<i64: 1>}> : (memref<?xf32>) -> memref<1xf32, strided<[1], offset: 78>>
    %934 = "memref.load"(%933, %0) : (memref<1xf32, strided<[1], offset: 78>>, index) -> f32
    %935 = "tensor.insert"(%934, %232, %0) : (f32, tensor<1xf32>, index) -> tensor<1xf32>
    %936 = "hivm.hir.vmul"(%935, %935, %54) <{broadcast = array<i64>, operandSegmentSizes = array<i32: 2, 1, 0>, transpose = array<i64>}> : (tensor<1xf32>, tensor<1xf32>, tensor<1xf32>) -> tensor<1xf32>
    %937 = "tensor.extract"(%936, %0) : (tensor<1xf32>, index) -> f32
    %938 = "tensor.insert"(%937, %231, %0) : (f32, tensor<1xf32>, index) -> tensor<1xf32>
    %939 = "memref.reinterpret_cast"(%arg4) <{operandSegmentSizes = array<i32: 1, 0, 0, 0>, static_offsets = array<i64: 78>, static_sizes = array<i64: 1>, static_strides = array<i64: 1>}> : (memref<?xf32>) -> memref<1xf32, strided<[1], offset: 78>>
    "hivm.hir.store"(%938, %939) : (tensor<1xf32>, memref<1xf32, strided<[1], offset: 78>>) -> ()
    %940 = "memref.reinterpret_cast"(%arg3) <{operandSegmentSizes = array<i32: 1, 0, 0, 0>, static_offsets = array<i64: 79>, static_sizes = array<i64: 1>, static_strides = array<i64: 1>}> : (memref<?xf32>) -> memref<1xf32, strided<[1], offset: 79>>
    %941 = "memref.load"(%940, %0) : (memref<1xf32, strided<[1], offset: 79>>, index) -> f32
    %942 = "tensor.insert"(%941, %230, %0) : (f32, tensor<1xf32>, index) -> tensor<1xf32>
    %943 = "hivm.hir.vmul"(%942, %942, %53) <{broadcast = array<i64>, operandSegmentSizes = array<i32: 2, 1, 0>, transpose = array<i64>}> : (tensor<1xf32>, tensor<1xf32>, tensor<1xf32>) -> tensor<1xf32>
    %944 = "tensor.extract"(%943, %0) : (tensor<1xf32>, index) -> f32
    %945 = "tensor.insert"(%944, %229, %0) : (f32, tensor<1xf32>, index) -> tensor<1xf32>
    %946 = "memref.reinterpret_cast"(%arg4) <{operandSegmentSizes = array<i32: 1, 0, 0, 0>, static_offsets = array<i64: 79>, static_sizes = array<i64: 1>, static_strides = array<i64: 1>}> : (memref<?xf32>) -> memref<1xf32, strided<[1], offset: 79>>
    "hivm.hir.store"(%945, %946) : (tensor<1xf32>, memref<1xf32, strided<[1], offset: 79>>) -> ()
    %947 = "memref.reinterpret_cast"(%arg3) <{operandSegmentSizes = array<i32: 1, 0, 0, 0>, static_offsets = array<i64: 80>, static_sizes = array<i64: 1>, static_strides = array<i64: 1>}> : (memref<?xf32>) -> memref<1xf32, strided<[1], offset: 80>>
    %948 = "memref.load"(%947, %0) : (memref<1xf32, strided<[1], offset: 80>>, index) -> f32
    %949 = "tensor.insert"(%948, %228, %0) : (f32, tensor<1xf32>, index) -> tensor<1xf32>
    %950 = "hivm.hir.vmul"(%949, %949, %52) <{broadcast = array<i64>, operandSegmentSizes = array<i32: 2, 1, 0>, transpose = array<i64>}> : (tensor<1xf32>, tensor<1xf32>, tensor<1xf32>) -> tensor<1xf32>
    %951 = "tensor.extract"(%950, %0) : (tensor<1xf32>, index) -> f32
    %952 = "tensor.insert"(%951, %227, %0) : (f32, tensor<1xf32>, index) -> tensor<1xf32>
    %953 = "memref.reinterpret_cast"(%arg4) <{operandSegmentSizes = array<i32: 1, 0, 0, 0>, static_offsets = array<i64: 80>, static_sizes = array<i64: 1>, static_strides = array<i64: 1>}> : (memref<?xf32>) -> memref<1xf32, strided<[1], offset: 80>>
    "hivm.hir.store"(%952, %953) : (tensor<1xf32>, memref<1xf32, strided<[1], offset: 80>>) -> ()
    %954 = "memref.reinterpret_cast"(%arg3) <{operandSegmentSizes = array<i32: 1, 0, 0, 0>, static_offsets = array<i64: 81>, static_sizes = array<i64: 1>, static_strides = array<i64: 1>}> : (memref<?xf32>) -> memref<1xf32, strided<[1], offset: 81>>
    %955 = "memref.load"(%954, %0) : (memref<1xf32, strided<[1], offset: 81>>, index) -> f32
    %956 = "tensor.insert"(%955, %226, %0) : (f32, tensor<1xf32>, index) -> tensor<1xf32>
    %957 = "hivm.hir.vmul"(%956, %956, %51) <{broadcast = array<i64>, operandSegmentSizes = array<i32: 2, 1, 0>, transpose = array<i64>}> : (tensor<1xf32>, tensor<1xf32>, tensor<1xf32>) -> tensor<1xf32>
    %958 = "tensor.extract"(%957, %0) : (tensor<1xf32>, index) -> f32
    %959 = "tensor.insert"(%958, %225, %0) : (f32, tensor<1xf32>, index) -> tensor<1xf32>
    %960 = "memref.reinterpret_cast"(%arg4) <{operandSegmentSizes = array<i32: 1, 0, 0, 0>, static_offsets = array<i64: 81>, static_sizes = array<i64: 1>, static_strides = array<i64: 1>}> : (memref<?xf32>) -> memref<1xf32, strided<[1], offset: 81>>
    "hivm.hir.store"(%959, %960) : (tensor<1xf32>, memref<1xf32, strided<[1], offset: 81>>) -> ()
    %961 = "memref.reinterpret_cast"(%arg3) <{operandSegmentSizes = array<i32: 1, 0, 0, 0>, static_offsets = array<i64: 82>, static_sizes = array<i64: 1>, static_strides = array<i64: 1>}> : (memref<?xf32>) -> memref<1xf32, strided<[1], offset: 82>>
    %962 = "memref.load"(%961, %0) : (memref<1xf32, strided<[1], offset: 82>>, index) -> f32
    %963 = "tensor.insert"(%962, %224, %0) : (f32, tensor<1xf32>, index) -> tensor<1xf32>
    %964 = "hivm.hir.vmul"(%963, %963, %50) <{broadcast = array<i64>, operandSegmentSizes = array<i32: 2, 1, 0>, transpose = array<i64>}> : (tensor<1xf32>, tensor<1xf32>, tensor<1xf32>) -> tensor<1xf32>
    %965 = "tensor.extract"(%964, %0) : (tensor<1xf32>, index) -> f32
    %966 = "tensor.insert"(%965, %223, %0) : (f32, tensor<1xf32>, index) -> tensor<1xf32>
    %967 = "memref.reinterpret_cast"(%arg4) <{operandSegmentSizes = array<i32: 1, 0, 0, 0>, static_offsets = array<i64: 82>, static_sizes = array<i64: 1>, static_strides = array<i64: 1>}> : (memref<?xf32>) -> memref<1xf32, strided<[1], offset: 82>>
    "hivm.hir.store"(%966, %967) : (tensor<1xf32>, memref<1xf32, strided<[1], offset: 82>>) -> ()
    %968 = "memref.reinterpret_cast"(%arg3) <{operandSegmentSizes = array<i32: 1, 0, 0, 0>, static_offsets = array<i64: 83>, static_sizes = array<i64: 1>, static_strides = array<i64: 1>}> : (memref<?xf32>) -> memref<1xf32, strided<[1], offset: 83>>
    %969 = "memref.load"(%968, %0) : (memref<1xf32, strided<[1], offset: 83>>, index) -> f32
    %970 = "tensor.insert"(%969, %222, %0) : (f32, tensor<1xf32>, index) -> tensor<1xf32>
    %971 = "hivm.hir.vmul"(%970, %970, %49) <{broadcast = array<i64>, operandSegmentSizes = array<i32: 2, 1, 0>, transpose = array<i64>}> : (tensor<1xf32>, tensor<1xf32>, tensor<1xf32>) -> tensor<1xf32>
    %972 = "tensor.extract"(%971, %0) : (tensor<1xf32>, index) -> f32
    %973 = "tensor.insert"(%972, %221, %0) : (f32, tensor<1xf32>, index) -> tensor<1xf32>
    %974 = "memref.reinterpret_cast"(%arg4) <{operandSegmentSizes = array<i32: 1, 0, 0, 0>, static_offsets = array<i64: 83>, static_sizes = array<i64: 1>, static_strides = array<i64: 1>}> : (memref<?xf32>) -> memref<1xf32, strided<[1], offset: 83>>
    "hivm.hir.store"(%973, %974) : (tensor<1xf32>, memref<1xf32, strided<[1], offset: 83>>) -> ()
    %975 = "memref.reinterpret_cast"(%arg3) <{operandSegmentSizes = array<i32: 1, 0, 0, 0>, static_offsets = array<i64: 84>, static_sizes = array<i64: 1>, static_strides = array<i64: 1>}> : (memref<?xf32>) -> memref<1xf32, strided<[1], offset: 84>>
    %976 = "memref.load"(%975, %0) : (memref<1xf32, strided<[1], offset: 84>>, index) -> f32
    %977 = "tensor.insert"(%976, %220, %0) : (f32, tensor<1xf32>, index) -> tensor<1xf32>
    %978 = "hivm.hir.vmul"(%977, %977, %48) <{broadcast = array<i64>, operandSegmentSizes = array<i32: 2, 1, 0>, transpose = array<i64>}> : (tensor<1xf32>, tensor<1xf32>, tensor<1xf32>) -> tensor<1xf32>
    %979 = "tensor.extract"(%978, %0) : (tensor<1xf32>, index) -> f32
    %980 = "tensor.insert"(%979, %219, %0) : (f32, tensor<1xf32>, index) -> tensor<1xf32>
    %981 = "memref.reinterpret_cast"(%arg4) <{operandSegmentSizes = array<i32: 1, 0, 0, 0>, static_offsets = array<i64: 84>, static_sizes = array<i64: 1>, static_strides = array<i64: 1>}> : (memref<?xf32>) -> memref<1xf32, strided<[1], offset: 84>>
    "hivm.hir.store"(%980, %981) : (tensor<1xf32>, memref<1xf32, strided<[1], offset: 84>>) -> ()
    %982 = "memref.reinterpret_cast"(%arg3) <{operandSegmentSizes = array<i32: 1, 0, 0, 0>, static_offsets = array<i64: 85>, static_sizes = array<i64: 1>, static_strides = array<i64: 1>}> : (memref<?xf32>) -> memref<1xf32, strided<[1], offset: 85>>
    %983 = "memref.load"(%982, %0) : (memref<1xf32, strided<[1], offset: 85>>, index) -> f32
    %984 = "tensor.insert"(%983, %218, %0) : (f32, tensor<1xf32>, index) -> tensor<1xf32>
    %985 = "hivm.hir.vmul"(%984, %984, %47) <{broadcast = array<i64>, operandSegmentSizes = array<i32: 2, 1, 0>, transpose = array<i64>}> : (tensor<1xf32>, tensor<1xf32>, tensor<1xf32>) -> tensor<1xf32>
    %986 = "tensor.extract"(%985, %0) : (tensor<1xf32>, index) -> f32
    %987 = "tensor.insert"(%986, %217, %0) : (f32, tensor<1xf32>, index) -> tensor<1xf32>
    %988 = "memref.reinterpret_cast"(%arg4) <{operandSegmentSizes = array<i32: 1, 0, 0, 0>, static_offsets = array<i64: 85>, static_sizes = array<i64: 1>, static_strides = array<i64: 1>}> : (memref<?xf32>) -> memref<1xf32, strided<[1], offset: 85>>
    "hivm.hir.store"(%987, %988) : (tensor<1xf32>, memref<1xf32, strided<[1], offset: 85>>) -> ()
    %989 = "memref.reinterpret_cast"(%arg3) <{operandSegmentSizes = array<i32: 1, 0, 0, 0>, static_offsets = array<i64: 86>, static_sizes = array<i64: 1>, static_strides = array<i64: 1>}> : (memref<?xf32>) -> memref<1xf32, strided<[1], offset: 86>>
    %990 = "memref.load"(%989, %0) : (memref<1xf32, strided<[1], offset: 86>>, index) -> f32
    %991 = "tensor.insert"(%990, %216, %0) : (f32, tensor<1xf32>, index) -> tensor<1xf32>
    %992 = "hivm.hir.vmul"(%991, %991, %46) <{broadcast = array<i64>, operandSegmentSizes = array<i32: 2, 1, 0>, transpose = array<i64>}> : (tensor<1xf32>, tensor<1xf32>, tensor<1xf32>) -> tensor<1xf32>
    %993 = "tensor.extract"(%992, %0) : (tensor<1xf32>, index) -> f32
    %994 = "tensor.insert"(%993, %215, %0) : (f32, tensor<1xf32>, index) -> tensor<1xf32>
    %995 = "memref.reinterpret_cast"(%arg4) <{operandSegmentSizes = array<i32: 1, 0, 0, 0>, static_offsets = array<i64: 86>, static_sizes = array<i64: 1>, static_strides = array<i64: 1>}> : (memref<?xf32>) -> memref<1xf32, strided<[1], offset: 86>>
    "hivm.hir.store"(%994, %995) : (tensor<1xf32>, memref<1xf32, strided<[1], offset: 86>>) -> ()
    %996 = "memref.reinterpret_cast"(%arg3) <{operandSegmentSizes = array<i32: 1, 0, 0, 0>, static_offsets = array<i64: 87>, static_sizes = array<i64: 1>, static_strides = array<i64: 1>}> : (memref<?xf32>) -> memref<1xf32, strided<[1], offset: 87>>
    %997 = "memref.load"(%996, %0) : (memref<1xf32, strided<[1], offset: 87>>, index) -> f32
    %998 = "tensor.insert"(%997, %214, %0) : (f32, tensor<1xf32>, index) -> tensor<1xf32>
    %999 = "hivm.hir.vmul"(%998, %998, %45) <{broadcast = array<i64>, operandSegmentSizes = array<i32: 2, 1, 0>, transpose = array<i64>}> : (tensor<1xf32>, tensor<1xf32>, tensor<1xf32>) -> tensor<1xf32>
    %1000 = "tensor.extract"(%999, %0) : (tensor<1xf32>, index) -> f32
    %1001 = "tensor.insert"(%1000, %213, %0) : (f32, tensor<1xf32>, index) -> tensor<1xf32>
    %1002 = "memref.reinterpret_cast"(%arg4) <{operandSegmentSizes = array<i32: 1, 0, 0, 0>, static_offsets = array<i64: 87>, static_sizes = array<i64: 1>, static_strides = array<i64: 1>}> : (memref<?xf32>) -> memref<1xf32, strided<[1], offset: 87>>
    "hivm.hir.store"(%1001, %1002) : (tensor<1xf32>, memref<1xf32, strided<[1], offset: 87>>) -> ()
    %1003 = "memref.reinterpret_cast"(%arg3) <{operandSegmentSizes = array<i32: 1, 0, 0, 0>, static_offsets = array<i64: 88>, static_sizes = array<i64: 1>, static_strides = array<i64: 1>}> : (memref<?xf32>) -> memref<1xf32, strided<[1], offset: 88>>
    %1004 = "memref.load"(%1003, %0) : (memref<1xf32, strided<[1], offset: 88>>, index) -> f32
    %1005 = "tensor.insert"(%1004, %212, %0) : (f32, tensor<1xf32>, index) -> tensor<1xf32>
    %1006 = "hivm.hir.vmul"(%1005, %1005, %44) <{broadcast = array<i64>, operandSegmentSizes = array<i32: 2, 1, 0>, transpose = array<i64>}> : (tensor<1xf32>, tensor<1xf32>, tensor<1xf32>) -> tensor<1xf32>
    %1007 = "tensor.extract"(%1006, %0) : (tensor<1xf32>, index) -> f32
    %1008 = "tensor.insert"(%1007, %211, %0) : (f32, tensor<1xf32>, index) -> tensor<1xf32>
    %1009 = "memref.reinterpret_cast"(%arg4) <{operandSegmentSizes = array<i32: 1, 0, 0, 0>, static_offsets = array<i64: 88>, static_sizes = array<i64: 1>, static_strides = array<i64: 1>}> : (memref<?xf32>) -> memref<1xf32, strided<[1], offset: 88>>
    "hivm.hir.store"(%1008, %1009) : (tensor<1xf32>, memref<1xf32, strided<[1], offset: 88>>) -> ()
    %1010 = "memref.reinterpret_cast"(%arg3) <{operandSegmentSizes = array<i32: 1, 0, 0, 0>, static_offsets = array<i64: 89>, static_sizes = array<i64: 1>, static_strides = array<i64: 1>}> : (memref<?xf32>) -> memref<1xf32, strided<[1], offset: 89>>
    %1011 = "memref.load"(%1010, %0) : (memref<1xf32, strided<[1], offset: 89>>, index) -> f32
    %1012 = "tensor.insert"(%1011, %210, %0) : (f32, tensor<1xf32>, index) -> tensor<1xf32>
    %1013 = "hivm.hir.vmul"(%1012, %1012, %43) <{broadcast = array<i64>, operandSegmentSizes = array<i32: 2, 1, 0>, transpose = array<i64>}> : (tensor<1xf32>, tensor<1xf32>, tensor<1xf32>) -> tensor<1xf32>
    %1014 = "tensor.extract"(%1013, %0) : (tensor<1xf32>, index) -> f32
    %1015 = "tensor.insert"(%1014, %209, %0) : (f32, tensor<1xf32>, index) -> tensor<1xf32>
    %1016 = "memref.reinterpret_cast"(%arg4) <{operandSegmentSizes = array<i32: 1, 0, 0, 0>, static_offsets = array<i64: 89>, static_sizes = array<i64: 1>, static_strides = array<i64: 1>}> : (memref<?xf32>) -> memref<1xf32, strided<[1], offset: 89>>
    "hivm.hir.store"(%1015, %1016) : (tensor<1xf32>, memref<1xf32, strided<[1], offset: 89>>) -> ()
    %1017 = "memref.reinterpret_cast"(%arg3) <{operandSegmentSizes = array<i32: 1, 0, 0, 0>, static_offsets = array<i64: 90>, static_sizes = array<i64: 1>, static_strides = array<i64: 1>}> : (memref<?xf32>) -> memref<1xf32, strided<[1], offset: 90>>
    %1018 = "memref.load"(%1017, %0) : (memref<1xf32, strided<[1], offset: 90>>, index) -> f32
    %1019 = "tensor.insert"(%1018, %208, %0) : (f32, tensor<1xf32>, index) -> tensor<1xf32>
    %1020 = "hivm.hir.vmul"(%1019, %1019, %42) <{broadcast = array<i64>, operandSegmentSizes = array<i32: 2, 1, 0>, transpose = array<i64>}> : (tensor<1xf32>, tensor<1xf32>, tensor<1xf32>) -> tensor<1xf32>
    %1021 = "tensor.extract"(%1020, %0) : (tensor<1xf32>, index) -> f32
    %1022 = "tensor.insert"(%1021, %207, %0) : (f32, tensor<1xf32>, index) -> tensor<1xf32>
    %1023 = "memref.reinterpret_cast"(%arg4) <{operandSegmentSizes = array<i32: 1, 0, 0, 0>, static_offsets = array<i64: 90>, static_sizes = array<i64: 1>, static_strides = array<i64: 1>}> : (memref<?xf32>) -> memref<1xf32, strided<[1], offset: 90>>
    "hivm.hir.store"(%1022, %1023) : (tensor<1xf32>, memref<1xf32, strided<[1], offset: 90>>) -> ()
    %1024 = "memref.reinterpret_cast"(%arg3) <{operandSegmentSizes = array<i32: 1, 0, 0, 0>, static_offsets = array<i64: 91>, static_sizes = array<i64: 1>, static_strides = array<i64: 1>}> : (memref<?xf32>) -> memref<1xf32, strided<[1], offset: 91>>
    %1025 = "memref.load"(%1024, %0) : (memref<1xf32, strided<[1], offset: 91>>, index) -> f32
    %1026 = "tensor.insert"(%1025, %206, %0) : (f32, tensor<1xf32>, index) -> tensor<1xf32>
    %1027 = "hivm.hir.vmul"(%1026, %1026, %41) <{broadcast = array<i64>, operandSegmentSizes = array<i32: 2, 1, 0>, transpose = array<i64>}> : (tensor<1xf32>, tensor<1xf32>, tensor<1xf32>) -> tensor<1xf32>
    %1028 = "tensor.extract"(%1027, %0) : (tensor<1xf32>, index) -> f32
    %1029 = "tensor.insert"(%1028, %205, %0) : (f32, tensor<1xf32>, index) -> tensor<1xf32>
    %1030 = "memref.reinterpret_cast"(%arg4) <{operandSegmentSizes = array<i32: 1, 0, 0, 0>, static_offsets = array<i64: 91>, static_sizes = array<i64: 1>, static_strides = array<i64: 1>}> : (memref<?xf32>) -> memref<1xf32, strided<[1], offset: 91>>
    "hivm.hir.store"(%1029, %1030) : (tensor<1xf32>, memref<1xf32, strided<[1], offset: 91>>) -> ()
    %1031 = "memref.reinterpret_cast"(%arg3) <{operandSegmentSizes = array<i32: 1, 0, 0, 0>, static_offsets = array<i64: 92>, static_sizes = array<i64: 1>, static_strides = array<i64: 1>}> : (memref<?xf32>) -> memref<1xf32, strided<[1], offset: 92>>
    %1032 = "memref.load"(%1031, %0) : (memref<1xf32, strided<[1], offset: 92>>, index) -> f32
    %1033 = "tensor.insert"(%1032, %204, %0) : (f32, tensor<1xf32>, index) -> tensor<1xf32>
    %1034 = "hivm.hir.vmul"(%1033, %1033, %40) <{broadcast = array<i64>, operandSegmentSizes = array<i32: 2, 1, 0>, transpose = array<i64>}> : (tensor<1xf32>, tensor<1xf32>, tensor<1xf32>) -> tensor<1xf32>
    %1035 = "tensor.extract"(%1034, %0) : (tensor<1xf32>, index) -> f32
    %1036 = "tensor.insert"(%1035, %203, %0) : (f32, tensor<1xf32>, index) -> tensor<1xf32>
    %1037 = "memref.reinterpret_cast"(%arg4) <{operandSegmentSizes = array<i32: 1, 0, 0, 0>, static_offsets = array<i64: 92>, static_sizes = array<i64: 1>, static_strides = array<i64: 1>}> : (memref<?xf32>) -> memref<1xf32, strided<[1], offset: 92>>
    "hivm.hir.store"(%1036, %1037) : (tensor<1xf32>, memref<1xf32, strided<[1], offset: 92>>) -> ()
    %1038 = "memref.reinterpret_cast"(%arg3) <{operandSegmentSizes = array<i32: 1, 0, 0, 0>, static_offsets = array<i64: 93>, static_sizes = array<i64: 1>, static_strides = array<i64: 1>}> : (memref<?xf32>) -> memref<1xf32, strided<[1], offset: 93>>
    %1039 = "memref.load"(%1038, %0) : (memref<1xf32, strided<[1], offset: 93>>, index) -> f32
    %1040 = "tensor.insert"(%1039, %202, %0) : (f32, tensor<1xf32>, index) -> tensor<1xf32>
    %1041 = "hivm.hir.vmul"(%1040, %1040, %39) <{broadcast = array<i64>, operandSegmentSizes = array<i32: 2, 1, 0>, transpose = array<i64>}> : (tensor<1xf32>, tensor<1xf32>, tensor<1xf32>) -> tensor<1xf32>
    %1042 = "tensor.extract"(%1041, %0) : (tensor<1xf32>, index) -> f32
    %1043 = "tensor.insert"(%1042, %201, %0) : (f32, tensor<1xf32>, index) -> tensor<1xf32>
    %1044 = "memref.reinterpret_cast"(%arg4) <{operandSegmentSizes = array<i32: 1, 0, 0, 0>, static_offsets = array<i64: 93>, static_sizes = array<i64: 1>, static_strides = array<i64: 1>}> : (memref<?xf32>) -> memref<1xf32, strided<[1], offset: 93>>
    "hivm.hir.store"(%1043, %1044) : (tensor<1xf32>, memref<1xf32, strided<[1], offset: 93>>) -> ()
    %1045 = "memref.reinterpret_cast"(%arg3) <{operandSegmentSizes = array<i32: 1, 0, 0, 0>, static_offsets = array<i64: 94>, static_sizes = array<i64: 1>, static_strides = array<i64: 1>}> : (memref<?xf32>) -> memref<1xf32, strided<[1], offset: 94>>
    %1046 = "memref.load"(%1045, %0) : (memref<1xf32, strided<[1], offset: 94>>, index) -> f32
    %1047 = "tensor.insert"(%1046, %200, %0) : (f32, tensor<1xf32>, index) -> tensor<1xf32>
    %1048 = "hivm.hir.vmul"(%1047, %1047, %38) <{broadcast = array<i64>, operandSegmentSizes = array<i32: 2, 1, 0>, transpose = array<i64>}> : (tensor<1xf32>, tensor<1xf32>, tensor<1xf32>) -> tensor<1xf32>
    %1049 = "tensor.extract"(%1048, %0) : (tensor<1xf32>, index) -> f32
    %1050 = "tensor.insert"(%1049, %199, %0) : (f32, tensor<1xf32>, index) -> tensor<1xf32>
    %1051 = "memref.reinterpret_cast"(%arg4) <{operandSegmentSizes = array<i32: 1, 0, 0, 0>, static_offsets = array<i64: 94>, static_sizes = array<i64: 1>, static_strides = array<i64: 1>}> : (memref<?xf32>) -> memref<1xf32, strided<[1], offset: 94>>
    "hivm.hir.store"(%1050, %1051) : (tensor<1xf32>, memref<1xf32, strided<[1], offset: 94>>) -> ()
    %1052 = "memref.reinterpret_cast"(%arg3) <{operandSegmentSizes = array<i32: 1, 0, 0, 0>, static_offsets = array<i64: 95>, static_sizes = array<i64: 1>, static_strides = array<i64: 1>}> : (memref<?xf32>) -> memref<1xf32, strided<[1], offset: 95>>
    %1053 = "memref.load"(%1052, %0) : (memref<1xf32, strided<[1], offset: 95>>, index) -> f32
    %1054 = "tensor.insert"(%1053, %198, %0) : (f32, tensor<1xf32>, index) -> tensor<1xf32>
    %1055 = "hivm.hir.vmul"(%1054, %1054, %37) <{broadcast = array<i64>, operandSegmentSizes = array<i32: 2, 1, 0>, transpose = array<i64>}> : (tensor<1xf32>, tensor<1xf32>, tensor<1xf32>) -> tensor<1xf32>
    %1056 = "tensor.extract"(%1055, %0) : (tensor<1xf32>, index) -> f32
    %1057 = "tensor.insert"(%1056, %197, %0) : (f32, tensor<1xf32>, index) -> tensor<1xf32>
    %1058 = "memref.reinterpret_cast"(%arg4) <{operandSegmentSizes = array<i32: 1, 0, 0, 0>, static_offsets = array<i64: 95>, static_sizes = array<i64: 1>, static_strides = array<i64: 1>}> : (memref<?xf32>) -> memref<1xf32, strided<[1], offset: 95>>
    "hivm.hir.store"(%1057, %1058) : (tensor<1xf32>, memref<1xf32, strided<[1], offset: 95>>) -> ()
    %1059 = "memref.reinterpret_cast"(%arg3) <{operandSegmentSizes = array<i32: 1, 0, 0, 0>, static_offsets = array<i64: 96>, static_sizes = array<i64: 1>, static_strides = array<i64: 1>}> : (memref<?xf32>) -> memref<1xf32, strided<[1], offset: 96>>
    %1060 = "memref.load"(%1059, %0) : (memref<1xf32, strided<[1], offset: 96>>, index) -> f32
    %1061 = "tensor.insert"(%1060, %196, %0) : (f32, tensor<1xf32>, index) -> tensor<1xf32>
    %1062 = "hivm.hir.vmul"(%1061, %1061, %36) <{broadcast = array<i64>, operandSegmentSizes = array<i32: 2, 1, 0>, transpose = array<i64>}> : (tensor<1xf32>, tensor<1xf32>, tensor<1xf32>) -> tensor<1xf32>
    %1063 = "tensor.extract"(%1062, %0) : (tensor<1xf32>, index) -> f32
    %1064 = "tensor.insert"(%1063, %195, %0) : (f32, tensor<1xf32>, index) -> tensor<1xf32>
    %1065 = "memref.reinterpret_cast"(%arg4) <{operandSegmentSizes = array<i32: 1, 0, 0, 0>, static_offsets = array<i64: 96>, static_sizes = array<i64: 1>, static_strides = array<i64: 1>}> : (memref<?xf32>) -> memref<1xf32, strided<[1], offset: 96>>
    "hivm.hir.store"(%1064, %1065) : (tensor<1xf32>, memref<1xf32, strided<[1], offset: 96>>) -> ()
    %1066 = "memref.reinterpret_cast"(%arg3) <{operandSegmentSizes = array<i32: 1, 0, 0, 0>, static_offsets = array<i64: 97>, static_sizes = array<i64: 1>, static_strides = array<i64: 1>}> : (memref<?xf32>) -> memref<1xf32, strided<[1], offset: 97>>
    %1067 = "memref.load"(%1066, %0) : (memref<1xf32, strided<[1], offset: 97>>, index) -> f32
    %1068 = "tensor.insert"(%1067, %194, %0) : (f32, tensor<1xf32>, index) -> tensor<1xf32>
    %1069 = "hivm.hir.vmul"(%1068, %1068, %35) <{broadcast = array<i64>, operandSegmentSizes = array<i32: 2, 1, 0>, transpose = array<i64>}> : (tensor<1xf32>, tensor<1xf32>, tensor<1xf32>) -> tensor<1xf32>
    %1070 = "tensor.extract"(%1069, %0) : (tensor<1xf32>, index) -> f32
    %1071 = "tensor.insert"(%1070, %193, %0) : (f32, tensor<1xf32>, index) -> tensor<1xf32>
    %1072 = "memref.reinterpret_cast"(%arg4) <{operandSegmentSizes = array<i32: 1, 0, 0, 0>, static_offsets = array<i64: 97>, static_sizes = array<i64: 1>, static_strides = array<i64: 1>}> : (memref<?xf32>) -> memref<1xf32, strided<[1], offset: 97>>
    "hivm.hir.store"(%1071, %1072) : (tensor<1xf32>, memref<1xf32, strided<[1], offset: 97>>) -> ()
    %1073 = "memref.reinterpret_cast"(%arg3) <{operandSegmentSizes = array<i32: 1, 0, 0, 0>, static_offsets = array<i64: 98>, static_sizes = array<i64: 1>, static_strides = array<i64: 1>}> : (memref<?xf32>) -> memref<1xf32, strided<[1], offset: 98>>
    %1074 = "memref.load"(%1073, %0) : (memref<1xf32, strided<[1], offset: 98>>, index) -> f32
    %1075 = "tensor.insert"(%1074, %192, %0) : (f32, tensor<1xf32>, index) -> tensor<1xf32>
    %1076 = "hivm.hir.vmul"(%1075, %1075, %34) <{broadcast = array<i64>, operandSegmentSizes = array<i32: 2, 1, 0>, transpose = array<i64>}> : (tensor<1xf32>, tensor<1xf32>, tensor<1xf32>) -> tensor<1xf32>
    %1077 = "tensor.extract"(%1076, %0) : (tensor<1xf32>, index) -> f32
    %1078 = "tensor.insert"(%1077, %191, %0) : (f32, tensor<1xf32>, index) -> tensor<1xf32>
    %1079 = "memref.reinterpret_cast"(%arg4) <{operandSegmentSizes = array<i32: 1, 0, 0, 0>, static_offsets = array<i64: 98>, static_sizes = array<i64: 1>, static_strides = array<i64: 1>}> : (memref<?xf32>) -> memref<1xf32, strided<[1], offset: 98>>
    "hivm.hir.store"(%1078, %1079) : (tensor<1xf32>, memref<1xf32, strided<[1], offset: 98>>) -> ()
    %1080 = "memref.reinterpret_cast"(%arg3) <{operandSegmentSizes = array<i32: 1, 0, 0, 0>, static_offsets = array<i64: 99>, static_sizes = array<i64: 1>, static_strides = array<i64: 1>}> : (memref<?xf32>) -> memref<1xf32, strided<[1], offset: 99>>
    %1081 = "memref.load"(%1080, %0) : (memref<1xf32, strided<[1], offset: 99>>, index) -> f32
    %1082 = "tensor.insert"(%1081, %190, %0) : (f32, tensor<1xf32>, index) -> tensor<1xf32>
    %1083 = "hivm.hir.vmul"(%1082, %1082, %33) <{broadcast = array<i64>, operandSegmentSizes = array<i32: 2, 1, 0>, transpose = array<i64>}> : (tensor<1xf32>, tensor<1xf32>, tensor<1xf32>) -> tensor<1xf32>
    %1084 = "tensor.extract"(%1083, %0) : (tensor<1xf32>, index) -> f32
    %1085 = "tensor.insert"(%1084, %189, %0) : (f32, tensor<1xf32>, index) -> tensor<1xf32>
    %1086 = "memref.reinterpret_cast"(%arg4) <{operandSegmentSizes = array<i32: 1, 0, 0, 0>, static_offsets = array<i64: 99>, static_sizes = array<i64: 1>, static_strides = array<i64: 1>}> : (memref<?xf32>) -> memref<1xf32, strided<[1], offset: 99>>
    "hivm.hir.store"(%1085, %1086) : (tensor<1xf32>, memref<1xf32, strided<[1], offset: 99>>) -> ()
    %1087 = "memref.reinterpret_cast"(%arg3) <{operandSegmentSizes = array<i32: 1, 0, 0, 0>, static_offsets = array<i64: 100>, static_sizes = array<i64: 1>, static_strides = array<i64: 1>}> : (memref<?xf32>) -> memref<1xf32, strided<[1], offset: 100>>
    %1088 = "memref.load"(%1087, %0) : (memref<1xf32, strided<[1], offset: 100>>, index) -> f32
    %1089 = "tensor.insert"(%1088, %188, %0) : (f32, tensor<1xf32>, index) -> tensor<1xf32>
    %1090 = "hivm.hir.vmul"(%1089, %1089, %32) <{broadcast = array<i64>, operandSegmentSizes = array<i32: 2, 1, 0>, transpose = array<i64>}> : (tensor<1xf32>, tensor<1xf32>, tensor<1xf32>) -> tensor<1xf32>
    %1091 = "tensor.extract"(%1090, %0) : (tensor<1xf32>, index) -> f32
    %1092 = "tensor.insert"(%1091, %187, %0) : (f32, tensor<1xf32>, index) -> tensor<1xf32>
    %1093 = "memref.reinterpret_cast"(%arg4) <{operandSegmentSizes = array<i32: 1, 0, 0, 0>, static_offsets = array<i64: 100>, static_sizes = array<i64: 1>, static_strides = array<i64: 1>}> : (memref<?xf32>) -> memref<1xf32, strided<[1], offset: 100>>
    "hivm.hir.store"(%1092, %1093) : (tensor<1xf32>, memref<1xf32, strided<[1], offset: 100>>) -> ()
    %1094 = "memref.reinterpret_cast"(%arg3) <{operandSegmentSizes = array<i32: 1, 0, 0, 0>, static_offsets = array<i64: 101>, static_sizes = array<i64: 1>, static_strides = array<i64: 1>}> : (memref<?xf32>) -> memref<1xf32, strided<[1], offset: 101>>
    %1095 = "memref.load"(%1094, %0) : (memref<1xf32, strided<[1], offset: 101>>, index) -> f32
    %1096 = "tensor.insert"(%1095, %186, %0) : (f32, tensor<1xf32>, index) -> tensor<1xf32>
    %1097 = "hivm.hir.vmul"(%1096, %1096, %31) <{broadcast = array<i64>, operandSegmentSizes = array<i32: 2, 1, 0>, transpose = array<i64>}> : (tensor<1xf32>, tensor<1xf32>, tensor<1xf32>) -> tensor<1xf32>
    %1098 = "tensor.extract"(%1097, %0) : (tensor<1xf32>, index) -> f32
    %1099 = "tensor.insert"(%1098, %185, %0) : (f32, tensor<1xf32>, index) -> tensor<1xf32>
    %1100 = "memref.reinterpret_cast"(%arg4) <{operandSegmentSizes = array<i32: 1, 0, 0, 0>, static_offsets = array<i64: 101>, static_sizes = array<i64: 1>, static_strides = array<i64: 1>}> : (memref<?xf32>) -> memref<1xf32, strided<[1], offset: 101>>
    "hivm.hir.store"(%1099, %1100) : (tensor<1xf32>, memref<1xf32, strided<[1], offset: 101>>) -> ()
    %1101 = "memref.reinterpret_cast"(%arg3) <{operandSegmentSizes = array<i32: 1, 0, 0, 0>, static_offsets = array<i64: 102>, static_sizes = array<i64: 1>, static_strides = array<i64: 1>}> : (memref<?xf32>) -> memref<1xf32, strided<[1], offset: 102>>
    %1102 = "memref.load"(%1101, %0) : (memref<1xf32, strided<[1], offset: 102>>, index) -> f32
    %1103 = "tensor.insert"(%1102, %184, %0) : (f32, tensor<1xf32>, index) -> tensor<1xf32>
    %1104 = "hivm.hir.vmul"(%1103, %1103, %30) <{broadcast = array<i64>, operandSegmentSizes = array<i32: 2, 1, 0>, transpose = array<i64>}> : (tensor<1xf32>, tensor<1xf32>, tensor<1xf32>) -> tensor<1xf32>
    %1105 = "tensor.extract"(%1104, %0) : (tensor<1xf32>, index) -> f32
    %1106 = "tensor.insert"(%1105, %183, %0) : (f32, tensor<1xf32>, index) -> tensor<1xf32>
    %1107 = "memref.reinterpret_cast"(%arg4) <{operandSegmentSizes = array<i32: 1, 0, 0, 0>, static_offsets = array<i64: 102>, static_sizes = array<i64: 1>, static_strides = array<i64: 1>}> : (memref<?xf32>) -> memref<1xf32, strided<[1], offset: 102>>
    "hivm.hir.store"(%1106, %1107) : (tensor<1xf32>, memref<1xf32, strided<[1], offset: 102>>) -> ()
    %1108 = "memref.reinterpret_cast"(%arg3) <{operandSegmentSizes = array<i32: 1, 0, 0, 0>, static_offsets = array<i64: 103>, static_sizes = array<i64: 1>, static_strides = array<i64: 1>}> : (memref<?xf32>) -> memref<1xf32, strided<[1], offset: 103>>
    %1109 = "memref.load"(%1108, %0) : (memref<1xf32, strided<[1], offset: 103>>, index) -> f32
    %1110 = "tensor.insert"(%1109, %182, %0) : (f32, tensor<1xf32>, index) -> tensor<1xf32>
    %1111 = "hivm.hir.vmul"(%1110, %1110, %29) <{broadcast = array<i64>, operandSegmentSizes = array<i32: 2, 1, 0>, transpose = array<i64>}> : (tensor<1xf32>, tensor<1xf32>, tensor<1xf32>) -> tensor<1xf32>
    %1112 = "tensor.extract"(%1111, %0) : (tensor<1xf32>, index) -> f32
    %1113 = "tensor.insert"(%1112, %181, %0) : (f32, tensor<1xf32>, index) -> tensor<1xf32>
    %1114 = "memref.reinterpret_cast"(%arg4) <{operandSegmentSizes = array<i32: 1, 0, 0, 0>, static_offsets = array<i64: 103>, static_sizes = array<i64: 1>, static_strides = array<i64: 1>}> : (memref<?xf32>) -> memref<1xf32, strided<[1], offset: 103>>
    "hivm.hir.store"(%1113, %1114) : (tensor<1xf32>, memref<1xf32, strided<[1], offset: 103>>) -> ()
    %1115 = "memref.reinterpret_cast"(%arg3) <{operandSegmentSizes = array<i32: 1, 0, 0, 0>, static_offsets = array<i64: 104>, static_sizes = array<i64: 1>, static_strides = array<i64: 1>}> : (memref<?xf32>) -> memref<1xf32, strided<[1], offset: 104>>
    %1116 = "memref.load"(%1115, %0) : (memref<1xf32, strided<[1], offset: 104>>, index) -> f32
    %1117 = "tensor.insert"(%1116, %180, %0) : (f32, tensor<1xf32>, index) -> tensor<1xf32>
    %1118 = "hivm.hir.vmul"(%1117, %1117, %28) <{broadcast = array<i64>, operandSegmentSizes = array<i32: 2, 1, 0>, transpose = array<i64>}> : (tensor<1xf32>, tensor<1xf32>, tensor<1xf32>) -> tensor<1xf32>
    %1119 = "tensor.extract"(%1118, %0) : (tensor<1xf32>, index) -> f32
    %1120 = "tensor.insert"(%1119, %179, %0) : (f32, tensor<1xf32>, index) -> tensor<1xf32>
    %1121 = "memref.reinterpret_cast"(%arg4) <{operandSegmentSizes = array<i32: 1, 0, 0, 0>, static_offsets = array<i64: 104>, static_sizes = array<i64: 1>, static_strides = array<i64: 1>}> : (memref<?xf32>) -> memref<1xf32, strided<[1], offset: 104>>
    "hivm.hir.store"(%1120, %1121) : (tensor<1xf32>, memref<1xf32, strided<[1], offset: 104>>) -> ()
    %1122 = "memref.reinterpret_cast"(%arg3) <{operandSegmentSizes = array<i32: 1, 0, 0, 0>, static_offsets = array<i64: 105>, static_sizes = array<i64: 1>, static_strides = array<i64: 1>}> : (memref<?xf32>) -> memref<1xf32, strided<[1], offset: 105>>
    %1123 = "memref.load"(%1122, %0) : (memref<1xf32, strided<[1], offset: 105>>, index) -> f32
    %1124 = "tensor.insert"(%1123, %178, %0) : (f32, tensor<1xf32>, index) -> tensor<1xf32>
    %1125 = "hivm.hir.vmul"(%1124, %1124, %27) <{broadcast = array<i64>, operandSegmentSizes = array<i32: 2, 1, 0>, transpose = array<i64>}> : (tensor<1xf32>, tensor<1xf32>, tensor<1xf32>) -> tensor<1xf32>
    %1126 = "tensor.extract"(%1125, %0) : (tensor<1xf32>, index) -> f32
    %1127 = "tensor.insert"(%1126, %177, %0) : (f32, tensor<1xf32>, index) -> tensor<1xf32>
    %1128 = "memref.reinterpret_cast"(%arg4) <{operandSegmentSizes = array<i32: 1, 0, 0, 0>, static_offsets = array<i64: 105>, static_sizes = array<i64: 1>, static_strides = array<i64: 1>}> : (memref<?xf32>) -> memref<1xf32, strided<[1], offset: 105>>
    "hivm.hir.store"(%1127, %1128) : (tensor<1xf32>, memref<1xf32, strided<[1], offset: 105>>) -> ()
    %1129 = "memref.reinterpret_cast"(%arg3) <{operandSegmentSizes = array<i32: 1, 0, 0, 0>, static_offsets = array<i64: 106>, static_sizes = array<i64: 1>, static_strides = array<i64: 1>}> : (memref<?xf32>) -> memref<1xf32, strided<[1], offset: 106>>
    %1130 = "memref.load"(%1129, %0) : (memref<1xf32, strided<[1], offset: 106>>, index) -> f32
    %1131 = "tensor.insert"(%1130, %176, %0) : (f32, tensor<1xf32>, index) -> tensor<1xf32>
    %1132 = "hivm.hir.vmul"(%1131, %1131, %26) <{broadcast = array<i64>, operandSegmentSizes = array<i32: 2, 1, 0>, transpose = array<i64>}> : (tensor<1xf32>, tensor<1xf32>, tensor<1xf32>) -> tensor<1xf32>
    %1133 = "tensor.extract"(%1132, %0) : (tensor<1xf32>, index) -> f32
    %1134 = "tensor.insert"(%1133, %175, %0) : (f32, tensor<1xf32>, index) -> tensor<1xf32>
    %1135 = "memref.reinterpret_cast"(%arg4) <{operandSegmentSizes = array<i32: 1, 0, 0, 0>, static_offsets = array<i64: 106>, static_sizes = array<i64: 1>, static_strides = array<i64: 1>}> : (memref<?xf32>) -> memref<1xf32, strided<[1], offset: 106>>
    "hivm.hir.store"(%1134, %1135) : (tensor<1xf32>, memref<1xf32, strided<[1], offset: 106>>) -> ()
    %1136 = "memref.reinterpret_cast"(%arg3) <{operandSegmentSizes = array<i32: 1, 0, 0, 0>, static_offsets = array<i64: 107>, static_sizes = array<i64: 1>, static_strides = array<i64: 1>}> : (memref<?xf32>) -> memref<1xf32, strided<[1], offset: 107>>
    %1137 = "memref.load"(%1136, %0) : (memref<1xf32, strided<[1], offset: 107>>, index) -> f32
    %1138 = "tensor.insert"(%1137, %174, %0) : (f32, tensor<1xf32>, index) -> tensor<1xf32>
    %1139 = "hivm.hir.vmul"(%1138, %1138, %25) <{broadcast = array<i64>, operandSegmentSizes = array<i32: 2, 1, 0>, transpose = array<i64>}> : (tensor<1xf32>, tensor<1xf32>, tensor<1xf32>) -> tensor<1xf32>
    %1140 = "tensor.extract"(%1139, %0) : (tensor<1xf32>, index) -> f32
    %1141 = "tensor.insert"(%1140, %173, %0) : (f32, tensor<1xf32>, index) -> tensor<1xf32>
    %1142 = "memref.reinterpret_cast"(%arg4) <{operandSegmentSizes = array<i32: 1, 0, 0, 0>, static_offsets = array<i64: 107>, static_sizes = array<i64: 1>, static_strides = array<i64: 1>}> : (memref<?xf32>) -> memref<1xf32, strided<[1], offset: 107>>
    "hivm.hir.store"(%1141, %1142) : (tensor<1xf32>, memref<1xf32, strided<[1], offset: 107>>) -> ()
    %1143 = "memref.reinterpret_cast"(%arg3) <{operandSegmentSizes = array<i32: 1, 0, 0, 0>, static_offsets = array<i64: 108>, static_sizes = array<i64: 1>, static_strides = array<i64: 1>}> : (memref<?xf32>) -> memref<1xf32, strided<[1], offset: 108>>
    %1144 = "memref.load"(%1143, %0) : (memref<1xf32, strided<[1], offset: 108>>, index) -> f32
    %1145 = "tensor.insert"(%1144, %172, %0) : (f32, tensor<1xf32>, index) -> tensor<1xf32>
    %1146 = "hivm.hir.vmul"(%1145, %1145, %24) <{broadcast = array<i64>, operandSegmentSizes = array<i32: 2, 1, 0>, transpose = array<i64>}> : (tensor<1xf32>, tensor<1xf32>, tensor<1xf32>) -> tensor<1xf32>
    %1147 = "tensor.extract"(%1146, %0) : (tensor<1xf32>, index) -> f32
    %1148 = "tensor.insert"(%1147, %171, %0) : (f32, tensor<1xf32>, index) -> tensor<1xf32>
    %1149 = "memref.reinterpret_cast"(%arg4) <{operandSegmentSizes = array<i32: 1, 0, 0, 0>, static_offsets = array<i64: 108>, static_sizes = array<i64: 1>, static_strides = array<i64: 1>}> : (memref<?xf32>) -> memref<1xf32, strided<[1], offset: 108>>
    "hivm.hir.store"(%1148, %1149) : (tensor<1xf32>, memref<1xf32, strided<[1], offset: 108>>) -> ()
    %1150 = "memref.reinterpret_cast"(%arg3) <{operandSegmentSizes = array<i32: 1, 0, 0, 0>, static_offsets = array<i64: 109>, static_sizes = array<i64: 1>, static_strides = array<i64: 1>}> : (memref<?xf32>) -> memref<1xf32, strided<[1], offset: 109>>
    %1151 = "memref.load"(%1150, %0) : (memref<1xf32, strided<[1], offset: 109>>, index) -> f32
    %1152 = "tensor.insert"(%1151, %170, %0) : (f32, tensor<1xf32>, index) -> tensor<1xf32>
    %1153 = "hivm.hir.vmul"(%1152, %1152, %23) <{broadcast = array<i64>, operandSegmentSizes = array<i32: 2, 1, 0>, transpose = array<i64>}> : (tensor<1xf32>, tensor<1xf32>, tensor<1xf32>) -> tensor<1xf32>
    %1154 = "tensor.extract"(%1153, %0) : (tensor<1xf32>, index) -> f32
    %1155 = "tensor.insert"(%1154, %169, %0) : (f32, tensor<1xf32>, index) -> tensor<1xf32>
    %1156 = "memref.reinterpret_cast"(%arg4) <{operandSegmentSizes = array<i32: 1, 0, 0, 0>, static_offsets = array<i64: 109>, static_sizes = array<i64: 1>, static_strides = array<i64: 1>}> : (memref<?xf32>) -> memref<1xf32, strided<[1], offset: 109>>
    "hivm.hir.store"(%1155, %1156) : (tensor<1xf32>, memref<1xf32, strided<[1], offset: 109>>) -> ()
    %1157 = "memref.reinterpret_cast"(%arg3) <{operandSegmentSizes = array<i32: 1, 0, 0, 0>, static_offsets = array<i64: 110>, static_sizes = array<i64: 1>, static_strides = array<i64: 1>}> : (memref<?xf32>) -> memref<1xf32, strided<[1], offset: 110>>
    %1158 = "memref.load"(%1157, %0) : (memref<1xf32, strided<[1], offset: 110>>, index) -> f32
    %1159 = "tensor.insert"(%1158, %168, %0) : (f32, tensor<1xf32>, index) -> tensor<1xf32>
    %1160 = "hivm.hir.vmul"(%1159, %1159, %22) <{broadcast = array<i64>, operandSegmentSizes = array<i32: 2, 1, 0>, transpose = array<i64>}> : (tensor<1xf32>, tensor<1xf32>, tensor<1xf32>) -> tensor<1xf32>
    %1161 = "tensor.extract"(%1160, %0) : (tensor<1xf32>, index) -> f32
    %1162 = "tensor.insert"(%1161, %167, %0) : (f32, tensor<1xf32>, index) -> tensor<1xf32>
    %1163 = "memref.reinterpret_cast"(%arg4) <{operandSegmentSizes = array<i32: 1, 0, 0, 0>, static_offsets = array<i64: 110>, static_sizes = array<i64: 1>, static_strides = array<i64: 1>}> : (memref<?xf32>) -> memref<1xf32, strided<[1], offset: 110>>
    "hivm.hir.store"(%1162, %1163) : (tensor<1xf32>, memref<1xf32, strided<[1], offset: 110>>) -> ()
    %1164 = "memref.reinterpret_cast"(%arg3) <{operandSegmentSizes = array<i32: 1, 0, 0, 0>, static_offsets = array<i64: 111>, static_sizes = array<i64: 1>, static_strides = array<i64: 1>}> : (memref<?xf32>) -> memref<1xf32, strided<[1], offset: 111>>
    %1165 = "memref.load"(%1164, %0) : (memref<1xf32, strided<[1], offset: 111>>, index) -> f32
    %1166 = "tensor.insert"(%1165, %166, %0) : (f32, tensor<1xf32>, index) -> tensor<1xf32>
    %1167 = "hivm.hir.vmul"(%1166, %1166, %21) <{broadcast = array<i64>, operandSegmentSizes = array<i32: 2, 1, 0>, transpose = array<i64>}> : (tensor<1xf32>, tensor<1xf32>, tensor<1xf32>) -> tensor<1xf32>
    %1168 = "tensor.extract"(%1167, %0) : (tensor<1xf32>, index) -> f32
    %1169 = "tensor.insert"(%1168, %165, %0) : (f32, tensor<1xf32>, index) -> tensor<1xf32>
    %1170 = "memref.reinterpret_cast"(%arg4) <{operandSegmentSizes = array<i32: 1, 0, 0, 0>, static_offsets = array<i64: 111>, static_sizes = array<i64: 1>, static_strides = array<i64: 1>}> : (memref<?xf32>) -> memref<1xf32, strided<[1], offset: 111>>
    "hivm.hir.store"(%1169, %1170) : (tensor<1xf32>, memref<1xf32, strided<[1], offset: 111>>) -> ()
    %1171 = "memref.reinterpret_cast"(%arg3) <{operandSegmentSizes = array<i32: 1, 0, 0, 0>, static_offsets = array<i64: 112>, static_sizes = array<i64: 1>, static_strides = array<i64: 1>}> : (memref<?xf32>) -> memref<1xf32, strided<[1], offset: 112>>
    %1172 = "memref.load"(%1171, %0) : (memref<1xf32, strided<[1], offset: 112>>, index) -> f32
    %1173 = "tensor.insert"(%1172, %164, %0) : (f32, tensor<1xf32>, index) -> tensor<1xf32>
    %1174 = "hivm.hir.vmul"(%1173, %1173, %20) <{broadcast = array<i64>, operandSegmentSizes = array<i32: 2, 1, 0>, transpose = array<i64>}> : (tensor<1xf32>, tensor<1xf32>, tensor<1xf32>) -> tensor<1xf32>
    %1175 = "tensor.extract"(%1174, %0) : (tensor<1xf32>, index) -> f32
    %1176 = "tensor.insert"(%1175, %163, %0) : (f32, tensor<1xf32>, index) -> tensor<1xf32>
    %1177 = "memref.reinterpret_cast"(%arg4) <{operandSegmentSizes = array<i32: 1, 0, 0, 0>, static_offsets = array<i64: 112>, static_sizes = array<i64: 1>, static_strides = array<i64: 1>}> : (memref<?xf32>) -> memref<1xf32, strided<[1], offset: 112>>
    "hivm.hir.store"(%1176, %1177) : (tensor<1xf32>, memref<1xf32, strided<[1], offset: 112>>) -> ()
    %1178 = "memref.reinterpret_cast"(%arg3) <{operandSegmentSizes = array<i32: 1, 0, 0, 0>, static_offsets = array<i64: 113>, static_sizes = array<i64: 1>, static_strides = array<i64: 1>}> : (memref<?xf32>) -> memref<1xf32, strided<[1], offset: 113>>
    %1179 = "memref.load"(%1178, %0) : (memref<1xf32, strided<[1], offset: 113>>, index) -> f32
    %1180 = "tensor.insert"(%1179, %162, %0) : (f32, tensor<1xf32>, index) -> tensor<1xf32>
    %1181 = "hivm.hir.vmul"(%1180, %1180, %19) <{broadcast = array<i64>, operandSegmentSizes = array<i32: 2, 1, 0>, transpose = array<i64>}> : (tensor<1xf32>, tensor<1xf32>, tensor<1xf32>) -> tensor<1xf32>
    %1182 = "tensor.extract"(%1181, %0) : (tensor<1xf32>, index) -> f32
    %1183 = "tensor.insert"(%1182, %161, %0) : (f32, tensor<1xf32>, index) -> tensor<1xf32>
    %1184 = "memref.reinterpret_cast"(%arg4) <{operandSegmentSizes = array<i32: 1, 0, 0, 0>, static_offsets = array<i64: 113>, static_sizes = array<i64: 1>, static_strides = array<i64: 1>}> : (memref<?xf32>) -> memref<1xf32, strided<[1], offset: 113>>
    "hivm.hir.store"(%1183, %1184) : (tensor<1xf32>, memref<1xf32, strided<[1], offset: 113>>) -> ()
    %1185 = "memref.reinterpret_cast"(%arg3) <{operandSegmentSizes = array<i32: 1, 0, 0, 0>, static_offsets = array<i64: 114>, static_sizes = array<i64: 1>, static_strides = array<i64: 1>}> : (memref<?xf32>) -> memref<1xf32, strided<[1], offset: 114>>
    %1186 = "memref.load"(%1185, %0) : (memref<1xf32, strided<[1], offset: 114>>, index) -> f32
    %1187 = "tensor.insert"(%1186, %160, %0) : (f32, tensor<1xf32>, index) -> tensor<1xf32>
    %1188 = "hivm.hir.vmul"(%1187, %1187, %18) <{broadcast = array<i64>, operandSegmentSizes = array<i32: 2, 1, 0>, transpose = array<i64>}> : (tensor<1xf32>, tensor<1xf32>, tensor<1xf32>) -> tensor<1xf32>
    %1189 = "tensor.extract"(%1188, %0) : (tensor<1xf32>, index) -> f32
    %1190 = "tensor.insert"(%1189, %159, %0) : (f32, tensor<1xf32>, index) -> tensor<1xf32>
    %1191 = "memref.reinterpret_cast"(%arg4) <{operandSegmentSizes = array<i32: 1, 0, 0, 0>, static_offsets = array<i64: 114>, static_sizes = array<i64: 1>, static_strides = array<i64: 1>}> : (memref<?xf32>) -> memref<1xf32, strided<[1], offset: 114>>
    "hivm.hir.store"(%1190, %1191) : (tensor<1xf32>, memref<1xf32, strided<[1], offset: 114>>) -> ()
    %1192 = "memref.reinterpret_cast"(%arg3) <{operandSegmentSizes = array<i32: 1, 0, 0, 0>, static_offsets = array<i64: 115>, static_sizes = array<i64: 1>, static_strides = array<i64: 1>}> : (memref<?xf32>) -> memref<1xf32, strided<[1], offset: 115>>
    %1193 = "memref.load"(%1192, %0) : (memref<1xf32, strided<[1], offset: 115>>, index) -> f32
    %1194 = "tensor.insert"(%1193, %158, %0) : (f32, tensor<1xf32>, index) -> tensor<1xf32>
    %1195 = "hivm.hir.vmul"(%1194, %1194, %17) <{broadcast = array<i64>, operandSegmentSizes = array<i32: 2, 1, 0>, transpose = array<i64>}> : (tensor<1xf32>, tensor<1xf32>, tensor<1xf32>) -> tensor<1xf32>
    %1196 = "tensor.extract"(%1195, %0) : (tensor<1xf32>, index) -> f32
    %1197 = "tensor.insert"(%1196, %157, %0) : (f32, tensor<1xf32>, index) -> tensor<1xf32>
    %1198 = "memref.reinterpret_cast"(%arg4) <{operandSegmentSizes = array<i32: 1, 0, 0, 0>, static_offsets = array<i64: 115>, static_sizes = array<i64: 1>, static_strides = array<i64: 1>}> : (memref<?xf32>) -> memref<1xf32, strided<[1], offset: 115>>
    "hivm.hir.store"(%1197, %1198) : (tensor<1xf32>, memref<1xf32, strided<[1], offset: 115>>) -> ()
    %1199 = "memref.reinterpret_cast"(%arg3) <{operandSegmentSizes = array<i32: 1, 0, 0, 0>, static_offsets = array<i64: 116>, static_sizes = array<i64: 1>, static_strides = array<i64: 1>}> : (memref<?xf32>) -> memref<1xf32, strided<[1], offset: 116>>
    %1200 = "memref.load"(%1199, %0) : (memref<1xf32, strided<[1], offset: 116>>, index) -> f32
    %1201 = "tensor.insert"(%1200, %156, %0) : (f32, tensor<1xf32>, index) -> tensor<1xf32>
    %1202 = "hivm.hir.vmul"(%1201, %1201, %16) <{broadcast = array<i64>, operandSegmentSizes = array<i32: 2, 1, 0>, transpose = array<i64>}> : (tensor<1xf32>, tensor<1xf32>, tensor<1xf32>) -> tensor<1xf32>
    %1203 = "tensor.extract"(%1202, %0) : (tensor<1xf32>, index) -> f32
    %1204 = "tensor.insert"(%1203, %155, %0) : (f32, tensor<1xf32>, index) -> tensor<1xf32>
    %1205 = "memref.reinterpret_cast"(%arg4) <{operandSegmentSizes = array<i32: 1, 0, 0, 0>, static_offsets = array<i64: 116>, static_sizes = array<i64: 1>, static_strides = array<i64: 1>}> : (memref<?xf32>) -> memref<1xf32, strided<[1], offset: 116>>
    "hivm.hir.store"(%1204, %1205) : (tensor<1xf32>, memref<1xf32, strided<[1], offset: 116>>) -> ()
    %1206 = "memref.reinterpret_cast"(%arg3) <{operandSegmentSizes = array<i32: 1, 0, 0, 0>, static_offsets = array<i64: 117>, static_sizes = array<i64: 1>, static_strides = array<i64: 1>}> : (memref<?xf32>) -> memref<1xf32, strided<[1], offset: 117>>
    %1207 = "memref.load"(%1206, %0) : (memref<1xf32, strided<[1], offset: 117>>, index) -> f32
    %1208 = "tensor.insert"(%1207, %154, %0) : (f32, tensor<1xf32>, index) -> tensor<1xf32>
    %1209 = "hivm.hir.vmul"(%1208, %1208, %15) <{broadcast = array<i64>, operandSegmentSizes = array<i32: 2, 1, 0>, transpose = array<i64>}> : (tensor<1xf32>, tensor<1xf32>, tensor<1xf32>) -> tensor<1xf32>
    %1210 = "tensor.extract"(%1209, %0) : (tensor<1xf32>, index) -> f32
    %1211 = "tensor.insert"(%1210, %153, %0) : (f32, tensor<1xf32>, index) -> tensor<1xf32>
    %1212 = "memref.reinterpret_cast"(%arg4) <{operandSegmentSizes = array<i32: 1, 0, 0, 0>, static_offsets = array<i64: 117>, static_sizes = array<i64: 1>, static_strides = array<i64: 1>}> : (memref<?xf32>) -> memref<1xf32, strided<[1], offset: 117>>
    "hivm.hir.store"(%1211, %1212) : (tensor<1xf32>, memref<1xf32, strided<[1], offset: 117>>) -> ()
    %1213 = "memref.reinterpret_cast"(%arg3) <{operandSegmentSizes = array<i32: 1, 0, 0, 0>, static_offsets = array<i64: 118>, static_sizes = array<i64: 1>, static_strides = array<i64: 1>}> : (memref<?xf32>) -> memref<1xf32, strided<[1], offset: 118>>
    %1214 = "memref.load"(%1213, %0) : (memref<1xf32, strided<[1], offset: 118>>, index) -> f32
    %1215 = "tensor.insert"(%1214, %152, %0) : (f32, tensor<1xf32>, index) -> tensor<1xf32>
    %1216 = "hivm.hir.vmul"(%1215, %1215, %14) <{broadcast = array<i64>, operandSegmentSizes = array<i32: 2, 1, 0>, transpose = array<i64>}> : (tensor<1xf32>, tensor<1xf32>, tensor<1xf32>) -> tensor<1xf32>
    %1217 = "tensor.extract"(%1216, %0) : (tensor<1xf32>, index) -> f32
    %1218 = "tensor.insert"(%1217, %151, %0) : (f32, tensor<1xf32>, index) -> tensor<1xf32>
    %1219 = "memref.reinterpret_cast"(%arg4) <{operandSegmentSizes = array<i32: 1, 0, 0, 0>, static_offsets = array<i64: 118>, static_sizes = array<i64: 1>, static_strides = array<i64: 1>}> : (memref<?xf32>) -> memref<1xf32, strided<[1], offset: 118>>
    "hivm.hir.store"(%1218, %1219) : (tensor<1xf32>, memref<1xf32, strided<[1], offset: 118>>) -> ()
    %1220 = "memref.reinterpret_cast"(%arg3) <{operandSegmentSizes = array<i32: 1, 0, 0, 0>, static_offsets = array<i64: 119>, static_sizes = array<i64: 1>, static_strides = array<i64: 1>}> : (memref<?xf32>) -> memref<1xf32, strided<[1], offset: 119>>
    %1221 = "memref.load"(%1220, %0) : (memref<1xf32, strided<[1], offset: 119>>, index) -> f32
    %1222 = "tensor.insert"(%1221, %150, %0) : (f32, tensor<1xf32>, index) -> tensor<1xf32>
    %1223 = "hivm.hir.vmul"(%1222, %1222, %13) <{broadcast = array<i64>, operandSegmentSizes = array<i32: 2, 1, 0>, transpose = array<i64>}> : (tensor<1xf32>, tensor<1xf32>, tensor<1xf32>) -> tensor<1xf32>
    %1224 = "tensor.extract"(%1223, %0) : (tensor<1xf32>, index) -> f32
    %1225 = "tensor.insert"(%1224, %149, %0) : (f32, tensor<1xf32>, index) -> tensor<1xf32>
    %1226 = "memref.reinterpret_cast"(%arg4) <{operandSegmentSizes = array<i32: 1, 0, 0, 0>, static_offsets = array<i64: 119>, static_sizes = array<i64: 1>, static_strides = array<i64: 1>}> : (memref<?xf32>) -> memref<1xf32, strided<[1], offset: 119>>
    "hivm.hir.store"(%1225, %1226) : (tensor<1xf32>, memref<1xf32, strided<[1], offset: 119>>) -> ()
    %1227 = "memref.reinterpret_cast"(%arg3) <{operandSegmentSizes = array<i32: 1, 0, 0, 0>, static_offsets = array<i64: 120>, static_sizes = array<i64: 1>, static_strides = array<i64: 1>}> : (memref<?xf32>) -> memref<1xf32, strided<[1], offset: 120>>
    %1228 = "memref.load"(%1227, %0) : (memref<1xf32, strided<[1], offset: 120>>, index) -> f32
    %1229 = "tensor.insert"(%1228, %148, %0) : (f32, tensor<1xf32>, index) -> tensor<1xf32>
    %1230 = "hivm.hir.vmul"(%1229, %1229, %12) <{broadcast = array<i64>, operandSegmentSizes = array<i32: 2, 1, 0>, transpose = array<i64>}> : (tensor<1xf32>, tensor<1xf32>, tensor<1xf32>) -> tensor<1xf32>
    %1231 = "tensor.extract"(%1230, %0) : (tensor<1xf32>, index) -> f32
    %1232 = "tensor.insert"(%1231, %147, %0) : (f32, tensor<1xf32>, index) -> tensor<1xf32>
    %1233 = "memref.reinterpret_cast"(%arg4) <{operandSegmentSizes = array<i32: 1, 0, 0, 0>, static_offsets = array<i64: 120>, static_sizes = array<i64: 1>, static_strides = array<i64: 1>}> : (memref<?xf32>) -> memref<1xf32, strided<[1], offset: 120>>
    "hivm.hir.store"(%1232, %1233) : (tensor<1xf32>, memref<1xf32, strided<[1], offset: 120>>) -> ()
    %1234 = "memref.reinterpret_cast"(%arg3) <{operandSegmentSizes = array<i32: 1, 0, 0, 0>, static_offsets = array<i64: 121>, static_sizes = array<i64: 1>, static_strides = array<i64: 1>}> : (memref<?xf32>) -> memref<1xf32, strided<[1], offset: 121>>
    %1235 = "memref.load"(%1234, %0) : (memref<1xf32, strided<[1], offset: 121>>, index) -> f32
    %1236 = "tensor.insert"(%1235, %146, %0) : (f32, tensor<1xf32>, index) -> tensor<1xf32>
    %1237 = "hivm.hir.vmul"(%1236, %1236, %11) <{broadcast = array<i64>, operandSegmentSizes = array<i32: 2, 1, 0>, transpose = array<i64>}> : (tensor<1xf32>, tensor<1xf32>, tensor<1xf32>) -> tensor<1xf32>
    %1238 = "tensor.extract"(%1237, %0) : (tensor<1xf32>, index) -> f32
    %1239 = "tensor.insert"(%1238, %145, %0) : (f32, tensor<1xf32>, index) -> tensor<1xf32>
    %1240 = "memref.reinterpret_cast"(%arg4) <{operandSegmentSizes = array<i32: 1, 0, 0, 0>, static_offsets = array<i64: 121>, static_sizes = array<i64: 1>, static_strides = array<i64: 1>}> : (memref<?xf32>) -> memref<1xf32, strided<[1], offset: 121>>
    "hivm.hir.store"(%1239, %1240) : (tensor<1xf32>, memref<1xf32, strided<[1], offset: 121>>) -> ()
    %1241 = "memref.reinterpret_cast"(%arg3) <{operandSegmentSizes = array<i32: 1, 0, 0, 0>, static_offsets = array<i64: 122>, static_sizes = array<i64: 1>, static_strides = array<i64: 1>}> : (memref<?xf32>) -> memref<1xf32, strided<[1], offset: 122>>
    %1242 = "memref.load"(%1241, %0) : (memref<1xf32, strided<[1], offset: 122>>, index) -> f32
    %1243 = "tensor.insert"(%1242, %144, %0) : (f32, tensor<1xf32>, index) -> tensor<1xf32>
    %1244 = "hivm.hir.vmul"(%1243, %1243, %10) <{broadcast = array<i64>, operandSegmentSizes = array<i32: 2, 1, 0>, transpose = array<i64>}> : (tensor<1xf32>, tensor<1xf32>, tensor<1xf32>) -> tensor<1xf32>
    %1245 = "tensor.extract"(%1244, %0) : (tensor<1xf32>, index) -> f32
    %1246 = "tensor.insert"(%1245, %143, %0) : (f32, tensor<1xf32>, index) -> tensor<1xf32>
    %1247 = "memref.reinterpret_cast"(%arg4) <{operandSegmentSizes = array<i32: 1, 0, 0, 0>, static_offsets = array<i64: 122>, static_sizes = array<i64: 1>, static_strides = array<i64: 1>}> : (memref<?xf32>) -> memref<1xf32, strided<[1], offset: 122>>
    "hivm.hir.store"(%1246, %1247) : (tensor<1xf32>, memref<1xf32, strided<[1], offset: 122>>) -> ()
    %1248 = "memref.reinterpret_cast"(%arg3) <{operandSegmentSizes = array<i32: 1, 0, 0, 0>, static_offsets = array<i64: 123>, static_sizes = array<i64: 1>, static_strides = array<i64: 1>}> : (memref<?xf32>) -> memref<1xf32, strided<[1], offset: 123>>
    %1249 = "memref.load"(%1248, %0) : (memref<1xf32, strided<[1], offset: 123>>, index) -> f32
    %1250 = "tensor.insert"(%1249, %142, %0) : (f32, tensor<1xf32>, index) -> tensor<1xf32>
    %1251 = "hivm.hir.vmul"(%1250, %1250, %9) <{broadcast = array<i64>, operandSegmentSizes = array<i32: 2, 1, 0>, transpose = array<i64>}> : (tensor<1xf32>, tensor<1xf32>, tensor<1xf32>) -> tensor<1xf32>
    %1252 = "tensor.extract"(%1251, %0) : (tensor<1xf32>, index) -> f32
    %1253 = "tensor.insert"(%1252, %141, %0) : (f32, tensor<1xf32>, index) -> tensor<1xf32>
    %1254 = "memref.reinterpret_cast"(%arg4) <{operandSegmentSizes = array<i32: 1, 0, 0, 0>, static_offsets = array<i64: 123>, static_sizes = array<i64: 1>, static_strides = array<i64: 1>}> : (memref<?xf32>) -> memref<1xf32, strided<[1], offset: 123>>
    "hivm.hir.store"(%1253, %1254) : (tensor<1xf32>, memref<1xf32, strided<[1], offset: 123>>) -> ()
    %1255 = "memref.reinterpret_cast"(%arg3) <{operandSegmentSizes = array<i32: 1, 0, 0, 0>, static_offsets = array<i64: 124>, static_sizes = array<i64: 1>, static_strides = array<i64: 1>}> : (memref<?xf32>) -> memref<1xf32, strided<[1], offset: 124>>
    %1256 = "memref.load"(%1255, %0) : (memref<1xf32, strided<[1], offset: 124>>, index) -> f32
    %1257 = "tensor.insert"(%1256, %140, %0) : (f32, tensor<1xf32>, index) -> tensor<1xf32>
    %1258 = "hivm.hir.vmul"(%1257, %1257, %8) <{broadcast = array<i64>, operandSegmentSizes = array<i32: 2, 1, 0>, transpose = array<i64>}> : (tensor<1xf32>, tensor<1xf32>, tensor<1xf32>) -> tensor<1xf32>
    %1259 = "tensor.extract"(%1258, %0) : (tensor<1xf32>, index) -> f32
    %1260 = "tensor.insert"(%1259, %139, %0) : (f32, tensor<1xf32>, index) -> tensor<1xf32>
    %1261 = "memref.reinterpret_cast"(%arg4) <{operandSegmentSizes = array<i32: 1, 0, 0, 0>, static_offsets = array<i64: 124>, static_sizes = array<i64: 1>, static_strides = array<i64: 1>}> : (memref<?xf32>) -> memref<1xf32, strided<[1], offset: 124>>
    "hivm.hir.store"(%1260, %1261) : (tensor<1xf32>, memref<1xf32, strided<[1], offset: 124>>) -> ()
    %1262 = "memref.reinterpret_cast"(%arg3) <{operandSegmentSizes = array<i32: 1, 0, 0, 0>, static_offsets = array<i64: 125>, static_sizes = array<i64: 1>, static_strides = array<i64: 1>}> : (memref<?xf32>) -> memref<1xf32, strided<[1], offset: 125>>
    %1263 = "memref.load"(%1262, %0) : (memref<1xf32, strided<[1], offset: 125>>, index) -> f32
    %1264 = "tensor.insert"(%1263, %138, %0) : (f32, tensor<1xf32>, index) -> tensor<1xf32>
    %1265 = "hivm.hir.vmul"(%1264, %1264, %7) <{broadcast = array<i64>, operandSegmentSizes = array<i32: 2, 1, 0>, transpose = array<i64>}> : (tensor<1xf32>, tensor<1xf32>, tensor<1xf32>) -> tensor<1xf32>
    %1266 = "tensor.extract"(%1265, %0) : (tensor<1xf32>, index) -> f32
    %1267 = "tensor.insert"(%1266, %137, %0) : (f32, tensor<1xf32>, index) -> tensor<1xf32>
    %1268 = "memref.reinterpret_cast"(%arg4) <{operandSegmentSizes = array<i32: 1, 0, 0, 0>, static_offsets = array<i64: 125>, static_sizes = array<i64: 1>, static_strides = array<i64: 1>}> : (memref<?xf32>) -> memref<1xf32, strided<[1], offset: 125>>
    "hivm.hir.store"(%1267, %1268) : (tensor<1xf32>, memref<1xf32, strided<[1], offset: 125>>) -> ()
    %1269 = "memref.reinterpret_cast"(%arg3) <{operandSegmentSizes = array<i32: 1, 0, 0, 0>, static_offsets = array<i64: 126>, static_sizes = array<i64: 1>, static_strides = array<i64: 1>}> : (memref<?xf32>) -> memref<1xf32, strided<[1], offset: 126>>
    %1270 = "memref.load"(%1269, %0) : (memref<1xf32, strided<[1], offset: 126>>, index) -> f32
    %1271 = "tensor.insert"(%1270, %136, %0) : (f32, tensor<1xf32>, index) -> tensor<1xf32>
    %1272 = "hivm.hir.vmul"(%1271, %1271, %6) <{broadcast = array<i64>, operandSegmentSizes = array<i32: 2, 1, 0>, transpose = array<i64>}> : (tensor<1xf32>, tensor<1xf32>, tensor<1xf32>) -> tensor<1xf32>
    %1273 = "tensor.extract"(%1272, %0) : (tensor<1xf32>, index) -> f32
    %1274 = "tensor.insert"(%1273, %135, %0) : (f32, tensor<1xf32>, index) -> tensor<1xf32>
    %1275 = "memref.reinterpret_cast"(%arg4) <{operandSegmentSizes = array<i32: 1, 0, 0, 0>, static_offsets = array<i64: 126>, static_sizes = array<i64: 1>, static_strides = array<i64: 1>}> : (memref<?xf32>) -> memref<1xf32, strided<[1], offset: 126>>
    "hivm.hir.store"(%1274, %1275) : (tensor<1xf32>, memref<1xf32, strided<[1], offset: 126>>) -> ()
    %1276 = "memref.reinterpret_cast"(%arg3) <{operandSegmentSizes = array<i32: 1, 0, 0, 0>, static_offsets = array<i64: 127>, static_sizes = array<i64: 1>, static_strides = array<i64: 1>}> : (memref<?xf32>) -> memref<1xf32, strided<[1], offset: 127>>
    %1277 = "memref.load"(%1276, %0) : (memref<1xf32, strided<[1], offset: 127>>, index) -> f32
    %1278 = "tensor.insert"(%1277, %134, %0) : (f32, tensor<1xf32>, index) -> tensor<1xf32>
    %1279 = "hivm.hir.vmul"(%1278, %1278, %5) <{broadcast = array<i64>, operandSegmentSizes = array<i32: 2, 1, 0>, transpose = array<i64>}> : (tensor<1xf32>, tensor<1xf32>, tensor<1xf32>) -> tensor<1xf32>
    %1280 = "tensor.extract"(%1279, %0) : (tensor<1xf32>, index) -> f32
    %1281 = "tensor.insert"(%1280, %133, %0) : (f32, tensor<1xf32>, index) -> tensor<1xf32>
    %1282 = "memref.reinterpret_cast"(%arg4) <{operandSegmentSizes = array<i32: 1, 0, 0, 0>, static_offsets = array<i64: 127>, static_sizes = array<i64: 1>, static_strides = array<i64: 1>}> : (memref<?xf32>) -> memref<1xf32, strided<[1], offset: 127>>
    "hivm.hir.store"(%1281, %1282) : (tensor<1xf32>, memref<1xf32, strided<[1], offset: 127>>) -> ()
    "func.return"() : () -> ()
  }) {SyncBlockLockArgIdx = 0 : i64, WorkspaceArgIdx = 1 : i64, func_dyn_memref_args = dense<[false, true, true, true, true, false, false, false]> : vector<8xi1>, hacc.entry, hacc.function_kind = #hacc.function_kind<DEVICE>, hivm.func_core_type = #hivm.func_core_type<AIV>, mix_mode = "aiv", parallel_mode = "simd"} : () -> ()
}) {dlti.target_system_spec = #dlti.target_system_spec<"NPU" : #hacc.target_device_spec<#dlti.dl_entry<"AI_CORE_COUNT", 24 : i32>, #dlti.dl_entry<"CUBE_CORE_COUNT", 24 : i32>, #dlti.dl_entry<"VECTOR_CORE_COUNT", 48 : i32>, #dlti.dl_entry<"UB_SIZE", 1572864 : i32>, #dlti.dl_entry<"L1_SIZE", 4194304 : i32>, #dlti.dl_entry<"L0A_SIZE", 524288 : i32>, #dlti.dl_entry<"L0B_SIZE", 524288 : i32>, #dlti.dl_entry<"L0C_SIZE", 1048576 : i32>, #dlti.dl_entry<"UB_ALIGN_SIZE", 256 : i32>, #dlti.dl_entry<"L1_ALIGN_SIZE", 256 : i32>, #dlti.dl_entry<"L0C_ALIGN_SIZE", 4096 : i32>>>, hacc.hivmc_compatible_print = false, hacc.hivmc_version = #hacc.hivmc_version<"0.0.0">, hivm.module_core_type = #hivm.module_core_type<AIV>} : () -> ()

