#loc = loc("/home/CI/20260328160451/triton_ascend/test/flaggems_operator_cases/repo/src/flag_gems/ops/attention.py":152:0)
#loc2 = loc("/home/CI/20260328160451/triton_ascend/test/flaggems_operator_cases/repo/src/flag_gems/ops/attention.py":293:12)
#loc7 = loc("/root/miniconda3/envs/python3.11/lib/python3.11/site-packages/triton/language/standard.py":193:44)
#loc8 = loc("/home/CI/20260328160451/triton_ascend/test/flaggems_operator_cases/repo/src/flag_gems/ops/attention.py":100:46)
#loc9 = loc("/root/miniconda3/envs/python3.11/lib/python3.11/site-packages/triton/language/standard.py":282:36)
#loc10 = loc("/home/CI/20260328160451/triton_ascend/test/flaggems_operator_cases/repo/src/flag_gems/ops/attention.py":104:25)
#loc15 = loc("/home/CI/20260328160451/triton_ascend/test/flaggems_operator_cases/repo/src/flag_gems/ops/attention.py":97:18)
#loc39 = loc("/home/CI/20260328160451/triton_ascend/test/flaggems_operator_cases/repo/src/flag_gems/ops/attention.py":103:25)
#loc59 = loc(callsite(#loc7 at #loc8))
#loc60 = loc(callsite(#loc9 at #loc10))
#loc64 = loc(callsite(#loc15 at #loc2))
#loc71 = loc(callsite(#loc39 at #loc2))
#loc79 = loc(callsite(#loc59 at #loc2))
#loc80 = loc(callsite(#loc60 at #loc2))
module attributes {hacc.target = #hacc.target<"Ascend910_9382">} {
  func.func @_attn_fwd(%arg0: memref<?xi8> loc("/home/CI/20260328160451/triton_ascend/test/flaggems_operator_cases/repo/src/flag_gems/ops/attention.py":152:0), %arg1: memref<?xi8> loc("/home/CI/20260328160451/triton_ascend/test/flaggems_operator_cases/repo/src/flag_gems/ops/attention.py":152:0), %arg2: memref<?xf16> {tt.divisibility = 16 : i32, tt.tensor_kind = 0 : i32} loc("/home/CI/20260328160451/triton_ascend/test/flaggems_operator_cases/repo/src/flag_gems/ops/attention.py":152:0), %arg3: memref<?xf16> {tt.divisibility = 16 : i32, tt.tensor_kind = 0 : i32} loc("/home/CI/20260328160451/triton_ascend/test/flaggems_operator_cases/repo/src/flag_gems/ops/attention.py":152:0), %arg4: memref<?xf16> {tt.divisibility = 16 : i32, tt.tensor_kind = 0 : i32} loc("/home/CI/20260328160451/triton_ascend/test/flaggems_operator_cases/repo/src/flag_gems/ops/attention.py":152:0), %arg5: f32 loc("/home/CI/20260328160451/triton_ascend/test/flaggems_operator_cases/repo/src/flag_gems/ops/attention.py":152:0), %arg6: memref<?xf32> {tt.divisibility = 16 : i32, tt.tensor_kind = 1 : i32} loc("/home/CI/20260328160451/triton_ascend/test/flaggems_operator_cases/repo/src/flag_gems/ops/attention.py":152:0), %arg7: memref<?xf16> {tt.divisibility = 16 : i32, tt.tensor_kind = 1 : i32} loc("/home/CI/20260328160451/triton_ascend/test/flaggems_operator_cases/repo/src/flag_gems/ops/attention.py":152:0), %arg8: i32 {tt.divisibility = 16 : i32} loc("/home/CI/20260328160451/triton_ascend/test/flaggems_operator_cases/repo/src/flag_gems/ops/attention.py":152:0), %arg9: i32 {tt.divisibility = 16 : i32} loc("/home/CI/20260328160451/triton_ascend/test/flaggems_operator_cases/repo/src/flag_gems/ops/attention.py":152:0), %arg10: i32 {tt.divisibility = 16 : i32} loc("/home/CI/20260328160451/triton_ascend/test/flaggems_operator_cases/repo/src/flag_gems/ops/attention.py":152:0), %arg11: i32 {tt.divisibility = 16 : i32} loc("/home/CI/20260328160451/triton_ascend/test/flaggems_operator_cases/repo/src/flag_gems/ops/attention.py":152:0), %arg12: i32 {tt.divisibility = 16 : i32} loc("/home/CI/20260328160451/triton_ascend/test/flaggems_operator_cases/repo/src/flag_gems/ops/attention.py":152:0), %arg13: i32 {tt.divisibility = 16 : i32} loc("/home/CI/20260328160451/triton_ascend/test/flaggems_operator_cases/repo/src/flag_gems/ops/attention.py":152:0), %arg14: i32 {tt.divisibility = 16 : i32} loc("/home/CI/20260328160451/triton_ascend/test/flaggems_operator_cases/repo/src/flag_gems/ops/attention.py":152:0), %arg15: i32 {tt.divisibility = 16 : i32} loc("/home/CI/20260328160451/triton_ascend/test/flaggems_operator_cases/repo/src/flag_gems/ops/attention.py":152:0), %arg16: i32 {tt.divisibility = 16 : i32} loc("/home/CI/20260328160451/triton_ascend/test/flaggems_operator_cases/repo/src/flag_gems/ops/attention.py":152:0), %arg17: i32 {tt.divisibility = 16 : i32} loc("/home/CI/20260328160451/triton_ascend/test/flaggems_operator_cases/repo/src/flag_gems/ops/attention.py":152:0), %arg18: i32 {tt.divisibility = 16 : i32} loc("/home/CI/20260328160451/triton_ascend/test/flaggems_operator_cases/repo/src/flag_gems/ops/attention.py":152:0), %arg19: i32 {tt.divisibility = 16 : i32} loc("/home/CI/20260328160451/triton_ascend/test/flaggems_operator_cases/repo/src/flag_gems/ops/attention.py":152:0), %arg20: i32 loc("/home/CI/20260328160451/triton_ascend/test/flaggems_operator_cases/repo/src/flag_gems/ops/attention.py":152:0), %arg21: i32 loc("/home/CI/20260328160451/triton_ascend/test/flaggems_operator_cases/repo/src/flag_gems/ops/attention.py":152:0), %arg22: i32 loc("/home/CI/20260328160451/triton_ascend/test/flaggems_operator_cases/repo/src/flag_gems/ops/attention.py":152:0), %arg23: i32 {tt.divisibility = 16 : i32} loc("/home/CI/20260328160451/triton_ascend/test/flaggems_operator_cases/repo/src/flag_gems/ops/attention.py":152:0), %arg24: i32 {tt.divisibility = 16 : i32} loc("/home/CI/20260328160451/triton_ascend/test/flaggems_operator_cases/repo/src/flag_gems/ops/attention.py":152:0), %arg25: i32 loc("/home/CI/20260328160451/triton_ascend/test/flaggems_operator_cases/repo/src/flag_gems/ops/attention.py":152:0), %arg26: i32 loc("/home/CI/20260328160451/triton_ascend/test/flaggems_operator_cases/repo/src/flag_gems/ops/attention.py":152:0), %arg27: i32 loc("/home/CI/20260328160451/triton_ascend/test/flaggems_operator_cases/repo/src/flag_gems/ops/attention.py":152:0), %arg28: i32 loc("/home/CI/20260328160451/triton_ascend/test/flaggems_operator_cases/repo/src/flag_gems/ops/attention.py":152:0), %arg29: i32 loc("/home/CI/20260328160451/triton_ascend/test/flaggems_operator_cases/repo/src/flag_gems/ops/attention.py":152:0), %arg30: i32 loc("/home/CI/20260328160451/triton_ascend/test/flaggems_operator_cases/repo/src/flag_gems/ops/attention.py":152:0)) attributes {SyncBlockLockArgIdx = 0 : i64, WorkspaceArgIdx = 1 : i64, global_kernel = "local", mix_mode = "mix", parallel_mode = "simd"} {
    %c1 = arith.constant 1 : index loc(#loc55)
    %cst = arith.constant 0.000000e+00 : f16 loc(#loc56)
    %c128 = arith.constant 128 : index loc(#loc4)
    %cst_0 = arith.constant 1.000000e+00 : f32 loc(#loc57)
    %c32_i32 = arith.constant 32 : i32 loc(#loc58)
    %cst_1 = arith.constant 0xFF800000 : f32 loc(#loc79)
    %c0_i32 = arith.constant 0 : i32 loc(#loc57)
    %cst_2 = arith.constant 0.000000e+00 : f32 loc(#loc80)
    %c128_i32 = arith.constant 128 : i32 loc(#loc11)
    %c32 = arith.constant 32 : index loc(#loc61)
    %c0 = arith.constant 0 : index loc(#loc62)
    %cst_3 = arith.constant 1.44269502 : f32 loc(#loc62)
    %0 = tensor.empty() : tensor<1xf32> loc(#loc62)
    %1 = linalg.fill ins(%cst_3 : f32) outs(%0 : tensor<1xf32>) -> tensor<1xf32> loc(#loc62)
    %2 = tensor.empty() : tensor<128x128xf32> loc(#loc63)
    %3 = linalg.fill ins(%cst_2 : f32) outs(%2 : tensor<128x128xf32>) -> tensor<128x128xf32> loc(#loc57)
    %4 = tensor.empty() : tensor<128x32xf32> loc(#loc64)
    %5 = linalg.fill ins(%cst_1 : f32) outs(%4 : tensor<128x32xf32>) -> tensor<128x32xf32> loc(#loc65)
    %6 = linalg.fill ins(%cst_2 : f32) outs(%4 : tensor<128x32xf32>) -> tensor<128x32xf32> loc(#loc66)
    %7 = tensor.empty() : tensor<128xf32> loc(#loc79)
    %8 = linalg.fill ins(%cst_1 : f32) outs(%7 : tensor<128xf32>) -> tensor<128xf32> loc(#loc79)
    %9 = linalg.fill ins(%cst_0 : f32) outs(%7 : tensor<128xf32>) -> tensor<128xf32> loc(#loc57)
    %10 = arith.divsi %arg29, %arg21 : i32 loc(#loc18)
    %11 = arith.remsi %arg29, %arg21 : i32 loc(#loc19)
    %12 = arith.extsi %10 : i32 to i64 loc(#loc20)
    %13 = arith.extsi %arg8 : i32 to i64 loc(#loc21)
    %14 = arith.muli %12, %13 : i64 loc(#loc21)
    %15 = arith.extsi %11 : i32 to i64 loc(#loc22)
    %16 = arith.extsi %arg9 : i32 to i64 loc(#loc23)
    %17 = arith.muli %15, %16 : i64 loc(#loc23)
    %18 = arith.addi %14, %17 : i64 loc(#loc24)
    %19 = arith.extsi %arg17 : i32 to i64 loc(#loc25)
    %20 = arith.muli %12, %19 : i64 loc(#loc25)
    %21 = arith.extsi %arg18 : i32 to i64 loc(#loc26)
    %22 = arith.muli %15, %21 : i64 loc(#loc26)
    %23 = arith.addi %20, %22 : i64 loc(#loc27)
    %24 = arith.extsi %arg11 : i32 to i64 loc(#loc28)
    %25 = arith.muli %12, %24 : i64 loc(#loc28)
    %26 = arith.extsi %arg12 : i32 to i64 loc(#loc29)
    %27 = arith.muli %15, %26 : i64 loc(#loc29)
    %28 = arith.addi %25, %27 : i64 loc(#loc30)
    %29 = arith.muli %arg28, %c128_i32 : i32 loc(#loc11)
    %30 = arith.index_cast %18 : i64 to index loc(#loc24)
    %31 = arith.index_cast %29 : i32 to index loc(#loc11)
    %32 = arith.index_cast %arg10 : i32 to index loc(#loc)
    %33 = arith.muli %31, %32 : index loc(#loc31)
    %34 = arith.addi %30, %33 : index loc(#loc31)
    %reinterpret_cast = memref.reinterpret_cast %arg2 to offset: [%34], sizes: [128, 128], strides: [%32, 1] : memref<?xf16> to memref<128x128xf16, strided<[?, 1], offset: ?>> loc(#loc32)
    %35 = arith.index_cast %23 : i64 to index loc(#loc27)
    %36 = arith.index_cast %arg19 : i32 to index loc(#loc)
    %37 = arith.muli %31, %36 : index loc(#loc33)
    %38 = arith.addi %35, %37 : index loc(#loc33)
    %reinterpret_cast_4 = memref.reinterpret_cast %arg7 to offset: [%38], sizes: [128, 128], strides: [%36, 1] : memref<?xf16> to memref<128x128xf16, strided<[?, 1], offset: ?>> loc(#loc34)
    %alloc = memref.alloc() : memref<128x128xf16> loc(#loc4)
    %39 = arith.addi %31, %c128 : index loc(#loc4)
    %40 = arith.index_cast %arg23 : i32 to index loc(#loc)
    %41 = arith.maxsi %31, %40 : index loc(#loc4)
    %42 = arith.minsi %39, %41 : index loc(#loc4)
    %43 = arith.subi %42, %31 : index loc(#loc4)
    %44 = arith.cmpi slt, %43, %c128 : index loc(#loc4)
    scf.if %44 {
      linalg.fill ins(%cst : f16) outs(%alloc : memref<128x128xf16>) loc(#loc4)
    } {hivm.unlikely_condition} loc(#loc4)
    %subview = memref.subview %reinterpret_cast[0, 0] [%43, 128] [1, 1] : memref<128x128xf16, strided<[?, 1], offset: ?>> to memref<?x128xf16, strided<[?, 1], offset: ?>> loc(#loc4)
    %subview_5 = memref.subview %alloc[0, 0] [%43, 128] [1, 1] : memref<128x128xf16> to memref<?x128xf16, strided<[128, 1]>> loc(#loc4)
    memref.copy %subview, %subview_5 : memref<?x128xf16, strided<[?, 1], offset: ?>> to memref<?x128xf16, strided<[128, 1]>> loc(#loc4)
    %45 = bufferization.to_tensor %alloc restrict writable : memref<128x128xf16> loc(#loc4)
    %inserted = tensor.insert %arg5 into %0[%c0] : tensor<1xf32> loc(#loc62)
    %46 = arith.mulf %inserted, %1 : tensor<1xf32> loc(#loc62)
    %extracted = tensor.extract %46[%c0] : tensor<1xf32> loc(#loc62)
    %47 = linalg.fill ins(%extracted : f32) outs(%4 : tensor<128x32xf32>) -> tensor<128x32xf32> loc(#loc64)
    %48 = arith.muli %arg13, %c32_i32 : i32 loc(#loc67)
    %49 = arith.muli %arg16, %c32_i32 : i32 loc(#loc58)
    %50 = arith.index_cast %28 : i64 to index loc(#loc30)
    %51 = arith.index_cast %arg13 : i32 to index loc(#loc)
    %52 = arith.index_cast %arg16 : i32 to index loc(#loc)
    %53:5 = scf.for %arg31 = %c0_i32 to %arg24 step %c32_i32 iter_args(%arg32 = %9, %arg33 = %3, %arg34 = %8, %arg35 = %50, %arg36 = %50) -> (tensor<128xf32>, tensor<128x128xf32>, tensor<128xf32>, index, index)  : i32 {
      %reinterpret_cast_10 = memref.reinterpret_cast %arg4 to offset: [%arg36], sizes: [32, 128], strides: [%52, %c1] : memref<?xf16> to memref<32x128xf16, strided<[?, ?], offset: ?>> loc(#loc55)
      %reinterpret_cast_11 = memref.reinterpret_cast %arg3 to offset: [%arg35], sizes: [128, 32], strides: [%c1, %51] : memref<?xf16> to memref<128x32xf16, strided<[?, ?], offset: ?>> loc(#loc68)
      %alloc_12 = memref.alloc() : memref<128x32xf16> loc(#loc61)
      %61 = arith.index_cast %arg31 : i32 to index loc(#loc57)
      %62 = arith.addi %61, %c32 : index loc(#loc61)
      %63 = arith.index_cast %arg24 : i32 to index loc(#loc)
      %64 = arith.maxsi %61, %63 : index loc(#loc61)
      %65 = arith.minsi %62, %64 : index loc(#loc61)
      %66 = arith.subi %65, %61 : index loc(#loc61)
      %67 = arith.cmpi slt, %66, %c32 : index loc(#loc61)
      scf.if %67 {
        linalg.fill ins(%cst : f16) outs(%alloc_12 : memref<128x32xf16>) loc(#loc61)
      } {hivm.unlikely_condition} loc(#loc61)
      %subview_13 = memref.subview %reinterpret_cast_11[0, 0] [128, %66] [1, 1] : memref<128x32xf16, strided<[?, ?], offset: ?>> to memref<128x?xf16, strided<[?, ?], offset: ?>> loc(#loc61)
      %subview_14 = memref.subview %alloc_12[0, 0] [128, %66] [1, 1] : memref<128x32xf16> to memref<128x?xf16, strided<[32, 1]>> loc(#loc61)
      memref.copy %subview_13, %subview_14 : memref<128x?xf16, strided<[?, ?], offset: ?>> to memref<128x?xf16, strided<[32, 1]>> loc(#loc61)
      annotation.mark %alloc_12 {MayImplicitTransposeWithLastAxis} : memref<128x32xf16> loc(#loc61)
      %68 = bufferization.to_tensor %alloc_12 restrict writable : memref<128x32xf16> loc(#loc61)
      annotation.mark %68 {MayImplicitTransposeWithLastAxis} : tensor<128x32xf16> loc(#loc61)
      %69 = linalg.matmul {input_precision = "ieee"} ins(%45, %68 : tensor<128x128xf16>, tensor<128x32xf16>) outs(%6 : tensor<128x32xf32>) -> tensor<128x32xf32> loc(#loc66)
      %extracted_slice_15 = tensor.extract_slice %69[0, 0] [128, %66] [1, 1] : tensor<128x32xf32> to tensor<128x?xf32> loc(#loc65)
      %inserted_slice = tensor.insert_slice %extracted_slice_15 into %5[0, 0] [128, %66] [1, 1] : tensor<128x?xf32> into tensor<128x32xf32> loc(#loc65)
      %70 = arith.mulf %inserted_slice, %47 : tensor<128x32xf32> loc(#loc64)
      %reduced = linalg.reduce ins(%70 : tensor<128x32xf32>) outs(%8 : tensor<128xf32>) dimensions = [1] 
        (%in: f32 loc(callsite(#loc15 at #loc2)), %init: f32 loc(callsite(#loc59 at #loc2))) {
          %87 = arith.maxnumf %in, %init : f32 loc(#loc79)
          linalg.yield %87 : f32 loc(#loc79)
        } loc(#loc79)
      %71 = arith.maxnumf %arg34, %reduced : tensor<128xf32> loc(#loc69)
      %broadcasted_16 = linalg.broadcast ins(%71 : tensor<128xf32>) outs(%4 : tensor<128x32xf32>) dimensions = [1]  loc(#loc70)
      %72 = arith.subf %70, %broadcasted_16 : tensor<128x32xf32> loc(#loc70)
      %73 = math.exp2 %72 : tensor<128x32xf32> loc(#loc71)
      %74 = linalg.fill ins(%cst_2 : f32) outs(%7 : tensor<128xf32>) -> tensor<128xf32> loc(#loc80)
      %reduced_17 = linalg.reduce ins(%73 : tensor<128x32xf32>) outs(%74 : tensor<128xf32>) dimensions = [1] 
        (%in: f32 loc(callsite(#loc39 at #loc2)), %init: f32 loc(callsite(#loc60 at #loc2))) {
          %87 = arith.addf %in, %init : f32 loc(#loc80)
          linalg.yield %87 : f32 loc(#loc80)
        } loc(#loc80)
      %75 = arith.subf %arg34, %71 : tensor<128xf32> loc(#loc72)
      %76 = math.exp2 %75 : tensor<128xf32> loc(#loc73)
      %77 = arith.mulf %arg32, %76 : tensor<128xf32> loc(#loc74)
      %78 = arith.addf %77, %reduced_17 : tensor<128xf32> loc(#loc75)
      %broadcasted_18 = linalg.broadcast ins(%76 : tensor<128xf32>) outs(%2 : tensor<128x128xf32>) dimensions = [1]  loc(#loc63)
      %79 = arith.mulf %arg33, %broadcasted_18 : tensor<128x128xf32> loc(#loc63)
      %alloc_19 = memref.alloc() : memref<32x128xf16> loc(#loc56)
      scf.if %67 {
        linalg.fill ins(%cst : f16) outs(%alloc_19 : memref<32x128xf16>) loc(#loc56)
      } {hivm.unlikely_condition} loc(#loc56)
      %subview_20 = memref.subview %reinterpret_cast_10[0, 0] [%66, 128] [1, 1] : memref<32x128xf16, strided<[?, ?], offset: ?>> to memref<?x128xf16, strided<[?, ?], offset: ?>> loc(#loc56)
      %subview_21 = memref.subview %alloc_19[0, 0] [%66, 128] [1, 1] : memref<32x128xf16> to memref<?x128xf16, strided<[128, 1]>> loc(#loc56)
      memref.copy %subview_20, %subview_21 : memref<?x128xf16, strided<[?, ?], offset: ?>> to memref<?x128xf16, strided<[128, 1]>> loc(#loc56)
      %80 = bufferization.to_tensor %alloc_19 restrict writable : memref<32x128xf16> loc(#loc56)
      %81 = arith.truncf %73 : tensor<128x32xf32> to tensor<128x32xf16> loc(#loc76)
      %82 = linalg.matmul {input_precision = "ieee"} ins(%81, %80 : tensor<128x32xf16>, tensor<32x128xf16>) outs(%79 : tensor<128x128xf32>) -> tensor<128x128xf32> loc(#loc77)
      %83 = arith.index_cast %48 : i32 to index loc(#loc67)
      %84 = arith.addi %arg35, %83 : index loc(#loc78)
      %85 = arith.index_cast %49 : i32 to index loc(#loc58)
      %86 = arith.addi %arg36, %85 : index loc(#loc78)
      scf.yield %78, %82, %71, %84, %86 : tensor<128xf32>, tensor<128x128xf32>, tensor<128xf32>, index, index loc(#loc78)
    } loc(#loc57)
    %54 = math.log2 %53#0 : tensor<128xf32> loc(#loc47)
    %55 = arith.addf %53#2, %54 : tensor<128xf32> loc(#loc48)
    %broadcasted = linalg.broadcast ins(%53#0 : tensor<128xf32>) outs(%2 : tensor<128x128xf32>) dimensions = [1]  loc(#loc49)
    %56 = arith.divf %53#1, %broadcasted : tensor<128x128xf32> loc(#loc49)
    %57 = arith.muli %arg29, %arg23 : i32 loc(#loc50)
    %58 = arith.index_cast %57 : i32 to index loc(#loc50)
    %59 = arith.addi %58, %31 : index loc(#loc51)
    %reinterpret_cast_6 = memref.reinterpret_cast %arg6 to offset: [%59], sizes: [128], strides: [1] : memref<?xf32> to memref<128xf32, strided<[1], offset: ?>> loc(#loc51)
    %extracted_slice = tensor.extract_slice %55[0] [%43] [1] : tensor<128xf32> to tensor<?xf32> loc(#loc52)
    %subview_7 = memref.subview %reinterpret_cast_6[0] [%43] [1] : memref<128xf32, strided<[1], offset: ?>> to memref<?xf32, strided<[1], offset: ?>> loc(#loc52)
    bufferization.materialize_in_destination %extracted_slice in writable %subview_7 : (tensor<?xf32>, memref<?xf32, strided<[1], offset: ?>>) -> () loc(#loc52)
    %60 = arith.truncf %56 : tensor<128x128xf32> to tensor<128x128xf16> loc(#loc53)
    %extracted_slice_8 = tensor.extract_slice %60[0, 0] [%43, 128] [1, 1] : tensor<128x128xf16> to tensor<?x128xf16> loc(#loc54)
    %subview_9 = memref.subview %reinterpret_cast_4[0, 0] [%43, 128] [1, 1] : memref<128x128xf16, strided<[?, 1], offset: ?>> to memref<?x128xf16, strided<[?, 1], offset: ?>> loc(#loc54)
    bufferization.materialize_in_destination %extracted_slice_8 in writable %subview_9 : (tensor<?x128xf16>, memref<?x128xf16, strided<[?, 1], offset: ?>>) -> () loc(#loc54)
    return loc(#loc)
  } loc(#loc)
} loc(#loc)
#loc1 = loc("/home/CI/20260328160451/triton_ascend/test/flaggems_operator_cases/repo/src/flag_gems/ops/attention.py":57:19)
#loc3 = loc("/home/CI/20260328160451/triton_ascend/test/flaggems_operator_cases/repo/src/flag_gems/ops/attention.py":112:28)
#loc4 = loc("/home/CI/20260328160451/triton_ascend/test/flaggems_operator_cases/repo/src/flag_gems/ops/attention.py":265:20)
#loc5 = loc("/home/CI/20260328160451/triton_ascend/test/flaggems_operator_cases/repo/src/flag_gems/ops/attention.py":64:33)
#loc6 = loc("/home/CI/20260328160451/triton_ascend/test/flaggems_operator_cases/repo/src/flag_gems/ops/attention.py":123:33)
#loc11 = loc("/home/CI/20260328160451/triton_ascend/test/flaggems_operator_cases/repo/src/flag_gems/ops/attention.py":213:23)
#loc12 = loc("/home/CI/20260328160451/triton_ascend/test/flaggems_operator_cases/repo/src/flag_gems/ops/attention.py":68:22)
#loc13 = loc("/home/CI/20260328160451/triton_ascend/test/flaggems_operator_cases/repo/src/flag_gems/ops/attention.py":97:29)
#loc14 = loc("/home/CI/20260328160451/triton_ascend/test/flaggems_operator_cases/repo/src/flag_gems/ops/attention.py":109:20)
#loc16 = loc("/home/CI/20260328160451/triton_ascend/test/flaggems_operator_cases/repo/src/flag_gems/ops/attention.py":74:49)
#loc17 = loc("/home/CI/20260328160451/triton_ascend/test/flaggems_operator_cases/repo/src/flag_gems/ops/attention.py":72:27)
#loc18 = loc("/home/CI/20260328160451/triton_ascend/test/flaggems_operator_cases/repo/src/flag_gems/ops/attention.py":196:25)
#loc19 = loc("/home/CI/20260328160451/triton_ascend/test/flaggems_operator_cases/repo/src/flag_gems/ops/attention.py":197:23)
#loc20 = loc("/home/CI/20260328160451/triton_ascend/test/flaggems_operator_cases/repo/src/flag_gems/ops/attention.py":201:20)
#loc21 = loc("/home/CI/20260328160451/triton_ascend/test/flaggems_operator_cases/repo/src/flag_gems/ops/attention.py":201:32)
#loc22 = loc("/home/CI/20260328160451/triton_ascend/test/flaggems_operator_cases/repo/src/flag_gems/ops/attention.py":201:60)
#loc23 = loc("/home/CI/20260328160451/triton_ascend/test/flaggems_operator_cases/repo/src/flag_gems/ops/attention.py":201:72)
#loc24 = loc("/home/CI/20260328160451/triton_ascend/test/flaggems_operator_cases/repo/src/flag_gems/ops/attention.py":201:49)
#loc25 = loc("/home/CI/20260328160451/triton_ascend/test/flaggems_operator_cases/repo/src/flag_gems/ops/attention.py":204:32)
#loc26 = loc("/home/CI/20260328160451/triton_ascend/test/flaggems_operator_cases/repo/src/flag_gems/ops/attention.py":204:72)
#loc27 = loc("/home/CI/20260328160451/triton_ascend/test/flaggems_operator_cases/repo/src/flag_gems/ops/attention.py":204:49)
#loc28 = loc("/home/CI/20260328160451/triton_ascend/test/flaggems_operator_cases/repo/src/flag_gems/ops/attention.py":207:32)
#loc29 = loc("/home/CI/20260328160451/triton_ascend/test/flaggems_operator_cases/repo/src/flag_gems/ops/attention.py":207:75)
#loc30 = loc("/home/CI/20260328160451/triton_ascend/test/flaggems_operator_cases/repo/src/flag_gems/ops/attention.py":207:49)
#loc31 = loc("/home/CI/20260328160451/triton_ascend/test/flaggems_operator_cases/repo/src/flag_gems/ops/attention.py":220:10)
#loc32 = loc("/home/CI/20260328160451/triton_ascend/test/flaggems_operator_cases/repo/src/flag_gems/ops/attention.py":221:10)
#loc33 = loc("/home/CI/20260328160451/triton_ascend/test/flaggems_operator_cases/repo/src/flag_gems/ops/attention.py":253:10)
#loc34 = loc("/home/CI/20260328160451/triton_ascend/test/flaggems_operator_cases/repo/src/flag_gems/ops/attention.py":254:10)
#loc35 = loc("/home/CI/20260328160451/triton_ascend/test/flaggems_operator_cases/repo/src/flag_gems/ops/attention.py":122:33)
#loc36 = loc("/home/CI/20260328160451/triton_ascend/test/flaggems_operator_cases/repo/src/flag_gems/ops/attention.py":56:19)
#loc37 = loc("/home/CI/20260328160451/triton_ascend/test/flaggems_operator_cases/repo/src/flag_gems/ops/attention.py":100:35)
#loc38 = loc("/home/CI/20260328160451/triton_ascend/test/flaggems_operator_cases/repo/src/flag_gems/ops/attention.py":101:22)
#loc40 = loc("/home/CI/20260328160451/triton_ascend/test/flaggems_operator_cases/repo/src/flag_gems/ops/attention.py":106:35)
#loc41 = loc("/home/CI/20260328160451/triton_ascend/test/flaggems_operator_cases/repo/src/flag_gems/ops/attention.py":106:29)
#loc42 = loc("/home/CI/20260328160451/triton_ascend/test/flaggems_operator_cases/repo/src/flag_gems/ops/attention.py":107:20)
#loc43 = loc("/home/CI/20260328160451/triton_ascend/test/flaggems_operator_cases/repo/src/flag_gems/ops/attention.py":107:28)
#loc44 = loc("/home/CI/20260328160451/triton_ascend/test/flaggems_operator_cases/repo/src/flag_gems/ops/attention.py":116:21)
#loc45 = loc("/home/CI/20260328160451/triton_ascend/test/flaggems_operator_cases/repo/src/flag_gems/ops/attention.py":118:31)
#loc46 = loc("/home/CI/20260328160451/triton_ascend/test/flaggems_operator_cases/repo/src/flag_gems/ops/attention.py":125:8)
#loc47 = loc("/home/CI/20260328160451/triton_ascend/test/flaggems_operator_cases/repo/src/flag_gems/ops/attention.py":325:24)
#loc48 = loc("/home/CI/20260328160451/triton_ascend/test/flaggems_operator_cases/repo/src/flag_gems/ops/attention.py":325:11)
#loc49 = loc("/home/CI/20260328160451/triton_ascend/test/flaggems_operator_cases/repo/src/flag_gems/ops/attention.py":326:16)
#loc50 = loc("/home/CI/20260328160451/triton_ascend/test/flaggems_operator_cases/repo/src/flag_gems/ops/attention.py":327:26)
#loc51 = loc("/home/CI/20260328160451/triton_ascend/test/flaggems_operator_cases/repo/src/flag_gems/ops/attention.py":327:34)
#loc52 = loc("/home/CI/20260328160451/triton_ascend/test/flaggems_operator_cases/repo/src/flag_gems/ops/attention.py":328:21)
#loc53 = loc("/home/CI/20260328160451/triton_ascend/test/flaggems_operator_cases/repo/src/flag_gems/ops/attention.py":329:33)
#loc54 = loc("/home/CI/20260328160451/triton_ascend/test/flaggems_operator_cases/repo/src/flag_gems/ops/attention.py":329:26)
#loc55 = loc(callsite(#loc1 at #loc2))
#loc56 = loc(callsite(#loc3 at #loc2))
#loc57 = loc(callsite(#loc5 at #loc2))
#loc58 = loc(callsite(#loc6 at #loc2))
#loc61 = loc(callsite(#loc12 at #loc2))
#loc62 = loc(callsite(#loc13 at #loc2))
#loc63 = loc(callsite(#loc14 at #loc2))
#loc65 = loc(callsite(#loc16 at #loc2))
#loc66 = loc(callsite(#loc17 at #loc2))
#loc67 = loc(callsite(#loc35 at #loc2))
#loc68 = loc(callsite(#loc36 at #loc2))
#loc69 = loc(callsite(#loc37 at #loc2))
#loc70 = loc(callsite(#loc38 at #loc2))
#loc72 = loc(callsite(#loc40 at #loc2))
#loc73 = loc(callsite(#loc41 at #loc2))
#loc74 = loc(callsite(#loc42 at #loc2))
#loc75 = loc(callsite(#loc43 at #loc2))
#loc76 = loc(callsite(#loc44 at #loc2))
#loc77 = loc(callsite(#loc45 at #loc2))
#loc78 = loc(callsite(#loc46 at #loc2))