#loc = loc("/tmp/kernels_vllm_merge_16x16_to_32x32_inverse_kernel.5CFYe8.py":7:0)
#loc29 = loc("A"(#loc))
#loc30 = loc("Ad"(#loc))
#loc31 = loc("Ai"(#loc))
#loc32 = loc("T"(#loc))
module attributes {hacc.target = #hacc.target<"Ascend910_9362">} {
  func.func @merge_16x16_to_32x32_inverse_kernel(%arg0: memref<?xi8> loc("/tmp/kernels_vllm_merge_16x16_to_32x32_inverse_kernel.5CFYe8.py":7:0), %arg1: memref<?xi8> loc("/tmp/kernels_vllm_merge_16x16_to_32x32_inverse_kernel.5CFYe8.py":7:0), %A: memref<?xbf16> {tt.divisibility = 16 : i32, tt.tensor_kind = 0 : i32} loc("A"(#loc)), %Ad: memref<?xbf16> {tt.divisibility = 16 : i32, tt.tensor_kind = 0 : i32} loc("Ad"(#loc)), %Ai: memref<?xbf16> {tt.divisibility = 16 : i32, tt.tensor_kind = 1 : i32} loc("Ai"(#loc)), %T: i32 loc("T"(#loc)), %arg6: i32 loc("/tmp/kernels_vllm_merge_16x16_to_32x32_inverse_kernel.5CFYe8.py":7:0), %arg7: i32 loc("/tmp/kernels_vllm_merge_16x16_to_32x32_inverse_kernel.5CFYe8.py":7:0), %arg8: i32 loc("/tmp/kernels_vllm_merge_16x16_to_32x32_inverse_kernel.5CFYe8.py":7:0), %arg9: i32 loc("/tmp/kernels_vllm_merge_16x16_to_32x32_inverse_kernel.5CFYe8.py":7:0), %arg10: i32 loc("/tmp/kernels_vllm_merge_16x16_to_32x32_inverse_kernel.5CFYe8.py":7:0), %arg11: i32 loc("/tmp/kernels_vllm_merge_16x16_to_32x32_inverse_kernel.5CFYe8.py":7:0)) attributes {SyncBlockLockArgIdx = 0 : i64, WorkspaceArgIdx = 1 : i64, global_kernel = "local", mix_mode = "mix", parallel_mode = "simd"} {
    %A_21 = arith.constant -16 : i32 loc(#loc54)
    %A_21_0 = arith.constant 0.000000e+00 : bf16 loc(#loc33)
    %A_21_1 = arith.constant 32 : index loc(#loc33)
    %A_21_2 = arith.constant 16 : index loc(#loc33)
    %A_21_3 = arith.constant 0 : index loc(#loc33)
    %p_Ad_11 = arith.constant 64 : index loc(#loc35)
    %p_A_21 = arith.constant 128 : index loc(#loc34)
    %p_A_21_4 = arith.constant 0 : i32 loc(#loc34)
    %A_5 = arith.constant 4 : i32 loc(#loc36)
    %p_A_21_6 = arith.constant 32 : i32 loc(#loc37)
    %p_Ai_22 = arith.constant 16 : i32 loc(#loc38)
    %Ai_21 = arith.constant 0.000000e+00 : f32 loc(#loc39)
    %Ai_21_7 = tensor.empty() : tensor<16x16xf32> loc(#loc39)
    %Ai_21_8 = linalg.fill ins(%Ai_21 : f32) outs(%Ai_21_7 : tensor<16x16xf32>) -> tensor<16x16xf32> loc(#loc39)
    %0 = arith.divsi %arg10, %A_5 : i32 loc(#loc8)
    %1 = arith.remsi %arg10, %A_5 : i32 loc(#loc9)
    %2 = arith.muli %0, %T : i32 loc(#loc10)
    %A_9 = arith.muli %2, %A_5 : i32 loc(#loc36)
    %A_10 = arith.addi %A_9, %1 : i32 loc(#loc40)
    %A_11 = arith.muli %A_10, %p_A_21_6 : i32 loc(#loc41)
    %A_12 = arith.index_cast %A_11 : i32 to index loc(#loc41)
    %Ad_13 = arith.muli %A_10, %p_Ai_22 : i32 loc(#loc42)
    %Ad_14 = arith.index_cast %Ad_13 : i32 to index loc(#loc42)
    %p_A_21_15 = arith.muli %arg9, %p_A_21_6 : i32 loc(#loc37)
    %p_A_21_16 = arith.addi %p_A_21_15, %p_Ai_22 : i32 loc(#loc43)
    %p_A_21_17 = arith.maxsi %p_A_21_16, %p_A_21_4 : i32 loc(#loc34)
    %p_A_21_18 = arith.index_cast %p_A_21_17 : i32 to index loc(#loc34)
    %p_A_21_19 = arith.muli %p_A_21_18, %p_A_21 : index loc(#loc34)
    %p_A_21_20 = arith.addi %p_A_21_19, %A_12 : index loc(#loc34)
    %p_A_21_21 = arith.index_cast %T : i32 to index loc(#loc34)
    %p_A_21_22 = memref.reinterpret_cast %A to offset: [%p_A_21_20], sizes: [16, 16], strides: [128, 1] : memref<?xbf16> to memref<16x16xbf16, strided<[128, 1], offset: ?>> loc(#loc34)
    %p_Ad_11_23 = arith.maxsi %p_A_21_15, %p_A_21_4 : i32 loc(#loc35)
    %p_Ad_11_24 = arith.index_cast %p_Ad_11_23 : i32 to index loc(#loc35)
    %p_Ad_11_25 = arith.muli %p_Ad_11_24, %p_Ad_11 : index loc(#loc35)
    %p_Ad_11_26 = arith.addi %p_Ad_11_25, %Ad_14 : index loc(#loc35)
    %p_Ad_11_27 = memref.reinterpret_cast %Ad to offset: [%p_Ad_11_26], sizes: [16, 16], strides: [64, 1] : memref<?xbf16> to memref<16x16xbf16, strided<[64, 1], offset: ?>> loc(#loc35)
    %p_Ad_22 = arith.muli %p_A_21_18, %p_Ad_11 : index loc(#loc44)
    %p_Ad_22_28 = arith.addi %p_Ad_22, %Ad_14 : index loc(#loc44)
    %p_Ad_22_29 = memref.reinterpret_cast %Ad to offset: [%p_Ad_22_28], sizes: [16, 16], strides: [64, 1] : memref<?xbf16> to memref<16x16xbf16, strided<[64, 1], offset: ?>> loc(#loc44)
    %p_Ai_11 = arith.muli %p_Ad_11_24, %p_A_21 : index loc(#loc45)
    %p_Ai_11_30 = arith.addi %p_Ai_11, %A_12 : index loc(#loc45)
    %p_Ai_11_31 = memref.reinterpret_cast %Ai to offset: [%p_Ai_11_30], sizes: [16, 16], strides: [128, 1] : memref<?xbf16> to memref<16x16xbf16, strided<[128, 1], offset: ?>> loc(#loc45)
    %p_Ai_22_32 = arith.addi %p_A_21_20, %A_21_2 : index loc(#loc38)
    %p_Ai_22_33 = memref.reinterpret_cast %Ai to offset: [%p_Ai_22_32], sizes: [16, 16], strides: [128, 1] : memref<?xbf16> to memref<16x16xbf16, strided<[128, 1], offset: ?>> loc(#loc38)
    %p_Ai_21 = memref.reinterpret_cast %Ai to offset: [%p_A_21_20], sizes: [16, 16], strides: [128, 1] : memref<?xbf16> to memref<16x16xbf16, strided<[128, 1], offset: ?>> loc(#loc46)
    %A_21_34 = memref.alloc() : memref<16x16xbf16> loc(#loc33)
    %A_21_35 = arith.divsi %p_A_21_19, %p_A_21 : index loc(#loc33)
    %A_21_36 = arith.subi %p_A_21_21, %A_21_35 : index loc(#loc33)
    %A_21_37 = arith.maxsi %A_21_36, %A_21_3 : index loc(#loc33)
    %A_21_38 = arith.minsi %A_21_37, %A_21_2 : index loc(#loc33)
    %A_21_39 = arith.remsi %p_A_21_19, %p_A_21 : index loc(#loc33)
    %A_21_40 = arith.subi %A_21_1, %A_21_39 : index loc(#loc33)
    %A_21_41 = arith.maxsi %A_21_40, %A_21_3 : index loc(#loc33)
    %A_21_42 = arith.minsi %A_21_41, %A_21_2 : index loc(#loc33)
    %A_21_43 = arith.subi %A_21, %p_A_21_15 : i32 loc(#loc54)
    %A_21_44 = arith.maxsi %A_21_43, %p_A_21_4 : i32 loc(#loc33)
    %A_21_45 = arith.index_cast %A_21_44 : i32 to index loc(#loc33)
    %A_21_46 = arith.minsi %A_21_45, %A_21_38 : index loc(#loc33)
    %A_21_47 = arith.subi %A_21_38, %A_21_46 : index loc(#loc33)
    %A_21_48 = arith.minsi %A_21_42, %A_21_3 : index loc(#loc33)
    %A_21_49 = arith.subi %A_21_42, %A_21_48 : index loc(#loc33)
    %A_21_50 = arith.cmpi slt, %A_21_47, %A_21_2 : index loc(#loc33)
    %A_21_51 = arith.cmpi slt, %A_21_49, %A_21_2 : index loc(#loc33)
    %A_21_52 = arith.ori %A_21_50, %A_21_51 : i1 loc(#loc33)
    scf.if %A_21_52 {
      linalg.fill ins(%A_21_0 : bf16) outs(%A_21_34 : memref<16x16xbf16>) loc(#loc33)
    } {hivm.unlikely_condition} loc(#loc33)
    %A_21_53 = memref.subview %p_A_21_22[0, 0] [%A_21_47, %A_21_49] [1, 1] : memref<16x16xbf16, strided<[128, 1], offset: ?>> to memref<?x?xbf16, strided<[128, 1], offset: ?>> loc(#loc33)
    %A_21_54 = memref.subview %A_21_34[%A_21_46, %A_21_48] [%A_21_47, %A_21_49] [1, 1] : memref<16x16xbf16> to memref<?x?xbf16, strided<[16, 1], offset: ?>> loc(#loc33)
    memref.copy %A_21_53, %A_21_54 : memref<?x?xbf16, strided<[128, 1], offset: ?>> to memref<?x?xbf16, strided<[16, 1], offset: ?>> loc(#loc33)
    %A_21_55 = bufferization.to_tensor %A_21_34 restrict writable : memref<16x16xbf16> loc(#loc33)
    %A_21_56 = arith.extf %A_21_55 : tensor<16x16xbf16> to tensor<16x16xf32> loc(#loc47)
    %Ai_11 = memref.alloc() : memref<16x16xbf16> loc(#loc48)
    %Ai_11_57 = arith.divsi %p_Ad_11_25, %p_Ad_11 : index loc(#loc48)
    %Ai_11_58 = arith.subi %p_A_21_21, %Ai_11_57 : index loc(#loc48)
    %Ai_11_59 = arith.maxsi %Ai_11_58, %A_21_3 : index loc(#loc48)
    %Ai_11_60 = arith.minsi %Ai_11_59, %A_21_2 : index loc(#loc48)
    %Ai_11_61 = arith.remsi %p_Ad_11_25, %p_Ad_11 : index loc(#loc48)
    %Ai_11_62 = arith.subi %A_21_2, %Ai_11_61 : index loc(#loc48)
    %Ai_11_63 = arith.maxsi %Ai_11_62, %A_21_3 : index loc(#loc48)
    %Ai_11_64 = arith.minsi %Ai_11_63, %A_21_2 : index loc(#loc48)
    %Ai_11_65 = arith.subi %p_A_21_4, %p_A_21_15 : i32 loc(#loc48)
    %Ai_11_66 = arith.maxsi %Ai_11_65, %p_A_21_4 : i32 loc(#loc48)
    %Ai_11_67 = arith.index_cast %Ai_11_66 : i32 to index loc(#loc48)
    %Ai_11_68 = arith.minsi %Ai_11_67, %Ai_11_60 : index loc(#loc48)
    %Ai_11_69 = arith.subi %Ai_11_60, %Ai_11_68 : index loc(#loc48)
    %Ai_11_70 = arith.minsi %Ai_11_64, %A_21_3 : index loc(#loc48)
    %Ai_11_71 = arith.subi %Ai_11_64, %Ai_11_70 : index loc(#loc48)
    %Ai_11_72 = arith.cmpi slt, %Ai_11_69, %A_21_2 : index loc(#loc48)
    %Ai_11_73 = arith.cmpi slt, %Ai_11_71, %A_21_2 : index loc(#loc48)
    %Ai_11_74 = arith.ori %Ai_11_72, %Ai_11_73 : i1 loc(#loc48)
    scf.if %Ai_11_74 {
      linalg.fill ins(%A_21_0 : bf16) outs(%Ai_11 : memref<16x16xbf16>) loc(#loc48)
    } {hivm.unlikely_condition} loc(#loc48)
    %Ai_11_75 = memref.subview %p_Ad_11_27[0, 0] [%Ai_11_69, %Ai_11_71] [1, 1] : memref<16x16xbf16, strided<[64, 1], offset: ?>> to memref<?x?xbf16, strided<[64, 1], offset: ?>> loc(#loc48)
    %Ai_11_76 = memref.subview %Ai_11[%Ai_11_68, %Ai_11_70] [%Ai_11_69, %Ai_11_71] [1, 1] : memref<16x16xbf16> to memref<?x?xbf16, strided<[16, 1], offset: ?>> loc(#loc48)
    memref.copy %Ai_11_75, %Ai_11_76 : memref<?x?xbf16, strided<[64, 1], offset: ?>> to memref<?x?xbf16, strided<[16, 1], offset: ?>> loc(#loc48)
    %Ai_11_77 = bufferization.to_tensor %Ai_11 restrict writable : memref<16x16xbf16> loc(#loc48)
    %Ai_11_78 = arith.extf %Ai_11_77 : tensor<16x16xbf16> to tensor<16x16xf32> loc(#loc49)
    %Ai_22 = memref.alloc() : memref<16x16xbf16> loc(#loc50)
    %Ai_22_79 = arith.divsi %p_Ad_22, %p_Ad_11 : index loc(#loc50)
    %Ai_22_80 = arith.subi %p_A_21_21, %Ai_22_79 : index loc(#loc50)
    %Ai_22_81 = arith.maxsi %Ai_22_80, %A_21_3 : index loc(#loc50)
    %Ai_22_82 = arith.minsi %Ai_22_81, %A_21_2 : index loc(#loc50)
    %Ai_22_83 = arith.remsi %p_Ad_22, %p_Ad_11 : index loc(#loc50)
    %Ai_22_84 = arith.subi %A_21_2, %Ai_22_83 : index loc(#loc50)
    %Ai_22_85 = arith.maxsi %Ai_22_84, %A_21_3 : index loc(#loc50)
    %Ai_22_86 = arith.minsi %Ai_22_85, %A_21_2 : index loc(#loc50)
    %Ai_22_87 = arith.minsi %A_21_45, %Ai_22_82 : index loc(#loc50)
    %Ai_22_88 = arith.subi %Ai_22_82, %Ai_22_87 : index loc(#loc50)
    %Ai_22_89 = arith.minsi %Ai_22_86, %A_21_3 : index loc(#loc50)
    %Ai_22_90 = arith.subi %Ai_22_86, %Ai_22_89 : index loc(#loc50)
    %Ai_22_91 = arith.cmpi slt, %Ai_22_88, %A_21_2 : index loc(#loc50)
    %Ai_22_92 = arith.cmpi slt, %Ai_22_90, %A_21_2 : index loc(#loc50)
    %Ai_22_93 = arith.ori %Ai_22_91, %Ai_22_92 : i1 loc(#loc50)
    scf.if %Ai_22_93 {
      linalg.fill ins(%A_21_0 : bf16) outs(%Ai_22 : memref<16x16xbf16>) loc(#loc50)
    } {hivm.unlikely_condition} loc(#loc50)
    %Ai_22_94 = memref.subview %p_Ad_22_29[0, 0] [%Ai_22_88, %Ai_22_90] [1, 1] : memref<16x16xbf16, strided<[64, 1], offset: ?>> to memref<?x?xbf16, strided<[64, 1], offset: ?>> loc(#loc50)
    %Ai_22_95 = memref.subview %Ai_22[%Ai_22_87, %Ai_22_89] [%Ai_22_88, %Ai_22_90] [1, 1] : memref<16x16xbf16> to memref<?x?xbf16, strided<[16, 1], offset: ?>> loc(#loc50)
    memref.copy %Ai_22_94, %Ai_22_95 : memref<?x?xbf16, strided<[64, 1], offset: ?>> to memref<?x?xbf16, strided<[16, 1], offset: ?>> loc(#loc50)
    %Ai_22_96 = bufferization.to_tensor %Ai_22 restrict writable : memref<16x16xbf16> loc(#loc50)
    %Ai_22_97 = arith.extf %Ai_22_96 : tensor<16x16xbf16> to tensor<16x16xf32> loc(#loc51)
    %Ai_21_98 = linalg.matmul {input_precision = "ieee"} ins(%Ai_22_97, %A_21_56 : tensor<16x16xf32>, tensor<16x16xf32>) outs(%Ai_21_8 : tensor<16x16xf32>) -> tensor<16x16xf32> loc(#loc52)
    %Ai_21_99 = linalg.matmul {input_precision = "ieee"} ins(%Ai_21_98, %Ai_11_78 : tensor<16x16xf32>, tensor<16x16xf32>) outs(%Ai_21_8 : tensor<16x16xf32>) -> tensor<16x16xf32> loc(#loc53)
    %Ai_21_100 = arith.subf %Ai_21_8, %Ai_21_99 : tensor<16x16xf32> loc(#loc39)
    %3 = arith.divsi %p_Ai_11, %p_A_21 : index loc(#loc25)
    %4 = arith.subi %p_A_21_21, %3 : index loc(#loc25)
    %5 = arith.maxsi %4, %A_21_3 : index loc(#loc25)
    %6 = arith.minsi %5, %A_21_2 : index loc(#loc25)
    %7 = arith.remsi %p_Ai_11, %p_A_21 : index loc(#loc25)
    %8 = arith.subi %A_21_1, %7 : index loc(#loc25)
    %9 = arith.maxsi %8, %A_21_3 : index loc(#loc25)
    %10 = arith.minsi %9, %A_21_2 : index loc(#loc25)
    %11 = arith.minsi %Ai_11_67, %6 : index loc(#loc25)
    %12 = arith.subi %6, %11 : index loc(#loc25)
    %13 = arith.minsi %10, %A_21_3 : index loc(#loc25)
    %14 = arith.subi %10, %13 : index loc(#loc25)
    %extracted_slice = tensor.extract_slice %Ai_11_77[%11, %13] [%12, %14] [1, 1] : tensor<16x16xbf16> to tensor<?x?xbf16> loc(#loc25)
    %subview = memref.subview %p_Ai_11_31[0, 0] [%12, %14] [1, 1] : memref<16x16xbf16, strided<[128, 1], offset: ?>> to memref<?x?xbf16, strided<[128, 1], offset: ?>> loc(#loc25)
    bufferization.materialize_in_destination %extracted_slice in writable %subview : (tensor<?x?xbf16>, memref<?x?xbf16, strided<[128, 1], offset: ?>>) -> () loc(#loc25)
    %15 = arith.subi %p_Ai_22_32, %A_12 : index loc(#loc26)
    %16 = arith.divsi %15, %p_A_21 : index loc(#loc26)
    %17 = arith.subi %p_A_21_21, %16 : index loc(#loc26)
    %18 = arith.maxsi %17, %A_21_3 : index loc(#loc26)
    %19 = arith.minsi %18, %A_21_2 : index loc(#loc26)
    %20 = arith.remsi %15, %p_A_21 : index loc(#loc26)
    %21 = arith.subi %A_21_1, %20 : index loc(#loc26)
    %22 = arith.maxsi %21, %A_21_3 : index loc(#loc26)
    %23 = arith.minsi %22, %A_21_2 : index loc(#loc26)
    %24 = arith.minsi %A_21_45, %19 : index loc(#loc26)
    %25 = arith.subi %19, %24 : index loc(#loc26)
    %26 = arith.minsi %23, %A_21_3 : index loc(#loc26)
    %27 = arith.subi %23, %26 : index loc(#loc26)
    %extracted_slice_101 = tensor.extract_slice %Ai_22_96[%24, %26] [%25, %27] [1, 1] : tensor<16x16xbf16> to tensor<?x?xbf16> loc(#loc26)
    %subview_102 = memref.subview %p_Ai_22_33[0, 0] [%25, %27] [1, 1] : memref<16x16xbf16, strided<[128, 1], offset: ?>> to memref<?x?xbf16, strided<[128, 1], offset: ?>> loc(#loc26)
    bufferization.materialize_in_destination %extracted_slice_101 in writable %subview_102 : (tensor<?x?xbf16>, memref<?x?xbf16, strided<[128, 1], offset: ?>>) -> () loc(#loc26)
    %28 = arith.truncf %Ai_21_100 : tensor<16x16xf32> to tensor<16x16xbf16> loc(#loc27)
    %extracted_slice_103 = tensor.extract_slice %28[%A_21_46, %A_21_48] [%A_21_47, %A_21_49] [1, 1] : tensor<16x16xbf16> to tensor<?x?xbf16> loc(#loc28)
    %subview_104 = memref.subview %p_Ai_21[0, 0] [%A_21_47, %A_21_49] [1, 1] : memref<16x16xbf16, strided<[128, 1], offset: ?>> to memref<?x?xbf16, strided<[128, 1], offset: ?>> loc(#loc28)
    bufferization.materialize_in_destination %extracted_slice_103 in writable %subview_104 : (tensor<?x?xbf16>, memref<?x?xbf16, strided<[128, 1], offset: ?>>) -> () loc(#loc28)
    return loc(#loc)
  } loc(#loc)
} loc(#loc)
#loc1 = loc("/tmp/kernels_vllm_merge_16x16_to_32x32_inverse_kernel.5CFYe8.py":44:19)
#loc2 = loc("/tmp/kernels_vllm_merge_16x16_to_32x32_inverse_kernel.5CFYe8.py":37:86)
#loc3 = loc("/tmp/kernels_vllm_merge_16x16_to_32x32_inverse_kernel.5CFYe8.py":38:83)
#loc4 = loc("/tmp/kernels_vllm_merge_16x16_to_32x32_inverse_kernel.5CFYe8.py":33:16)
#loc5 = loc("/tmp/kernels_vllm_merge_16x16_to_32x32_inverse_kernel.5CFYe8.py":37:63)
#loc6 = loc("/tmp/kernels_vllm_merge_16x16_to_32x32_inverse_kernel.5CFYe8.py":41:89)
#loc7 = loc("/tmp/kernels_vllm_merge_16x16_to_32x32_inverse_kernel.5CFYe8.py":47:13)
#loc8 = loc("/tmp/kernels_vllm_merge_16x16_to_32x32_inverse_kernel.5CFYe8.py":19:23)
#loc9 = loc("/tmp/kernels_vllm_merge_16x16_to_32x32_inverse_kernel.5CFYe8.py":19:33)
#loc10 = loc("/tmp/kernels_vllm_merge_16x16_to_32x32_inverse_kernel.5CFYe8.py":31:25)
#loc11 = loc("/tmp/kernels_vllm_merge_16x16_to_32x32_inverse_kernel.5CFYe8.py":33:20)
#loc12 = loc("/tmp/kernels_vllm_merge_16x16_to_32x32_inverse_kernel.5CFYe8.py":33:27)
#loc13 = loc("/tmp/kernels_vllm_merge_16x16_to_32x32_inverse_kernel.5CFYe8.py":34:28)
#loc14 = loc("/tmp/kernels_vllm_merge_16x16_to_32x32_inverse_kernel.5CFYe8.py":37:68)
#loc15 = loc("/tmp/kernels_vllm_merge_16x16_to_32x32_inverse_kernel.5CFYe8.py":39:88)
#loc16 = loc("/tmp/kernels_vllm_merge_16x16_to_32x32_inverse_kernel.5CFYe8.py":40:83)
#loc17 = loc("/tmp/kernels_vllm_merge_16x16_to_32x32_inverse_kernel.5CFYe8.py":42:88)
#loc18 = loc("/tmp/kernels_vllm_merge_16x16_to_32x32_inverse_kernel.5CFYe8.py":44:53)
#loc19 = loc("/tmp/kernels_vllm_merge_16x16_to_32x32_inverse_kernel.5CFYe8.py":45:20)
#loc20 = loc("/tmp/kernels_vllm_merge_16x16_to_32x32_inverse_kernel.5CFYe8.py":45:55)
#loc21 = loc("/tmp/kernels_vllm_merge_16x16_to_32x32_inverse_kernel.5CFYe8.py":46:20)
#loc22 = loc("/tmp/kernels_vllm_merge_16x16_to_32x32_inverse_kernel.5CFYe8.py":46:55)
#loc23 = loc("/tmp/kernels_vllm_merge_16x16_to_32x32_inverse_kernel.5CFYe8.py":48:22)
#loc24 = loc("/tmp/kernels_vllm_merge_16x16_to_32x32_inverse_kernel.5CFYe8.py":49:8)
#loc25 = loc("/tmp/kernels_vllm_merge_16x16_to_32x32_inverse_kernel.5CFYe8.py":54:8)
#loc26 = loc("/tmp/kernels_vllm_merge_16x16_to_32x32_inverse_kernel.5CFYe8.py":59:8)
#loc27 = loc("/tmp/kernels_vllm_merge_16x16_to_32x32_inverse_kernel.5CFYe8.py":64:17)
#loc28 = loc("/tmp/kernels_vllm_merge_16x16_to_32x32_inverse_kernel.5CFYe8.py":64:8)
#loc33 = loc("A_21"(#loc1))
#loc34 = loc("p_A_21"(#loc2))
#loc35 = loc("p_Ad_11"(#loc3))
#loc36 = loc("A"(#loc4))
#loc37 = loc("p_A_21"(#loc5))
#loc38 = loc("p_Ai_22"(#loc6))
#loc39 = loc("Ai_21"(#loc7))
#loc40 = loc("A"(#loc11))
#loc41 = loc("A"(#loc12))
#loc42 = loc("Ad"(#loc13))
#loc43 = loc("p_A_21"(#loc14))
#loc44 = loc("p_Ad_22"(#loc15))
#loc45 = loc("p_Ai_11"(#loc16))
#loc46 = loc("p_Ai_21"(#loc17))
#loc47 = loc("A_21"(#loc18))
#loc48 = loc("Ai_11"(#loc19))
#loc49 = loc("Ai_11"(#loc20))
#loc50 = loc("Ai_22"(#loc21))
#loc51 = loc("Ai_22"(#loc22))
#loc52 = loc("Ai_21"(#loc23))
#loc53 = loc("Ai_21"(#loc24))
#loc54 = loc(fused[#loc33, #loc34])
