#loc = loc("/tmp/kernels_vllm_rejection_random_sample_kernel.ZJwCwG.py":6:0)
#loc40 = loc("output_token_ids_ptr"(#loc))
#loc41 = loc("cu_num_draft_tokens_ptr"(#loc))
#loc42 = loc("draft_token_ids_ptr"(#loc))
#loc43 = loc("target_probs_ptr"(#loc))
#loc44 = loc("bonus_token_ids_ptr"(#loc))
#loc45 = loc("recovered_token_ids_ptr"(#loc))
#loc46 = loc("uniform_probs_ptr"(#loc))
#loc47 = loc("is_greedy_ptr"(#loc))
#loc48 = loc("max_spec_len"(#loc))
#loc49 = loc("vocab_size"(#loc))
module attributes {hacc.target = #hacc.target<"Ascend910_9362">} {
  func.func @rejection_random_sample_kernel(%arg0: memref<?xi8> loc("/tmp/kernels_vllm_rejection_random_sample_kernel.ZJwCwG.py":6:0), %arg1: memref<?xi8> loc("/tmp/kernels_vllm_rejection_random_sample_kernel.ZJwCwG.py":6:0), %output_token_ids_ptr: memref<?xi32> {tt.divisibility = 16 : i32, tt.tensor_kind = 1 : i32} loc("output_token_ids_ptr"(#loc)), %cu_num_draft_tokens_ptr: memref<?xi32> {tt.divisibility = 16 : i32, tt.tensor_kind = 0 : i32} loc("cu_num_draft_tokens_ptr"(#loc)), %draft_token_ids_ptr: memref<?xi32> {tt.divisibility = 16 : i32, tt.tensor_kind = 0 : i32} loc("draft_token_ids_ptr"(#loc)), %target_probs_ptr: memref<?xf32> {tt.divisibility = 16 : i32, tt.tensor_kind = 0 : i32} loc("target_probs_ptr"(#loc)), %bonus_token_ids_ptr: memref<?xi32> {tt.divisibility = 16 : i32, tt.tensor_kind = 0 : i32} loc("bonus_token_ids_ptr"(#loc)), %recovered_token_ids_ptr: memref<?xi32> {tt.divisibility = 16 : i32, tt.tensor_kind = 0 : i32} loc("recovered_token_ids_ptr"(#loc)), %uniform_probs_ptr: memref<?xf32> {tt.divisibility = 16 : i32, tt.tensor_kind = 0 : i32} loc("uniform_probs_ptr"(#loc)), %is_greedy_ptr: memref<?xi32> {tt.divisibility = 16 : i32, tt.tensor_kind = 0 : i32} loc("is_greedy_ptr"(#loc)), %max_spec_len: i32 loc("max_spec_len"(#loc)), %vocab_size: i32 {tt.divisibility = 16 : i32} loc("vocab_size"(#loc)), %arg12: i32 loc("/tmp/kernels_vllm_rejection_random_sample_kernel.ZJwCwG.py":6:0), %arg13: i32 loc("/tmp/kernels_vllm_rejection_random_sample_kernel.ZJwCwG.py":6:0), %arg14: i32 loc("/tmp/kernels_vllm_rejection_random_sample_kernel.ZJwCwG.py":6:0), %arg15: i32 loc("/tmp/kernels_vllm_rejection_random_sample_kernel.ZJwCwG.py":6:0), %arg16: i32 loc("/tmp/kernels_vllm_rejection_random_sample_kernel.ZJwCwG.py":6:0), %arg17: i32 loc("/tmp/kernels_vllm_rejection_random_sample_kernel.ZJwCwG.py":6:0)) attributes {SyncBlockLockArgIdx = 0 : i64, WorkspaceArgIdx = 1 : i64, global_kernel = "local", mix_mode = "aiv", parallel_mode = "simd"} {
    %start_idx = arith.constant -1 : index loc(#loc50)
    %is_greedy = arith.constant 0 : index loc(#loc51)
    %rejected = arith.constant 0 : i32 loc(#loc52)
    %c1_i32 = arith.constant 1 : i32 loc(#loc4)
    %rejected_0 = arith.constant false loc(#loc52)
    %rejected_1 = arith.constant true loc(#loc53)
    %req_idx = arith.index_cast %arg15 : i32 to index loc(#loc54)
    %is_greedy_2 = memref.reinterpret_cast %is_greedy_ptr to offset: [%req_idx], sizes: [1], strides: [1] : memref<?xi32> to memref<1xi32, strided<[1], offset: ?>> loc(#loc55)
    %is_greedy_3 = memref.load %is_greedy_2[%is_greedy] : memref<1xi32, strided<[1], offset: ?>> loc(#loc51)
    %0 = arith.cmpi ne, %is_greedy_3, %rejected : i32 loc(#loc8)
    scf.if %0 {
    } else {
      %start_idx_4 = arith.cmpi eq, %arg15, %rejected : i32 loc(#loc56)
      %start_idx_5 = scf.if %start_idx_4 -> (i32) {
        scf.yield %rejected : i32 loc(#loc58)
      } else {
        %start_idx_8 = arith.addi %req_idx, %start_idx : index loc(#loc50)
        %start_idx_9 = memref.reinterpret_cast %cu_num_draft_tokens_ptr to offset: [%start_idx_8], sizes: [1], strides: [1] : memref<?xi32> to memref<1xi32, strided<[1], offset: ?>> loc(#loc50)
        %start_idx_10 = memref.load %start_idx_9[%is_greedy] : memref<1xi32, strided<[1], offset: ?>> loc(#loc59)
        scf.yield %start_idx_10 : i32 loc(#loc59)
      } loc(#loc57)
      %end_idx = memref.reinterpret_cast %cu_num_draft_tokens_ptr to offset: [%req_idx], sizes: [1], strides: [1] : memref<?xi32> to memref<1xi32, strided<[1], offset: ?>> loc(#loc60)
      %end_idx_6 = memref.load %end_idx[%is_greedy] : memref<1xi32, strided<[1], offset: ?>> loc(#loc61)
      %num_draft_tokens = arith.subi %end_idx_6, %start_idx_5 : i32 loc(#loc62)
      %rejected_7 = scf.for %rejected_8 = %rejected to %num_draft_tokens step %c1_i32 iter_args(%arg19 = %rejected_0) -> (i1)  : i32 {
        %1 = scf.if %arg19 -> (i1) {
          scf.yield %arg19 : i1 loc(#loc17)
        } else {
          %start_idx_9 = arith.index_cast %start_idx_5 : i32 to index loc(#loc57)
          %rejected_10 = arith.index_cast %rejected_8 : i32 to index loc(#loc52)
          %draft_token_id = arith.addi %start_idx_9, %rejected_10 : index loc(#loc63)
          %draft_token_id_11 = memref.reinterpret_cast %draft_token_ids_ptr to offset: [%draft_token_id], sizes: [1], strides: [1] : memref<?xi32> to memref<1xi32, strided<[1], offset: ?>> loc(#loc63)
          %token_id = memref.load %draft_token_id_11[%is_greedy] : memref<1xi32, strided<[1], offset: ?>> loc(#loc75)
          %target_prob = arith.addi %start_idx_5, %rejected_8 : i32 loc(#loc65)
          %target_prob_12 = arith.muli %target_prob, %vocab_size : i32 loc(#loc66)
          %target_prob_13 = arith.index_cast %target_prob_12 : i32 to index loc(#loc66)
          %token_id_14 = arith.index_cast %token_id : i32 to index loc(#loc75)
          %target_prob_15 = arith.addi %target_prob_13, %token_id_14 : index loc(#loc67)
          %target_prob_16 = memref.reinterpret_cast %target_probs_ptr to offset: [%target_prob_15], sizes: [1], strides: [1] : memref<?xf32> to memref<1xf32, strided<[1], offset: ?>> loc(#loc67)
          %target_prob_17 = memref.load %target_prob_16[%is_greedy] : memref<1xf32, strided<[1], offset: ?>> loc(#loc68)
          %uniform_prob = memref.reinterpret_cast %uniform_probs_ptr to offset: [%draft_token_id], sizes: [1], strides: [1] : memref<?xf32> to memref<1xf32, strided<[1], offset: ?>> loc(#loc69)
          %uniform_prob_18 = memref.load %uniform_prob[%is_greedy] : memref<1xf32, strided<[1], offset: ?>> loc(#loc70)
          %2 = arith.cmpf oge, %target_prob_17, %uniform_prob_18 : f32 loc(#loc26)
          %rejected_19 = arith.select %2, %arg19, %rejected_1 : i1 loc(#loc53)
          %rejected_20 = scf.if %2 -> (i32) {
            scf.yield %token_id : i32 loc(#loc17)
          } else {
            %token_id_21 = memref.reinterpret_cast %recovered_token_ids_ptr to offset: [%draft_token_id], sizes: [1], strides: [1] : memref<?xi32> to memref<1xi32, strided<[1], offset: ?>> loc(#loc71)
            %token_id_22 = memref.load %token_id_21[%is_greedy] : memref<1xi32, strided<[1], offset: ?>> loc(#loc76)
            scf.yield %token_id_22 : i32 loc(#loc72)
          } loc(#loc53)
          %3 = arith.addi %max_spec_len, %c1_i32 : i32 loc(#loc29)
          %4 = arith.muli %arg15, %3 : i32 loc(#loc30)
          %5 = arith.index_cast %4 : i32 to index loc(#loc30)
          %6 = arith.addi %5, %rejected_10 : index loc(#loc31)
          %7 = tensor.empty() : tensor<1xi32> loc(#loc32)
          %inserted = tensor.insert %rejected_20 into %7[%is_greedy] : tensor<1xi32> loc(#loc32)
          %reinterpret_cast = memref.reinterpret_cast %output_token_ids_ptr to offset: [%6], sizes: [1], strides: [1] : memref<?xi32> to memref<1xi32, strided<[1], offset: ?>> loc(#loc32)
          bufferization.materialize_in_destination %inserted in writable %reinterpret_cast : (tensor<1xi32>, memref<1xi32, strided<[1], offset: ?>>) -> () loc(#loc32)
          scf.yield %rejected_19 : i1 loc(#loc32)
        } loc(#loc16)
        scf.yield %1 : i1 loc(#loc33)
      } loc(#loc52)
      scf.if %rejected_7 {
      } else {
        %bonus_token_id = memref.reinterpret_cast %bonus_token_ids_ptr to offset: [%req_idx], sizes: [1], strides: [1] : memref<?xi32> to memref<1xi32, strided<[1], offset: ?>> loc(#loc73)
        %bonus_token_id_8 = memref.load %bonus_token_id[%is_greedy] : memref<1xi32, strided<[1], offset: ?>> loc(#loc74)
        %1 = arith.addi %max_spec_len, %c1_i32 : i32 loc(#loc4)
        %2 = arith.muli %arg15, %1 : i32 loc(#loc37)
        %3 = arith.index_cast %2 : i32 to index loc(#loc37)
        %num_draft_tokens_9 = arith.index_cast %num_draft_tokens : i32 to index loc(#loc62)
        %4 = arith.addi %3, %num_draft_tokens_9 : index loc(#loc38)
        %5 = tensor.empty() : tensor<1xi32> loc(#loc39)
        %inserted = tensor.insert %bonus_token_id_8 into %5[%is_greedy] : tensor<1xi32> loc(#loc39)
        %reinterpret_cast = memref.reinterpret_cast %output_token_ids_ptr to offset: [%4], sizes: [1], strides: [1] : memref<?xi32> to memref<1xi32, strided<[1], offset: ?>> loc(#loc39)
        bufferization.materialize_in_destination %inserted in writable %reinterpret_cast : (tensor<1xi32>, memref<1xi32, strided<[1], offset: ?>>) -> () loc(#loc39)
      } loc(#loc34)
    } loc(#loc8)
    return loc(#loc)
  } loc(#loc)
} loc(#loc)
#loc1 = loc("/tmp/kernels_vllm_rejection_random_sample_kernel.ZJwCwG.py":26:83)
#loc2 = loc("/tmp/kernels_vllm_rejection_random_sample_kernel.ZJwCwG.py":21:24)
#loc3 = loc("/tmp/kernels_vllm_rejection_random_sample_kernel.ZJwCwG.py":31:21)
#loc4 = loc("/tmp/kernels_vllm_rejection_random_sample_kernel.ZJwCwG.py":53:61)
#loc5 = loc("/tmp/kernels_vllm_rejection_random_sample_kernel.ZJwCwG.py":40:15)
#loc6 = loc("/tmp/kernels_vllm_rejection_random_sample_kernel.ZJwCwG.py":20:28)
#loc7 = loc("/tmp/kernels_vllm_rejection_random_sample_kernel.ZJwCwG.py":21:40)
#loc8 = loc("/tmp/kernels_vllm_rejection_random_sample_kernel.ZJwCwG.py":22:7)
#loc9 = loc("/tmp/kernels_vllm_rejection_random_sample_kernel.ZJwCwG.py":26:32)
#loc10 = loc("/tmp/kernels_vllm_rejection_random_sample_kernel.ZJwCwG.py":26:21)
#loc11 = loc("/tmp/kernels_vllm_rejection_random_sample_kernel.ZJwCwG.py":26:16)
#loc12 = loc("/tmp/kernels_vllm_rejection_random_sample_kernel.ZJwCwG.py":26:47)
#loc13 = loc("/tmp/kernels_vllm_rejection_random_sample_kernel.ZJwCwG.py":27:48)
#loc14 = loc("/tmp/kernels_vllm_rejection_random_sample_kernel.ZJwCwG.py":27:22)
#loc15 = loc("/tmp/kernels_vllm_rejection_random_sample_kernel.ZJwCwG.py":28:33)
#loc16 = loc("/tmp/kernels_vllm_rejection_random_sample_kernel.ZJwCwG.py":32:11)
#loc17 = loc(unknown)
#loc18 = loc("/tmp/kernels_vllm_rejection_random_sample_kernel.ZJwCwG.py":33:71)
#loc19 = loc("/tmp/kernels_vllm_rejection_random_sample_kernel.ZJwCwG.py":33:37)
#loc20 = loc("/tmp/kernels_vllm_rejection_random_sample_kernel.ZJwCwG.py":38:66)
#loc21 = loc("/tmp/kernels_vllm_rejection_random_sample_kernel.ZJwCwG.py":38:73)
#loc22 = loc("/tmp/kernels_vllm_rejection_random_sample_kernel.ZJwCwG.py":38:86)
#loc23 = loc("/tmp/kernels_vllm_rejection_random_sample_kernel.ZJwCwG.py":38:34)
#loc24 = loc("/tmp/kernels_vllm_rejection_random_sample_kernel.ZJwCwG.py":39:67)
#loc25 = loc("/tmp/kernels_vllm_rejection_random_sample_kernel.ZJwCwG.py":39:35)
#loc26 = loc("/tmp/kernels_vllm_rejection_random_sample_kernel.ZJwCwG.py":40:62)
#loc27 = loc("/tmp/kernels_vllm_rejection_random_sample_kernel.ZJwCwG.py":46:73)
#loc28 = loc("/tmp/kernels_vllm_rejection_random_sample_kernel.ZJwCwG.py":46:35)
#loc29 = loc("/tmp/kernels_vllm_rejection_random_sample_kernel.ZJwCwG.py":47:70)
#loc30 = loc("/tmp/kernels_vllm_rejection_random_sample_kernel.ZJwCwG.py":47:55)
#loc31 = loc("/tmp/kernels_vllm_rejection_random_sample_kernel.ZJwCwG.py":47:75)
#loc32 = loc("/tmp/kernels_vllm_rejection_random_sample_kernel.ZJwCwG.py":47:80)
#loc33 = loc("/tmp/kernels_vllm_rejection_random_sample_kernel.ZJwCwG.py":32:8)
#loc34 = loc("/tmp/kernels_vllm_rejection_random_sample_kernel.ZJwCwG.py":49:7)
#loc35 = loc("/tmp/kernels_vllm_rejection_random_sample_kernel.ZJwCwG.py":51:55)
#loc36 = loc("/tmp/kernels_vllm_rejection_random_sample_kernel.ZJwCwG.py":51:33)
#loc37 = loc("/tmp/kernels_vllm_rejection_random_sample_kernel.ZJwCwG.py":53:46)
#loc38 = loc("/tmp/kernels_vllm_rejection_random_sample_kernel.ZJwCwG.py":53:66)
#loc39 = loc("/tmp/kernels_vllm_rejection_random_sample_kernel.ZJwCwG.py":54:12)
#loc50 = loc("start_idx"(#loc1))
#loc51 = loc("is_greedy"(#loc2))
#loc52 = loc("rejected"(#loc3))
#loc53 = loc("rejected"(#loc5))
#loc54 = loc("req_idx"(#loc6))
#loc55 = loc("is_greedy"(#loc7))
#loc56 = loc("start_idx"(#loc9))
#loc57 = loc("start_idx"(#loc10))
#loc58 = loc("start_idx"(#loc11))
#loc59 = loc("start_idx"(#loc12))
#loc60 = loc("end_idx"(#loc13))
#loc61 = loc("end_idx"(#loc14))
#loc62 = loc("num_draft_tokens"(#loc15))
#loc63 = loc("draft_token_id"(#loc18))
#loc64 = loc("draft_token_id"(#loc19))
#loc65 = loc("target_prob"(#loc20))
#loc66 = loc("target_prob"(#loc21))
#loc67 = loc("target_prob"(#loc22))
#loc68 = loc("target_prob"(#loc23))
#loc69 = loc("uniform_prob"(#loc24))
#loc70 = loc("uniform_prob"(#loc25))
#loc71 = loc("token_id"(#loc27))
#loc72 = loc("token_id"(#loc28))
#loc73 = loc("bonus_token_id"(#loc35))
#loc74 = loc("bonus_token_id"(#loc36))
#loc75 = loc("token_id"(#loc64))
#loc76 = loc("token_id"(#loc72))
