#loc = loc("/tmp/kernels_vllm_recompute_w_u_fwd_kernel.MwWE2q.py":7:0)
#loc52 = loc("k"(#loc))
#loc53 = loc("v"(#loc))
#loc54 = loc("beta"(#loc))
#loc55 = loc("w"(#loc))
#loc56 = loc("u"(#loc))
#loc57 = loc("A"(#loc))
#loc58 = loc("g"(#loc))
#loc59 = loc("cu_seqlens"(#loc))
#loc60 = loc("chunk_indices"(#loc))
#loc61 = loc("T"(#loc))
module attributes {hacc.target = #hacc.target<"Ascend910_9362">} {
  func.func @recompute_w_u_fwd_kernel(%arg0: memref<?xi8> loc("/tmp/kernels_vllm_recompute_w_u_fwd_kernel.MwWE2q.py":7:0), %arg1: memref<?xi8> loc("/tmp/kernels_vllm_recompute_w_u_fwd_kernel.MwWE2q.py":7:0), %k: memref<?xbf16> {tt.divisibility = 16 : i32, tt.tensor_kind = 0 : i32} loc("k"(#loc)), %v: memref<?xbf16> {tt.divisibility = 16 : i32, tt.tensor_kind = 0 : i32} loc("v"(#loc)), %beta: memref<?xbf16> {tt.divisibility = 16 : i32, tt.tensor_kind = 0 : i32} loc("beta"(#loc)), %w: memref<?xbf16> {tt.divisibility = 16 : i32, tt.tensor_kind = 1 : i32} loc("w"(#loc)), %u: memref<?xbf16> {tt.divisibility = 16 : i32, tt.tensor_kind = 1 : i32} loc("u"(#loc)), %A: memref<?xbf16> {tt.divisibility = 16 : i32, tt.tensor_kind = 0 : i32} loc("A"(#loc)), %g: memref<?xf32> {tt.divisibility = 16 : i32, tt.tensor_kind = 0 : i32} loc("g"(#loc)), %cu_seqlens: memref<?xi64> {tt.divisibility = 16 : i32, tt.tensor_kind = 0 : i32} loc("cu_seqlens"(#loc)), %chunk_indices: memref<?xi64> {tt.divisibility = 16 : i32, tt.tensor_kind = 0 : i32} loc("chunk_indices"(#loc)), %T: i32 loc("T"(#loc)), %arg12: i32 loc("/tmp/kernels_vllm_recompute_w_u_fwd_kernel.MwWE2q.py":7:0), %arg13: i32 loc("/tmp/kernels_vllm_recompute_w_u_fwd_kernel.MwWE2q.py":7:0), %arg14: i32 loc("/tmp/kernels_vllm_recompute_w_u_fwd_kernel.MwWE2q.py":7:0), %arg15: i32 loc("/tmp/kernels_vllm_recompute_w_u_fwd_kernel.MwWE2q.py":7:0), %arg16: i32 loc("/tmp/kernels_vllm_recompute_w_u_fwd_kernel.MwWE2q.py":7:0), %arg17: i32 loc("/tmp/kernels_vllm_recompute_w_u_fwd_kernel.MwWE2q.py":7:0)) attributes {SyncBlockLockArgIdx = 0 : i64, WorkspaceArgIdx = 1 : i64, global_kernel = "local", mix_mode = "mix", parallel_mode = "simd"} {
    %ptr_v = arith.constant 256 : index loc(#loc62)
    %b_k = arith.constant 0.000000e+00 : bf16 loc(#loc63)
    %b_v = arith.constant 16 : index loc(#loc64)
    %ptr_A = arith.constant 64 : index loc(#loc65)
    %c0 = arith.constant 0 : index loc(#loc5)
    %c1 = arith.constant 1 : index loc(#loc6)
    %c0_i32 = arith.constant 0 : i32 loc(#loc7)
    %ptr_A_0 = arith.constant 4 : i32 loc(#loc66)
    %T_1 = arith.constant 1 : i32 loc(#loc67)
    %c2_i32 = arith.constant 2 : i32 loc(#loc9)
    %ptr_A_2 = arith.constant 16 : i32 loc(#loc68)
    %ptr_v_3 = arith.constant 64 : i32 loc(#loc69)
    %b_g = arith.constant 0.000000e+00 : f32 loc(#loc70)
    %b_vb = tensor.empty() : tensor<16x64xf32> loc(#loc71)
    %b_w = linalg.fill ins(%b_g : f32) outs(%b_vb : tensor<16x64xf32>) -> tensor<16x64xf32> loc(#loc72)
    %0 = arith.muli %arg15, %c2_i32 : i32 loc(#loc9)
    %1 = arith.index_cast %0 : i32 to index loc(#loc9)
    %reinterpret_cast = memref.reinterpret_cast %chunk_indices to offset: [%1], sizes: [1], strides: [1] : memref<?xi64> to memref<1xi64, strided<[1], offset: ?>> loc(#loc15)
    %2 = arith.addi %1, %c1 : index loc(#loc6)
    %reinterpret_cast_4 = memref.reinterpret_cast %chunk_indices to offset: [%2], sizes: [1], strides: [1] : memref<?xi64> to memref<1xi64, strided<[1], offset: ?>> loc(#loc6)
    scf.for %T_5 = %c0_i32 to %ptr_A_0 step %T_1  : i32 {
      %3 = arith.remsi %T_5, %ptr_A_0 : i32 loc(#loc16)
      %4 = memref.load %reinterpret_cast[%c0] : memref<1xi64, strided<[1], offset: ?>> loc(#loc17)
      %5 = arith.trunci %4 : i64 to i32 loc(#loc18)
      %6 = memref.load %reinterpret_cast_4[%c0] : memref<1xi64, strided<[1], offset: ?>> loc(#loc19)
      %7 = arith.trunci %6 : i64 to i32 loc(#loc20)
      %8 = arith.index_cast %5 : i32 to index loc(#loc18)
      %reinterpret_cast_6 = memref.reinterpret_cast %cu_seqlens to offset: [%8], sizes: [1], strides: [1] : memref<?xi64> to memref<1xi64, strided<[1], offset: ?>> loc(#loc21)
      %9 = memref.load %reinterpret_cast_6[%c0] : memref<1xi64, strided<[1], offset: ?>> loc(#loc22)
      %10 = arith.trunci %9 : i64 to i32 loc(#loc23)
      %11 = arith.addi %8, %c1 : index loc(#loc24)
      %reinterpret_cast_7 = memref.reinterpret_cast %cu_seqlens to offset: [%11], sizes: [1], strides: [1] : memref<?xi64> to memref<1xi64, strided<[1], offset: ?>> loc(#loc24)
      %12 = memref.load %reinterpret_cast_7[%c0] : memref<1xi64, strided<[1], offset: ?>> loc(#loc5)
      %13 = arith.trunci %12 : i64 to i32 loc(#loc25)
      %T_8 = arith.subi %13, %10 : i32 loc(#loc73)
      %global_offs_t = arith.muli %7, %ptr_A_2 : i32 loc(#loc74)
      %ptr_A_9 = arith.muli %10, %ptr_A_0 : i32 loc(#loc66)
      %ptr_A_10 = arith.addi %ptr_A_9, %3 : i32 loc(#loc75)
      %ptr_A_11 = arith.muli %ptr_A_10, %ptr_A_2 : i32 loc(#loc68)
      %ptr_A_12 = arith.index_cast %ptr_A_11 : i32 to index loc(#loc68)
      %global_offs_t_13 = arith.index_cast %global_offs_t : i32 to index loc(#loc74)
      %ptr_A_14 = arith.muli %global_offs_t_13, %ptr_A : index loc(#loc65)
      %ptr_A_15 = arith.addi %ptr_A_12, %ptr_A_14 : index loc(#loc65)
      %ptr_A_16 = memref.reinterpret_cast %A to offset: [%ptr_A_15], sizes: [16, 16], strides: [64, 1] : memref<?xbf16> to memref<16x16xbf16, strided<[64, 1], offset: ?>> loc(#loc76)
      %b_A = memref.alloc() : memref<16x16xbf16> loc(#loc77)
      %b_A_17 = arith.addi %global_offs_t_13, %b_v : index loc(#loc77)
      %T_18 = arith.index_cast %T_8 : i32 to index loc(#loc73)
      %b_A_19 = arith.maxsi %global_offs_t_13, %T_18 : index loc(#loc77)
      %b_A_20 = arith.minsi %b_A_17, %b_A_19 : index loc(#loc77)
      %b_A_21 = arith.subi %b_A_20, %global_offs_t_13 : index loc(#loc77)
      %b_A_22 = arith.cmpi slt, %b_A_21, %b_v : index loc(#loc77)
      scf.if %b_A_22 {
        linalg.fill ins(%b_k : bf16) outs(%b_A : memref<16x16xbf16>) loc(#loc77)
      } {hivm.unlikely_condition} loc(#loc77)
      %b_A_23 = memref.subview %ptr_A_16[0, 0] [%b_A_21, 16] [1, 1] : memref<16x16xbf16, strided<[64, 1], offset: ?>> to memref<?x16xbf16, strided<[64, 1], offset: ?>> loc(#loc77)
      %b_A_24 = memref.subview %b_A[0, 0] [%b_A_21, 16] [1, 1] : memref<16x16xbf16> to memref<?x16xbf16, strided<[16, 1]>> loc(#loc77)
      memref.copy %b_A_23, %b_A_24 : memref<?x16xbf16, strided<[64, 1], offset: ?>> to memref<?x16xbf16, strided<[16, 1]>> loc(#loc77)
      %b_A_25 = bufferization.to_tensor %b_A restrict writable : memref<16x16xbf16> loc(#loc77)
      %b_A_26 = arith.extf %b_A_25 : tensor<16x16xbf16> to tensor<16x16xf32> loc(#loc78)
      %14 = arith.index_cast %10 : i32 to index loc(#loc23)
      %ptr_g = arith.muli %3, %T : i32 loc(#loc79)
      %ptr_g_27 = arith.index_cast %ptr_g : i32 to index loc(#loc79)
      %ptr_g_28 = arith.addi %14, %ptr_g_27 : index loc(#loc80)
      %ptr_g_29 = arith.addi %ptr_g_28, %global_offs_t_13 : index loc(#loc81)
      %ptr_g_30 = memref.reinterpret_cast %g to offset: [%ptr_g_29], sizes: [16], strides: [1] : memref<?xf32> to memref<16xf32, strided<[1], offset: ?>> loc(#loc81)
      %b_g_31 = memref.alloc() : memref<16xf32> loc(#loc70)
      scf.if %b_A_22 {
        linalg.fill ins(%b_g : f32) outs(%b_g_31 : memref<16xf32>) loc(#loc70)
      } {hivm.unlikely_condition} loc(#loc70)
      %b_g_32 = memref.subview %ptr_g_30[0] [%b_A_21] [1] : memref<16xf32, strided<[1], offset: ?>> to memref<?xf32, strided<[1], offset: ?>> loc(#loc70)
      %b_g_33 = memref.subview %b_g_31[0] [%b_A_21] [1] : memref<16xf32> to memref<?xf32, strided<[1]>> loc(#loc70)
      memref.copy %b_g_32, %b_g_33 : memref<?xf32, strided<[1], offset: ?>> to memref<?xf32, strided<[1]>> loc(#loc70)
      %b_g_34 = bufferization.to_tensor %b_g_31 restrict writable : memref<16xf32> loc(#loc70)
      %b_g_35 = math.exp %b_g_34 : tensor<16xf32> loc(#loc82)
      %ptr_beta = memref.reinterpret_cast %beta to offset: [%ptr_g_29], sizes: [16], strides: [1] : memref<?xbf16> to memref<16xbf16, strided<[1], offset: ?>> loc(#loc83)
      %b_beta = memref.alloc() : memref<16xbf16> loc(#loc84)
      scf.if %b_A_22 {
        linalg.fill ins(%b_k : bf16) outs(%b_beta : memref<16xbf16>) loc(#loc84)
      } {hivm.unlikely_condition} loc(#loc84)
      %b_beta_36 = memref.subview %ptr_beta[0] [%b_A_21] [1] : memref<16xbf16, strided<[1], offset: ?>> to memref<?xbf16, strided<[1], offset: ?>> loc(#loc84)
      %b_beta_37 = memref.subview %b_beta[0] [%b_A_21] [1] : memref<16xbf16> to memref<?xbf16, strided<[1]>> loc(#loc84)
      memref.copy %b_beta_36, %b_beta_37 : memref<?xbf16, strided<[1], offset: ?>> to memref<?xbf16, strided<[1]>> loc(#loc84)
      %b_beta_38 = bufferization.to_tensor %b_beta restrict writable : memref<16xbf16> loc(#loc84)
      %b_beta_39 = arith.extf %b_beta_38 : tensor<16xbf16> to tensor<16xf32> loc(#loc85)
      %ptr_v_40 = arith.muli %ptr_A_10, %ptr_v_3 : i32 loc(#loc69)
      %ptr_v_41 = arith.index_cast %ptr_v_40 : i32 to index loc(#loc69)
      %ptr_v_42 = arith.muli %global_offs_t_13, %ptr_v : index loc(#loc62)
      %ptr_v_43 = arith.addi %ptr_v_41, %ptr_v_42 : index loc(#loc62)
      %ptr_v_44 = memref.reinterpret_cast %v to offset: [%ptr_v_43], sizes: [16, 64], strides: [256, 1] : memref<?xbf16> to memref<16x64xbf16, strided<[256, 1], offset: ?>> loc(#loc86)
      %b_v_45 = memref.alloc() : memref<16x64xbf16> loc(#loc64)
      %b_v_46 = arith.minsi %b_A_21, %b_v : index loc(#loc64)
      %b_v_47 = arith.cmpi slt, %b_v_46, %b_v : index loc(#loc64)
      scf.if %b_v_47 {
        linalg.fill ins(%b_k : bf16) outs(%b_v_45 : memref<16x64xbf16>) loc(#loc64)
      } {hivm.unlikely_condition} loc(#loc64)
      %b_v_48 = memref.subview %ptr_v_44[0, 0] [%b_v_46, 64] [1, 1] : memref<16x64xbf16, strided<[256, 1], offset: ?>> to memref<?x64xbf16, strided<[256, 1], offset: ?>> loc(#loc64)
      %b_v_49 = memref.subview %b_v_45[0, 0] [%b_v_46, 64] [1, 1] : memref<16x64xbf16> to memref<?x64xbf16, strided<[64, 1]>> loc(#loc64)
      memref.copy %b_v_48, %b_v_49 : memref<?x64xbf16, strided<[256, 1], offset: ?>> to memref<?x64xbf16, strided<[64, 1]>> loc(#loc64)
      %b_v_50 = bufferization.to_tensor %b_v_45 restrict writable : memref<16x64xbf16> loc(#loc64)
      %b_v_51 = arith.extf %b_v_50 : tensor<16x64xbf16> to tensor<16x64xf32> loc(#loc87)
      %b_vb_52 = linalg.broadcast ins(%b_beta_39 : tensor<16xf32>) outs(%b_vb : tensor<16x64xf32>) dimensions = [1]  loc(#loc71)
      %b_vb_53 = arith.mulf %b_v_51, %b_vb_52 : tensor<16x64xf32> loc(#loc71)
      %b_u = linalg.matmul {input_precision = "ieee"} ins(%b_A_26, %b_vb_53 : tensor<16x16xf32>, tensor<16x64xf32>) outs(%b_w : tensor<16x64xf32>) -> tensor<16x64xf32> loc(#loc88)
      %ptr_u = memref.reinterpret_cast %u to offset: [%ptr_v_43], sizes: [16, 64], strides: [256, 1] : memref<?xbf16> to memref<16x64xbf16, strided<[256, 1], offset: ?>> loc(#loc89)
      %15 = arith.truncf %b_u : tensor<16x64xf32> to tensor<16x64xbf16> loc(#loc43)
      %extracted_slice = tensor.extract_slice %15[0, 0] [%b_v_46, 64] [1, 1] : tensor<16x64xbf16> to tensor<?x64xbf16> loc(#loc44)
      %subview = memref.subview %ptr_u[0, 0] [%b_v_46, 64] [1, 1] : memref<16x64xbf16, strided<[256, 1], offset: ?>> to memref<?x64xbf16, strided<[256, 1], offset: ?>> loc(#loc44)
      bufferization.materialize_in_destination %extracted_slice in writable %subview : (tensor<?x64xbf16>, memref<?x64xbf16, strided<[256, 1], offset: ?>>) -> () loc(#loc44)
      %ptr_k = memref.reinterpret_cast %k to offset: [%ptr_v_43], sizes: [16, 64], strides: [256, 1] : memref<?xbf16> to memref<16x64xbf16, strided<[256, 1], offset: ?>> loc(#loc90)
      %b_k_54 = memref.alloc() : memref<16x64xbf16> loc(#loc63)
      scf.if %b_v_47 {
        linalg.fill ins(%b_k : bf16) outs(%b_k_54 : memref<16x64xbf16>) loc(#loc63)
      } {hivm.unlikely_condition} loc(#loc63)
      %b_k_55 = memref.subview %ptr_k[0, 0] [%b_v_46, 64] [1, 1] : memref<16x64xbf16, strided<[256, 1], offset: ?>> to memref<?x64xbf16, strided<[256, 1], offset: ?>> loc(#loc63)
      %b_k_56 = memref.subview %b_k_54[0, 0] [%b_v_46, 64] [1, 1] : memref<16x64xbf16> to memref<?x64xbf16, strided<[64, 1]>> loc(#loc63)
      memref.copy %b_k_55, %b_k_56 : memref<?x64xbf16, strided<[256, 1], offset: ?>> to memref<?x64xbf16, strided<[64, 1]>> loc(#loc63)
      %b_k_57 = bufferization.to_tensor %b_k_54 restrict writable : memref<16x64xbf16> loc(#loc63)
      %b_k_58 = arith.extf %b_k_57 : tensor<16x64xbf16> to tensor<16x64xf32> loc(#loc91)
      %b_kb = arith.mulf %b_k_58, %b_vb_52 : tensor<16x64xf32> loc(#loc92)
      %b_kb_59 = linalg.broadcast ins(%b_g_35 : tensor<16xf32>) outs(%b_vb : tensor<16x64xf32>) dimensions = [1]  loc(#loc93)
      %b_kb_60 = arith.mulf %b_kb, %b_kb_59 : tensor<16x64xf32> loc(#loc93)
      %b_w_61 = linalg.matmul {input_precision = "ieee"} ins(%b_A_26, %b_kb_60 : tensor<16x16xf32>, tensor<16x64xf32>) outs(%b_w : tensor<16x64xf32>) -> tensor<16x64xf32> loc(#loc72)
      %ptr_w = memref.reinterpret_cast %w to offset: [%ptr_v_43], sizes: [16, 64], strides: [256, 1] : memref<?xbf16> to memref<16x64xbf16, strided<[256, 1], offset: ?>> loc(#loc94)
      %16 = arith.truncf %b_w_61 : tensor<16x64xf32> to tensor<16x64xbf16> loc(#loc50)
      %extracted_slice_62 = tensor.extract_slice %16[0, 0] [%b_v_46, 64] [1, 1] : tensor<16x64xbf16> to tensor<?x64xbf16> loc(#loc51)
      %subview_63 = memref.subview %ptr_w[0, 0] [%b_v_46, 64] [1, 1] : memref<16x64xbf16, strided<[256, 1], offset: ?>> to memref<?x64xbf16, strided<[256, 1], offset: ?>> loc(#loc51)
      bufferization.materialize_in_destination %extracted_slice_62 in writable %subview_63 : (tensor<?x64xbf16>, memref<?x64xbf16, strided<[256, 1], offset: ?>>) -> () loc(#loc51)
    } loc(#loc67)
    return loc(#loc)
  } loc(#loc)
} loc(#loc)
#loc1 = loc("/tmp/kernels_vllm_recompute_w_u_fwd_kernel.MwWE2q.py":43:47)
#loc2 = loc("/tmp/kernels_vllm_recompute_w_u_fwd_kernel.MwWE2q.py":56:26)
#loc3 = loc("/tmp/kernels_vllm_recompute_w_u_fwd_kernel.MwWE2q.py":44:26)
#loc4 = loc("/tmp/kernels_vllm_recompute_w_u_fwd_kernel.MwWE2q.py":29:44)
#loc5 = loc("/tmp/kernels_vllm_recompute_w_u_fwd_kernel.MwWE2q.py":18:71)
#loc6 = loc("/tmp/kernels_vllm_recompute_w_u_fwd_kernel.MwWE2q.py":16:108)
#loc7 = loc("/tmp/kernels_vllm_recompute_w_u_fwd_kernel.MwWE2q.py":13:22)
#loc8 = loc("/tmp/kernels_vllm_recompute_w_u_fwd_kernel.MwWE2q.py":29:28)
#loc9 = loc("/tmp/kernels_vllm_recompute_w_u_fwd_kernel.MwWE2q.py":16:55)
#loc10 = loc("/tmp/kernels_vllm_recompute_w_u_fwd_kernel.MwWE2q.py":29:39)
#loc11 = loc("/tmp/kernels_vllm_recompute_w_u_fwd_kernel.MwWE2q.py":43:43)
#loc12 = loc("/tmp/kernels_vllm_recompute_w_u_fwd_kernel.MwWE2q.py":34:29)
#loc13 = loc("/tmp/kernels_vllm_recompute_w_u_fwd_kernel.MwWE2q.py":46:26)
#loc14 = loc("/tmp/kernels_vllm_recompute_w_u_fwd_kernel.MwWE2q.py":59:30)
#loc15 = loc("/tmp/kernels_vllm_recompute_w_u_fwd_kernel.MwWE2q.py":16:47)
#loc16 = loc("/tmp/kernels_vllm_recompute_w_u_fwd_kernel.MwWE2q.py":14:37)
#loc17 = loc("/tmp/kernels_vllm_recompute_w_u_fwd_kernel.MwWE2q.py":16:31)
#loc18 = loc("/tmp/kernels_vllm_recompute_w_u_fwd_kernel.MwWE2q.py":16:61)
#loc19 = loc("/tmp/kernels_vllm_recompute_w_u_fwd_kernel.MwWE2q.py":16:80)
#loc20 = loc("/tmp/kernels_vllm_recompute_w_u_fwd_kernel.MwWE2q.py":17:16)
#loc21 = loc("/tmp/kernels_vllm_recompute_w_u_fwd_kernel.MwWE2q.py":18:44)
#loc22 = loc("/tmp/kernels_vllm_recompute_w_u_fwd_kernel.MwWE2q.py":18:31)
#loc23 = loc("/tmp/kernels_vllm_recompute_w_u_fwd_kernel.MwWE2q.py":18:52)
#loc24 = loc("/tmp/kernels_vllm_recompute_w_u_fwd_kernel.MwWE2q.py":18:90)
#loc25 = loc("/tmp/kernels_vllm_recompute_w_u_fwd_kernel.MwWE2q.py":18:96)
#loc26 = loc("/tmp/kernels_vllm_recompute_w_u_fwd_kernel.MwWE2q.py":19:22)
#loc27 = loc("/tmp/kernels_vllm_recompute_w_u_fwd_kernel.MwWE2q.py":24:30)
#loc28 = loc("/tmp/kernels_vllm_recompute_w_u_fwd_kernel.MwWE2q.py":29:32)
#loc29 = loc("/tmp/kernels_vllm_recompute_w_u_fwd_kernel.MwWE2q.py":29:67)
#loc30 = loc("/tmp/kernels_vllm_recompute_w_u_fwd_kernel.MwWE2q.py":31:22)
#loc31 = loc("/tmp/kernels_vllm_recompute_w_u_fwd_kernel.MwWE2q.py":31:56)
#loc32 = loc("/tmp/kernels_vllm_recompute_w_u_fwd_kernel.MwWE2q.py":33:32)
#loc33 = loc("/tmp/kernels_vllm_recompute_w_u_fwd_kernel.MwWE2q.py":33:26)
#loc34 = loc("/tmp/kernels_vllm_recompute_w_u_fwd_kernel.MwWE2q.py":33:40)
#loc35 = loc("/tmp/kernels_vllm_recompute_w_u_fwd_kernel.MwWE2q.py":34:21)
#loc36 = loc("/tmp/kernels_vllm_recompute_w_u_fwd_kernel.MwWE2q.py":36:46)
#loc37 = loc("/tmp/kernels_vllm_recompute_w_u_fwd_kernel.MwWE2q.py":37:25)
#loc38 = loc("/tmp/kernels_vllm_recompute_w_u_fwd_kernel.MwWE2q.py":37:62)
#loc39 = loc("/tmp/kernels_vllm_recompute_w_u_fwd_kernel.MwWE2q.py":43:69)
#loc40 = loc("/tmp/kernels_vllm_recompute_w_u_fwd_kernel.MwWE2q.py":44:60)
#loc41 = loc("/tmp/kernels_vllm_recompute_w_u_fwd_kernel.MwWE2q.py":47:30)
#loc42 = loc("/tmp/kernels_vllm_recompute_w_u_fwd_kernel.MwWE2q.py":49:69)
#loc43 = loc("/tmp/kernels_vllm_recompute_w_u_fwd_kernel.MwWE2q.py":50:35)
#loc44 = loc("/tmp/kernels_vllm_recompute_w_u_fwd_kernel.MwWE2q.py":50:28)
#loc45 = loc("/tmp/kernels_vllm_recompute_w_u_fwd_kernel.MwWE2q.py":55:84)
#loc46 = loc("/tmp/kernels_vllm_recompute_w_u_fwd_kernel.MwWE2q.py":56:60)
#loc47 = loc("/tmp/kernels_vllm_recompute_w_u_fwd_kernel.MwWE2q.py":58:26)
#loc48 = loc("/tmp/kernels_vllm_recompute_w_u_fwd_kernel.MwWE2q.py":58:44)
#loc49 = loc("/tmp/kernels_vllm_recompute_w_u_fwd_kernel.MwWE2q.py":61:69)
#loc50 = loc("/tmp/kernels_vllm_recompute_w_u_fwd_kernel.MwWE2q.py":62:35)
#loc51 = loc("/tmp/kernels_vllm_recompute_w_u_fwd_kernel.MwWE2q.py":62:28)
#loc62 = loc("ptr_v"(#loc1))
#loc63 = loc("b_k"(#loc2))
#loc64 = loc("b_v"(#loc3))
#loc65 = loc("ptr_A"(#loc4))
#loc66 = loc("ptr_A"(#loc8))
#loc67 = loc("T"(#loc7))
#loc68 = loc("ptr_A"(#loc10))
#loc69 = loc("ptr_v"(#loc11))
#loc70 = loc("b_g"(#loc12))
#loc71 = loc("b_vb"(#loc13))
#loc72 = loc("b_w"(#loc14))
#loc73 = loc("T"(#loc26))
#loc74 = loc("global_offs_t"(#loc27))
#loc75 = loc("ptr_A"(#loc28))
#loc76 = loc("ptr_A"(#loc29))
#loc77 = loc("b_A"(#loc30))
#loc78 = loc("b_A"(#loc31))
#loc79 = loc("ptr_g"(#loc32))
#loc80 = loc("ptr_g"(#loc33))
#loc81 = loc("ptr_g"(#loc34))
#loc82 = loc("b_g"(#loc35))
#loc83 = loc("ptr_beta"(#loc36))
#loc84 = loc("b_beta"(#loc37))
#loc85 = loc("b_beta"(#loc38))
#loc86 = loc("ptr_v"(#loc39))
#loc87 = loc("b_v"(#loc40))
#loc88 = loc("b_u"(#loc41))
#loc89 = loc("ptr_u"(#loc42))
#loc90 = loc("ptr_k"(#loc45))
#loc91 = loc("b_k"(#loc46))
#loc92 = loc("b_kb"(#loc47))
#loc93 = loc("b_kb"(#loc48))
#loc94 = loc("ptr_w"(#loc49))
