#loc = loc("/tmp/kernels_vllm_chunk_gated_delta_rule_fwd_kernel_h_blockdim64.mIs8j7.py":18:0)
#loc67 = loc("k"(#loc))
#loc68 = loc("v"(#loc))
#loc69 = loc("w"(#loc))
#loc70 = loc("v_new"(#loc))
#loc71 = loc("g"(#loc))
#loc72 = loc("h"(#loc))
#loc73 = loc("T"(#loc))
module attributes {hacc.target = #hacc.target<"Ascend910_9362">} {
  func.func @chunk_gated_delta_rule_fwd_kernel_h_blockdim64(%arg0: memref<?xi8> loc("/tmp/kernels_vllm_chunk_gated_delta_rule_fwd_kernel_h_blockdim64.mIs8j7.py":18:0), %arg1: memref<?xi8> loc("/tmp/kernels_vllm_chunk_gated_delta_rule_fwd_kernel_h_blockdim64.mIs8j7.py":18:0), %k: memref<?xbf16> {tt.divisibility = 16 : i32, tt.tensor_kind = 0 : i32} loc("k"(#loc)), %v: memref<?xbf16> {tt.divisibility = 16 : i32, tt.tensor_kind = 0 : i32} loc("v"(#loc)), %w: memref<?xbf16> {tt.divisibility = 16 : i32, tt.tensor_kind = 0 : i32} loc("w"(#loc)), %v_new: memref<?xbf16> {tt.divisibility = 16 : i32, tt.tensor_kind = 1 : i32} loc("v_new"(#loc)), %g: memref<?xf32> {tt.divisibility = 16 : i32, tt.tensor_kind = 0 : i32} loc("g"(#loc)), %h: memref<?xbf16> {tt.divisibility = 16 : i32, tt.tensor_kind = 1 : i32} loc("h"(#loc)), %T: i32 loc("T"(#loc)), %arg9: i32 loc("/tmp/kernels_vllm_chunk_gated_delta_rule_fwd_kernel_h_blockdim64.mIs8j7.py":18:0), %arg10: i32 loc("/tmp/kernels_vllm_chunk_gated_delta_rule_fwd_kernel_h_blockdim64.mIs8j7.py":18:0), %arg11: i32 loc("/tmp/kernels_vllm_chunk_gated_delta_rule_fwd_kernel_h_blockdim64.mIs8j7.py":18:0), %arg12: i32 loc("/tmp/kernels_vllm_chunk_gated_delta_rule_fwd_kernel_h_blockdim64.mIs8j7.py":18:0), %arg13: i32 loc("/tmp/kernels_vllm_chunk_gated_delta_rule_fwd_kernel_h_blockdim64.mIs8j7.py":18:0), %arg14: i32 loc("/tmp/kernels_vllm_chunk_gated_delta_rule_fwd_kernel_h_blockdim64.mIs8j7.py":18:0)) attributes {SyncBlockLockArgIdx = 0 : i64, WorkspaceArgIdx = 1 : i64, global_kernel = "local", mix_mode = "mix", parallel_mode = "simd"} {
    %b_v2 = arith.constant 0.000000e+00 : bf16 loc(#loc74)
    %b_k = arith.constant 512 : index loc(#loc75)
    %c64 = arith.constant 64 : index loc(#loc3)
    %b_k_0 = arith.constant 128 : index loc(#loc75)
    %b_g = arith.constant 0xFF800000 : f32 loc(#loc125)
    %w_base = arith.constant 512 : i32 loc(#loc77)
    %h_base = arith.constant 16384 : i32 loc(#loc78)
    %h_base_1 = arith.constant 65536 : i32 loc(#loc126)
    %NT = arith.constant 63 : i32 loc(#loc81)
    %c0 = arith.constant 0 : index loc(#loc11)
    %c4_i32 = arith.constant 4 : i32 loc(#loc12)
    %last_idx = arith.constant 1 : i32 loc(#loc82)
    %p_h1_bv2 = arith.constant 64 : i32 loc(#loc83)
    %p_h1_bv1 = arith.constant 0 : i32 loc(#loc84)
    %w_base_2 = arith.constant 128 : i32 loc(#loc85)
    %b_g_3 = arith.constant 0.000000e+00 : f32 loc(#loc86)
    %b_g_4 = tensor.empty() : tensor<64xf32> loc(#loc87)
    %b_g_5 = linalg.fill ins(%b_g_3 : f32) outs(%b_g_4 : tensor<64xf32>) -> tensor<64xf32> loc(#loc127)
    %b_v_new1 = tensor.empty() : tensor<64x64xf32> loc(#loc88)
    %b_v_new2 = linalg.fill ins(%b_g_3 : f32) outs(%b_v_new1 : tensor<64x64xf32>) -> tensor<64x64xf32> loc(#loc89)
    %b_h1_bv1 = tensor.empty() : tensor<128x64xf32> loc(#loc90)
    %b_h1_bv2 = linalg.fill ins(%b_g_3 : f32) outs(%b_h1_bv1 : tensor<128x64xf32>) -> tensor<128x64xf32> loc(#loc128)
    %b_g_6 = linalg.fill ins(%b_g : f32) outs(%b_g_4 : tensor<64xf32>) -> tensor<64xf32> loc(#loc125)
    %0 = arith.divsi %arg13, %c4_i32 : i32 loc(#loc24)
    %1 = arith.remsi %arg13, %c4_i32 : i32 loc(#loc12)
    %2 = arith.muli %0, %T : i32 loc(#loc25)
    %NT_7 = arith.addi %T, %NT : i32 loc(#loc81)
    %NT_8 = arith.divsi %NT_7, %p_h1_bv2 : i32 loc(#loc81)
    %boh = arith.muli %0, %NT_8 : i32 loc(#loc92)
    %h_base_9 = arith.muli %1, %h_base : i32 loc(#loc78)
    %w_base_10 = arith.muli %2, %w_base : i32 loc(#loc77)
    %w_base_11 = arith.index_cast %w_base_10 : i32 to index loc(#loc77)
    %w_base_12 = arith.muli %1, %w_base_2 : i32 loc(#loc85)
    %w_base_13 = arith.index_cast %w_base_12 : i32 to index loc(#loc85)
    %w_base_14 = arith.addi %w_base_11, %w_base_13 : index loc(#loc93)
    %3 = arith.index_cast %2 : i32 to index loc(#loc25)
    %b_g_last = arith.muli %1, %T : i32 loc(#loc94)
    %b_g_last_15 = arith.index_cast %b_g_last : i32 to index loc(#loc94)
    %b_g_last_16 = arith.addi %3, %b_g_last_15 : index loc(#loc95)
    %b_h1_bv2_17:2 = scf.for %b_h1_bv2_18 = %p_h1_bv1 to %NT_8 step %last_idx iter_args(%arg16 = %b_h1_bv2, %arg17 = %b_h1_bv2) -> (tensor<128x64xf32>, tensor<128x64xf32>)  : i32 {
      %h_base_19 = arith.addi %boh, %b_h1_bv2_18 : i32 loc(#loc96)
      %h_base_20 = arith.muli %h_base_19, %h_base_1 : i32 loc(#loc126)
      %h_base_21 = arith.index_cast %h_base_20 : i32 to index loc(#loc126)
      %h_base_22 = arith.index_cast %h_base_9 : i32 to index loc(#loc78)
      %h_base_23 = arith.addi %h_base_21, %h_base_22 : index loc(#loc97)
      %p_h1_bv1_24 = memref.reinterpret_cast %h to offset: [%h_base_23], sizes: [128, 64], strides: [128, 1] : memref<?xbf16> to memref<128x64xbf16, strided<[128, 1], offset: ?>> loc(#loc84)
      %4 = arith.truncf %arg16 : tensor<128x64xf32> to tensor<128x64xbf16> loc(#loc32)
      %cast = memref.cast %p_h1_bv1_24 : memref<128x64xbf16, strided<[128, 1], offset: ?>> to memref<?x?xbf16, strided<[128, 1], offset: ?>> loc(#loc11)
      bufferization.materialize_in_destination %4 in writable %cast : (tensor<128x64xbf16>, memref<?x?xbf16, strided<[128, 1], offset: ?>>) -> () loc(#loc11)
      %p_h1_bv2_25 = arith.addi %h_base_23, %c64 : index loc(#loc83)
      %p_h1_bv2_26 = memref.reinterpret_cast %h to offset: [%p_h1_bv2_25], sizes: [128, 64], strides: [128, 1] : memref<?xbf16> to memref<128x64xbf16, strided<[128, 1], offset: ?>> loc(#loc83)
      %5 = arith.truncf %arg17 : tensor<128x64xf32> to tensor<128x64xbf16> loc(#loc33)
      %cast_27 = memref.cast %p_h1_bv2_26 : memref<128x64xbf16, strided<[128, 1], offset: ?>> to memref<?x?xbf16, strided<[128, 1], offset: ?>> loc(#loc34)
      bufferization.materialize_in_destination %5 in writable %cast_27 : (tensor<128x64xbf16>, memref<?x?xbf16, strided<[128, 1], offset: ?>>) -> () loc(#loc34)
      %offs_t_wv = arith.muli %b_h1_bv2_18, %p_h1_bv2 : i32 loc(#loc98)
      %offs_t_wv_28 = arith.index_cast %offs_t_wv : i32 to index loc(#loc98)
      %ptr_w = arith.muli %offs_t_wv_28, %b_k : index loc(#loc99)
      %ptr_w_29 = arith.addi %w_base_14, %ptr_w : index loc(#loc99)
      %ptr_w_30 = memref.reinterpret_cast %w to offset: [%ptr_w_29], sizes: [64, 128], strides: [512, 1] : memref<?xbf16> to memref<64x128xbf16, strided<[512, 1], offset: ?>> loc(#loc100)
      %b_w = memref.alloc() : memref<64x128xbf16> loc(#loc101)
      %b_w_31 = arith.addi %offs_t_wv_28, %c64 : index loc(#loc101)
      %T_32 = arith.index_cast %T : i32 to index loc(#loc73)
      %b_w_33 = arith.maxsi %offs_t_wv_28, %T_32 : index loc(#loc101)
      %b_w_34 = arith.minsi %b_w_31, %b_w_33 : index loc(#loc101)
      %b_w_35 = arith.subi %b_w_34, %offs_t_wv_28 : index loc(#loc101)
      %b_w_36 = arith.minsi %b_w_35, %c64 : index loc(#loc101)
      %b_w_37 = arith.cmpi slt, %b_w_36, %c64 : index loc(#loc101)
      scf.if %b_w_37 {
        linalg.fill ins(%b_v2 : bf16) outs(%b_w : memref<64x128xbf16>) loc(#loc101)
      } {hivm.unlikely_condition} loc(#loc101)
      %b_w_38 = memref.subview %ptr_w_30[0, 0] [%b_w_36, 128] [1, 1] : memref<64x128xbf16, strided<[512, 1], offset: ?>> to memref<?x128xbf16, strided<[512, 1], offset: ?>> loc(#loc101)
      %b_w_39 = memref.subview %b_w[0, 0] [%b_w_36, 128] [1, 1] : memref<64x128xbf16> to memref<?x128xbf16, strided<[128, 1]>> loc(#loc101)
      memref.copy %b_w_38, %b_w_39 : memref<?x128xbf16, strided<[512, 1], offset: ?>> to memref<?x128xbf16, strided<[128, 1]>> loc(#loc101)
      %b_w_40 = bufferization.to_tensor %b_w restrict writable : memref<64x128xbf16> loc(#loc101)
      %b_k_41 = arith.maxsi %offs_t_wv, %p_h1_bv1 : i32 loc(#loc75)
      %b_k_42 = arith.index_cast %b_k_41 : i32 to index loc(#loc75)
      %b_k_43 = arith.muli %b_k_42, %b_k : index loc(#loc75)
      %b_k_44 = arith.addi %b_k_43, %w_base_14 : index loc(#loc75)
      %NT_45 = arith.index_cast %T : i32 to index loc(#loc81)
      %b_k_46 = memref.reinterpret_cast %k to offset: [%b_k_44], sizes: [64, 128], strides: [512, 1] : memref<?xbf16> to memref<64x128xbf16, strided<[512, 1], offset: ?>> loc(#loc75)
      %b_k_47 = memref.alloc() : memref<64x128xbf16> loc(#loc75)
      %b_k_48 = arith.divsi %b_k_43, %b_k : index loc(#loc75)
      %b_k_49 = arith.subi %NT_45, %b_k_48 : index loc(#loc75)
      %b_k_50 = arith.maxsi %b_k_49, %c0 : index loc(#loc75)
      %b_k_51 = arith.minsi %b_k_50, %c64 : index loc(#loc75)
      %b_k_52 = arith.remsi %b_k_43, %b_k : index loc(#loc75)
      %b_k_53 = arith.subi %b_k_0, %b_k_52 : index loc(#loc75)
      %b_k_54 = arith.maxsi %b_k_53, %c0 : index loc(#loc75)
      %b_k_55 = arith.minsi %b_k_54, %b_k_0 : index loc(#loc75)
      %b_k_56 = arith.subi %p_h1_bv1, %offs_t_wv : i32 loc(#loc75)
      %b_k_57 = arith.maxsi %b_k_56, %p_h1_bv1 : i32 loc(#loc75)
      %b_k_58 = arith.index_cast %b_k_57 : i32 to index loc(#loc75)
      %b_k_59 = arith.minsi %b_k_58, %b_k_51 : index loc(#loc75)
      %b_k_60 = arith.subi %b_k_51, %b_k_59 : index loc(#loc75)
      %b_k_61 = arith.minsi %b_k_55, %c0 : index loc(#loc75)
      %b_k_62 = arith.subi %b_k_55, %b_k_61 : index loc(#loc75)
      %b_k_63 = arith.cmpi slt, %b_k_60, %c64 : index loc(#loc75)
      %b_k_64 = arith.cmpi slt, %b_k_62, %b_k_0 : index loc(#loc75)
      %b_k_65 = arith.ori %b_k_63, %b_k_64 : i1 loc(#loc75)
      scf.if %b_k_65 {
        linalg.fill ins(%b_v2 : bf16) outs(%b_k_47 : memref<64x128xbf16>) loc(#loc75)
      } {hivm.unlikely_condition} loc(#loc75)
      %b_k_66 = memref.subview %b_k_46[0, 0] [%b_k_60, %b_k_62] [1, 1] : memref<64x128xbf16, strided<[512, 1], offset: ?>> to memref<?x?xbf16, strided<[512, 1], offset: ?>> loc(#loc75)
      %b_k_67 = memref.subview %b_k_47[%b_k_59, %b_k_61] [%b_k_60, %b_k_62] [1, 1] : memref<64x128xbf16> to memref<?x?xbf16, strided<[128, 1], offset: ?>> loc(#loc75)
      memref.copy %b_k_66, %b_k_67 : memref<?x?xbf16, strided<[512, 1], offset: ?>> to memref<?x?xbf16, strided<[128, 1], offset: ?>> loc(#loc75)
      %b_k_68 = bufferization.to_tensor %b_k_47 restrict writable : memref<64x128xbf16> loc(#loc75)
      %b_k_69 = tensor.empty() : tensor<128x64xbf16> loc(#loc75)
      %b_k_70 = linalg.transpose ins(%b_k_68 : tensor<64x128xbf16>) outs(%b_k_69 : tensor<128x64xbf16>) permutation = [1, 0]  loc(#loc75)
      %last_idx_71 = arith.addi %b_h1_bv2_18, %last_idx : i32 loc(#loc82)
      %last_idx_72 = arith.muli %last_idx_71, %p_h1_bv2 : i32 loc(#loc102)
      %last_idx_73 = arith.minsi %last_idx_72, %T : i32 loc(#loc103)
      %last_idx_74 = arith.subi %last_idx_73, %last_idx : i32 loc(#loc104)
      %last_idx_75 = arith.index_cast %last_idx_74 : i32 to index loc(#loc104)
      %b_g_last_76 = arith.addi %b_g_last_16, %last_idx_75 : index loc(#loc105)
      %b_g_last_77 = memref.reinterpret_cast %g to offset: [%b_g_last_76], sizes: [1], strides: [1] : memref<?xf32> to memref<1xf32, strided<[1], offset: ?>> loc(#loc105)
      %b_g_last_78 = memref.load %b_g_last_77[%c0] : memref<1xf32, strided<[1], offset: ?>> loc(#loc106)
      %b_g_79 = arith.addi %b_g_last_16, %offs_t_wv_28 : index loc(#loc107)
      %b_g_80 = memref.reinterpret_cast %g to offset: [%b_g_79], sizes: [64], strides: [1] : memref<?xf32> to memref<64xf32, strided<[1], offset: ?>> loc(#loc107)
      %b_g_81 = memref.alloc() : memref<64xf32> loc(#loc86)
      %b_g_82 = arith.cmpi slt, %b_w_35, %c64 : index loc(#loc86)
      scf.if %b_g_82 {
        linalg.fill ins(%b_g_3 : f32) outs(%b_g_81 : memref<64xf32>) loc(#loc86)
      } {hivm.unlikely_condition} loc(#loc86)
      %b_g_83 = memref.subview %b_g_80[0] [%b_w_35] [1] : memref<64xf32, strided<[1], offset: ?>> to memref<?xf32, strided<[1], offset: ?>> loc(#loc86)
      %b_g_84 = memref.subview %b_g_81[0] [%b_w_35] [1] : memref<64xf32> to memref<?xf32, strided<[1]>> loc(#loc86)
      memref.copy %b_g_83, %b_g_84 : memref<?xf32, strided<[1], offset: ?>> to memref<?xf32, strided<[1]>> loc(#loc86)
      %b_g_85 = bufferization.to_tensor %b_g_81 restrict writable : memref<64xf32> loc(#loc86)
      %b_g_86 = linalg.fill ins(%b_g_last_78 : f32) outs(%b_g_4 : tensor<64xf32>) -> tensor<64xf32> loc(#loc87)
      %b_g_87 = arith.subf %b_g_86, %b_g_85 : tensor<64xf32> loc(#loc87)
      %b_g_88 = arith.cmpf ole, %b_g_87, %b_g_5 : tensor<64xf32> loc(#loc127)
      %b_g_89 = arith.select %b_g_88, %b_g_87, %b_g_6 : tensor<64xi1>, tensor<64xf32> loc(#loc125)
      %b_g_90 = math.exp %b_g_89 : tensor<64xf32> loc(#loc129)
      %b_g_last_91 = tensor.empty() : tensor<1xf32> loc(#loc108)
      %b_g_last_92 = tensor.insert %b_g_last_78 into %b_g_last_91[%c0] : tensor<1xf32> loc(#loc108)
      %b_g_last_93 = math.exp %b_g_last_92 : tensor<1xf32> loc(#loc108)
      %b_g_last_94 = tensor.extract %b_g_last_93[%c0] : tensor<1xf32> loc(#loc108)
      %ptr_v1 = memref.reinterpret_cast %v to offset: [%ptr_w_29], sizes: [64, 64], strides: [512, 1] : memref<?xbf16> to memref<64x64xbf16, strided<[512, 1], offset: ?>> loc(#loc109)
      %b_v1 = memref.alloc() : memref<64x64xbf16> loc(#loc110)
      scf.if %b_w_37 {
        linalg.fill ins(%b_v2 : bf16) outs(%b_v1 : memref<64x64xbf16>) loc(#loc110)
      } {hivm.unlikely_condition} loc(#loc110)
      %b_v1_95 = memref.subview %ptr_v1[0, 0] [%b_w_36, 64] [1, 1] : memref<64x64xbf16, strided<[512, 1], offset: ?>> to memref<?x64xbf16, strided<[512, 1], offset: ?>> loc(#loc110)
      %b_v1_96 = memref.subview %b_v1[0, 0] [%b_w_36, 64] [1, 1] : memref<64x64xbf16> to memref<?x64xbf16, strided<[64, 1]>> loc(#loc110)
      memref.copy %b_v1_95, %b_v1_96 : memref<?x64xbf16, strided<[512, 1], offset: ?>> to memref<?x64xbf16, strided<[64, 1]>> loc(#loc110)
      %b_v1_97 = bufferization.to_tensor %b_v1 restrict writable : memref<64x64xbf16> loc(#loc110)
      %b_v_new1_98 = arith.extf %b_v1_97 : tensor<64x64xbf16> to tensor<64x64xf32> loc(#loc111)
      %b_v_new1_99 = linalg.matmul {input_precision = "ieee"} ins(%b_w_40, %4 : tensor<64x128xbf16>, tensor<128x64xbf16>) outs(%b_v_new2 : tensor<64x64xf32>) -> tensor<64x64xf32> loc(#loc112)
      %b_v_new1_100 = arith.subf %b_v_new1_98, %b_v_new1_99 : tensor<64x64xf32> loc(#loc113)
      %p_v_new1 = memref.reinterpret_cast %v_new to offset: [%b_k_44], sizes: [64, 64], strides: [512, 1] : memref<?xbf16> to memref<64x64xbf16, strided<[512, 1], offset: ?>> loc(#loc114)
      %6 = arith.truncf %b_v_new1_100 : tensor<64x64xf32> to tensor<64x64xbf16> loc(#loc53)
      %7 = arith.minsi %b_k_54, %c64 : index loc(#loc54)
      %8 = arith.minsi %7, %c0 : index loc(#loc54)
      %9 = arith.subi %7, %8 : index loc(#loc54)
      %extracted_slice = tensor.extract_slice %6[%b_k_59, %8] [%b_k_60, %9] [1, 1] : tensor<64x64xbf16> to tensor<?x?xbf16> loc(#loc54)
      %subview = memref.subview %p_v_new1[0, 0] [%b_k_60, %9] [1, 1] : memref<64x64xbf16, strided<[512, 1], offset: ?>> to memref<?x?xbf16, strided<[512, 1], offset: ?>> loc(#loc54)
      bufferization.materialize_in_destination %extracted_slice in writable %subview : (tensor<?x?xbf16>, memref<?x?xbf16, strided<[512, 1], offset: ?>>) -> () loc(#loc54)
      %b_v_new1_101 = linalg.broadcast ins(%b_g_90 : tensor<64xf32>) outs(%b_v_new1 : tensor<64x64xf32>) dimensions = [1]  loc(#loc88)
      %b_v_new1_102 = arith.mulf %b_v_new1_100, %b_v_new1_101 : tensor<64x64xf32> loc(#loc88)
      %b_h1_bv1_103 = linalg.fill ins(%b_g_last_94 : f32) outs(%b_h1_bv1 : tensor<128x64xf32>) -> tensor<128x64xf32> loc(#loc90)
      %b_h1_bv1_104 = arith.mulf %arg16, %b_h1_bv1_103 : tensor<128x64xf32> loc(#loc90)
      %b_v_new1_105 = arith.truncf %b_v_new1_102 : tensor<64x64xf32> to tensor<64x64xbf16> loc(#loc115)
      %b_h1_bv1_106 = linalg.matmul {input_precision = "ieee"} ins(%b_k_70, %b_v_new1_105 : tensor<128x64xbf16>, tensor<64x64xbf16>) outs(%b_h1_bv1_104 : tensor<128x64xf32>) -> tensor<128x64xf32> loc(#loc116)
      %ptr_v2 = arith.addi %ptr_w_29, %c64 : index loc(#loc117)
      %ptr_v2_107 = memref.reinterpret_cast %v to offset: [%ptr_v2], sizes: [64, 64], strides: [512, 1] : memref<?xbf16> to memref<64x64xbf16, strided<[512, 1], offset: ?>> loc(#loc117)
      %b_v2_108 = memref.alloc() : memref<64x64xbf16> loc(#loc74)
      scf.if %b_w_37 {
        linalg.fill ins(%b_v2 : bf16) outs(%b_v2_108 : memref<64x64xbf16>) loc(#loc74)
      } {hivm.unlikely_condition} loc(#loc74)
      %b_v2_109 = memref.subview %ptr_v2_107[0, 0] [%b_w_36, 64] [1, 1] : memref<64x64xbf16, strided<[512, 1], offset: ?>> to memref<?x64xbf16, strided<[512, 1], offset: ?>> loc(#loc74)
      %b_v2_110 = memref.subview %b_v2_108[0, 0] [%b_w_36, 64] [1, 1] : memref<64x64xbf16> to memref<?x64xbf16, strided<[64, 1]>> loc(#loc74)
      memref.copy %b_v2_109, %b_v2_110 : memref<?x64xbf16, strided<[512, 1], offset: ?>> to memref<?x64xbf16, strided<[64, 1]>> loc(#loc74)
      %b_v2_111 = bufferization.to_tensor %b_v2_108 restrict writable : memref<64x64xbf16> loc(#loc74)
      %b_v_new2_112 = arith.extf %b_v2_111 : tensor<64x64xbf16> to tensor<64x64xf32> loc(#loc118)
      %b_v_new2_113 = linalg.matmul {input_precision = "ieee"} ins(%b_w_40, %5 : tensor<64x128xbf16>, tensor<128x64xbf16>) outs(%b_v_new2 : tensor<64x64xf32>) -> tensor<64x64xf32> loc(#loc89)
      %b_v_new2_114 = arith.subf %b_v_new2_112, %b_v_new2_113 : tensor<64x64xf32> loc(#loc119)
      %p_v_new2 = arith.addi %b_k_44, %c64 : index loc(#loc120)
      %p_v_new2_115 = memref.reinterpret_cast %v_new to offset: [%p_v_new2], sizes: [64, 64], strides: [512, 1] : memref<?xbf16> to memref<64x64xbf16, strided<[512, 1], offset: ?>> loc(#loc120)
      %10 = arith.truncf %b_v_new2_114 : tensor<64x64xf32> to tensor<64x64xbf16> loc(#loc61)
      %11 = arith.subi %p_v_new2, %w_base_14 : index loc(#loc3)
      %12 = arith.divsi %11, %b_k : index loc(#loc3)
      %13 = arith.subi %NT_45, %12 : index loc(#loc3)
      %14 = arith.maxsi %13, %c0 : index loc(#loc3)
      %15 = arith.minsi %14, %c64 : index loc(#loc3)
      %16 = arith.remsi %11, %b_k : index loc(#loc3)
      %17 = arith.subi %b_k_0, %16 : index loc(#loc3)
      %18 = arith.maxsi %17, %c0 : index loc(#loc3)
      %19 = arith.minsi %18, %c64 : index loc(#loc3)
      %20 = arith.minsi %b_k_58, %15 : index loc(#loc3)
      %21 = arith.subi %15, %20 : index loc(#loc3)
      %22 = arith.minsi %19, %c0 : index loc(#loc3)
      %23 = arith.subi %19, %22 : index loc(#loc3)
      %extracted_slice_116 = tensor.extract_slice %10[%20, %22] [%21, %23] [1, 1] : tensor<64x64xbf16> to tensor<?x?xbf16> loc(#loc3)
      %subview_117 = memref.subview %p_v_new2_115[0, 0] [%21, %23] [1, 1] : memref<64x64xbf16, strided<[512, 1], offset: ?>> to memref<?x?xbf16, strided<[512, 1], offset: ?>> loc(#loc3)
      bufferization.materialize_in_destination %extracted_slice_116 in writable %subview_117 : (tensor<?x?xbf16>, memref<?x?xbf16, strided<[512, 1], offset: ?>>) -> () loc(#loc3)
      %b_v_new2_118 = arith.mulf %b_v_new2_114, %b_v_new1_101 : tensor<64x64xf32> loc(#loc121)
      %b_h1_bv2_119 = arith.mulf %arg17, %b_h1_bv1_103 : tensor<128x64xf32> loc(#loc122)
      %b_v_new2_120 = arith.truncf %b_v_new2_118 : tensor<64x64xf32> to tensor<64x64xbf16> loc(#loc123)
      %b_h1_bv2_121 = linalg.matmul {input_precision = "ieee"} ins(%b_k_70, %b_v_new2_120 : tensor<128x64xbf16>, tensor<64x64xbf16>) outs(%b_h1_bv2_119 : tensor<128x64xf32>) -> tensor<128x64xf32> loc(#loc124)
      scf.yield %b_h1_bv1_106, %b_h1_bv2_121 : tensor<128x64xf32>, tensor<128x64xf32> loc(#loc66)
    } loc(#loc128)
    return loc(#loc)
  } loc(#loc)
} loc(#loc)
#loc1 = loc("/tmp/kernels_vllm_chunk_gated_delta_rule_fwd_kernel_h_blockdim64.mIs8j7.py":139:23)
#loc2 = loc("/tmp/kernels_vllm_chunk_gated_delta_rule_fwd_kernel_h_blockdim64.mIs8j7.py":102:22)
#loc3 = loc("/tmp/kernels_vllm_chunk_gated_delta_rule_fwd_kernel_h_blockdim64.mIs8j7.py":145:31)
#loc4 = loc("/tmp/kernels_vllm_chunk_gated_delta_rule_fwd_kernel_h_blockdim64.mIs8j7.py":7:38)
#loc5 = loc("/tmp/kernels_vllm_chunk_gated_delta_rule_fwd_kernel_h_blockdim64.mIs8j7.py":114:23)
#loc6 = loc("/tmp/kernels_vllm_chunk_gated_delta_rule_fwd_kernel_h_blockdim64.mIs8j7.py":96:31)
#loc7 = loc("/tmp/kernels_vllm_chunk_gated_delta_rule_fwd_kernel_h_blockdim64.mIs8j7.py":84:57)
#loc8 = loc("/tmp/kernels_vllm_chunk_gated_delta_rule_fwd_kernel_h_blockdim64.mIs8j7.py":84:43)
#loc9 = loc("/tmp/kernels_vllm_chunk_gated_delta_rule_fwd_kernel_h_blockdim64.mIs8j7.py":84:39)
#loc10 = loc("/tmp/kernels_vllm_chunk_gated_delta_rule_fwd_kernel_h_blockdim64.mIs8j7.py":54:24)
#loc11 = loc("/tmp/kernels_vllm_chunk_gated_delta_rule_fwd_kernel_h_blockdim64.mIs8j7.py":87:27)
#loc12 = loc("/tmp/kernels_vllm_chunk_gated_delta_rule_fwd_kernel_h_blockdim64.mIs8j7.py":42:33)
#loc13 = loc("/tmp/kernels_vllm_chunk_gated_delta_rule_fwd_kernel_h_blockdim64.mIs8j7.py":106:30)
#loc14 = loc("/tmp/kernels_vllm_chunk_gated_delta_rule_fwd_kernel_h_blockdim64.mIs8j7.py":89:87)
#loc15 = loc("/tmp/kernels_vllm_chunk_gated_delta_rule_fwd_kernel_h_blockdim64.mIs8j7.py":86:87)
#loc16 = loc("/tmp/kernels_vllm_chunk_gated_delta_rule_fwd_kernel_h_blockdim64.mIs8j7.py":96:41)
#loc17 = loc("/tmp/kernels_vllm_chunk_gated_delta_rule_fwd_kernel_h_blockdim64.mIs8j7.py":112:22)
#loc18 = loc("/tmp/kernels_vllm_chunk_gated_delta_rule_fwd_kernel_h_blockdim64.mIs8j7.py":114:34)
#loc19 = loc("/tmp/kernels_vllm_chunk_gated_delta_rule_fwd_kernel_h_blockdim64.mIs8j7.py":7:32)
#loc20 = loc("/tmp/kernels_vllm_chunk_gated_delta_rule_fwd_kernel_h_blockdim64.mIs8j7.py":131:34)
#loc21 = loc("/tmp/kernels_vllm_chunk_gated_delta_rule_fwd_kernel_h_blockdim64.mIs8j7.py":141:32)
#loc22 = loc("/tmp/kernels_vllm_chunk_gated_delta_rule_fwd_kernel_h_blockdim64.mIs8j7.py":132:34)
#loc23 = loc("/tmp/kernels_vllm_chunk_gated_delta_rule_fwd_kernel_h_blockdim64.mIs8j7.py":83:21)
#loc24 = loc("/tmp/kernels_vllm_chunk_gated_delta_rule_fwd_kernel_h_blockdim64.mIs8j7.py":42:23)
#loc25 = loc("/tmp/kernels_vllm_chunk_gated_delta_rule_fwd_kernel_h_blockdim64.mIs8j7.py":53:25)
#loc26 = loc("/tmp/kernels_vllm_chunk_gated_delta_rule_fwd_kernel_h_blockdim64.mIs8j7.py":55:20)
#loc27 = loc("/tmp/kernels_vllm_chunk_gated_delta_rule_fwd_kernel_h_blockdim64.mIs8j7.py":96:35)
#loc28 = loc("/tmp/kernels_vllm_chunk_gated_delta_rule_fwd_kernel_h_blockdim64.mIs8j7.py":107:43)
#loc29 = loc("/tmp/kernels_vllm_chunk_gated_delta_rule_fwd_kernel_h_blockdim64.mIs8j7.py":107:37)
#loc30 = loc("/tmp/kernels_vllm_chunk_gated_delta_rule_fwd_kernel_h_blockdim64.mIs8j7.py":84:28)
#loc31 = loc("/tmp/kernels_vllm_chunk_gated_delta_rule_fwd_kernel_h_blockdim64.mIs8j7.py":84:47)
#loc32 = loc("/tmp/kernels_vllm_chunk_gated_delta_rule_fwd_kernel_h_blockdim64.mIs8j7.py":87:39)
#loc33 = loc("/tmp/kernels_vllm_chunk_gated_delta_rule_fwd_kernel_h_blockdim64.mIs8j7.py":90:39)
#loc34 = loc("/tmp/kernels_vllm_chunk_gated_delta_rule_fwd_kernel_h_blockdim64.mIs8j7.py":90:27)
#loc35 = loc("/tmp/kernels_vllm_chunk_gated_delta_rule_fwd_kernel_h_blockdim64.mIs8j7.py":92:27)
#loc36 = loc("/tmp/kernels_vllm_chunk_gated_delta_rule_fwd_kernel_h_blockdim64.mIs8j7.py":97:25)
#loc37 = loc("/tmp/kernels_vllm_chunk_gated_delta_rule_fwd_kernel_h_blockdim64.mIs8j7.py":97:48)
#loc38 = loc("/tmp/kernels_vllm_chunk_gated_delta_rule_fwd_kernel_h_blockdim64.mIs8j7.py":98:22)
#loc39 = loc("/tmp/kernels_vllm_chunk_gated_delta_rule_fwd_kernel_h_blockdim64.mIs8j7.py":106:35)
#loc40 = loc("/tmp/kernels_vllm_chunk_gated_delta_rule_fwd_kernel_h_blockdim64.mIs8j7.py":106:39)
#loc41 = loc("/tmp/kernels_vllm_chunk_gated_delta_rule_fwd_kernel_h_blockdim64.mIs8j7.py":106:44)
#loc42 = loc("/tmp/kernels_vllm_chunk_gated_delta_rule_fwd_kernel_h_blockdim64.mIs8j7.py":107:51)
#loc43 = loc("/tmp/kernels_vllm_chunk_gated_delta_rule_fwd_kernel_h_blockdim64.mIs8j7.py":107:27)
#loc44 = loc("/tmp/kernels_vllm_chunk_gated_delta_rule_fwd_kernel_h_blockdim64.mIs8j7.py":112:30)
#loc45 = loc("/tmp/kernels_vllm_chunk_gated_delta_rule_fwd_kernel_h_blockdim64.mIs8j7.py":7:18)
#loc46 = loc("/tmp/kernels_vllm_chunk_gated_delta_rule_fwd_kernel_h_blockdim64.mIs8j7.py":115:26)
#loc47 = loc("/tmp/kernels_vllm_chunk_gated_delta_rule_fwd_kernel_h_blockdim64.mIs8j7.py":121:48)
#loc48 = loc("/tmp/kernels_vllm_chunk_gated_delta_rule_fwd_kernel_h_blockdim64.mIs8j7.py":122:23)
#loc49 = loc("/tmp/kernels_vllm_chunk_gated_delta_rule_fwd_kernel_h_blockdim64.mIs8j7.py":123:27)
#loc50 = loc("/tmp/kernels_vllm_chunk_gated_delta_rule_fwd_kernel_h_blockdim64.mIs8j7.py":124:32)
#loc51 = loc("/tmp/kernels_vllm_chunk_gated_delta_rule_fwd_kernel_h_blockdim64.mIs8j7.py":124:20)
#loc52 = loc("/tmp/kernels_vllm_chunk_gated_delta_rule_fwd_kernel_h_blockdim64.mIs8j7.py":127:108)
#loc53 = loc("/tmp/kernels_vllm_chunk_gated_delta_rule_fwd_kernel_h_blockdim64.mIs8j7.py":128:43)
#loc54 = loc("/tmp/kernels_vllm_chunk_gated_delta_rule_fwd_kernel_h_blockdim64.mIs8j7.py":128:31)
#loc55 = loc("/tmp/kernels_vllm_chunk_gated_delta_rule_fwd_kernel_h_blockdim64.mIs8j7.py":134:31)
#loc56 = loc("/tmp/kernels_vllm_chunk_gated_delta_rule_fwd_kernel_h_blockdim64.mIs8j7.py":135:32)
#loc57 = loc("/tmp/kernels_vllm_chunk_gated_delta_rule_fwd_kernel_h_blockdim64.mIs8j7.py":138:48)
#loc58 = loc("/tmp/kernels_vllm_chunk_gated_delta_rule_fwd_kernel_h_blockdim64.mIs8j7.py":140:27)
#loc59 = loc("/tmp/kernels_vllm_chunk_gated_delta_rule_fwd_kernel_h_blockdim64.mIs8j7.py":141:20)
#loc60 = loc("/tmp/kernels_vllm_chunk_gated_delta_rule_fwd_kernel_h_blockdim64.mIs8j7.py":144:108)
#loc61 = loc("/tmp/kernels_vllm_chunk_gated_delta_rule_fwd_kernel_h_blockdim64.mIs8j7.py":145:43)
#loc62 = loc("/tmp/kernels_vllm_chunk_gated_delta_rule_fwd_kernel_h_blockdim64.mIs8j7.py":148:34)
#loc63 = loc("/tmp/kernels_vllm_chunk_gated_delta_rule_fwd_kernel_h_blockdim64.mIs8j7.py":149:34)
#loc64 = loc("/tmp/kernels_vllm_chunk_gated_delta_rule_fwd_kernel_h_blockdim64.mIs8j7.py":151:31)
#loc65 = loc("/tmp/kernels_vllm_chunk_gated_delta_rule_fwd_kernel_h_blockdim64.mIs8j7.py":152:32)
#loc66 = loc("/tmp/kernels_vllm_chunk_gated_delta_rule_fwd_kernel_h_blockdim64.mIs8j7.py":152:8)
#loc74 = loc("b_v2"(#loc1))
#loc75 = loc("b_k"(#loc2))
#loc76 = loc("b_g"(#loc5))
#loc77 = loc("w_base"(#loc6))
#loc78 = loc("h_base"(#loc7))
#loc79 = loc("h_base"(#loc8))
#loc80 = loc("h_base"(#loc9))
#loc81 = loc("NT"(#loc10))
#loc82 = loc("last_idx"(#loc13))
#loc83 = loc("p_h1_bv2"(#loc14))
#loc84 = loc("p_h1_bv1"(#loc15))
#loc85 = loc("w_base"(#loc16))
#loc86 = loc("b_g"(#loc17))
#loc87 = loc("b_g"(#loc18))
#loc88 = loc("b_v_new1"(#loc20))
#loc89 = loc("b_v_new2"(#loc21))
#loc90 = loc("b_h1_bv1"(#loc22))
#loc91 = loc("b_h1_bv1"(#loc23))
#loc92 = loc("boh"(#loc26))
#loc93 = loc("w_base"(#loc27))
#loc94 = loc("b_g_last"(#loc28))
#loc95 = loc("b_g_last"(#loc29))
#loc96 = loc("h_base"(#loc30))
#loc97 = loc("h_base"(#loc31))
#loc98 = loc("offs_t_wv"(#loc35))
#loc99 = loc("ptr_w"(#loc36))
#loc100 = loc("ptr_w"(#loc37))
#loc101 = loc("b_w"(#loc38))
#loc102 = loc("last_idx"(#loc39))
#loc103 = loc("last_idx"(#loc40))
#loc104 = loc("last_idx"(#loc41))
#loc105 = loc("b_g_last"(#loc42))
#loc106 = loc("b_g_last"(#loc43))
#loc107 = loc("b_g"(#loc44))
#loc108 = loc("b_g_last"(#loc46))
#loc109 = loc("ptr_v1"(#loc47))
#loc110 = loc("b_v1"(#loc48))
#loc111 = loc("b_v_new1"(#loc49))
#loc112 = loc("b_v_new1"(#loc50))
#loc113 = loc("b_v_new1"(#loc51))
#loc114 = loc("p_v_new1"(#loc52))
#loc115 = loc("b_v_new1"(#loc55))
#loc116 = loc("b_h1_bv1"(#loc56))
#loc117 = loc("ptr_v2"(#loc57))
#loc118 = loc("b_v_new2"(#loc58))
#loc119 = loc("b_v_new2"(#loc59))
#loc120 = loc("p_v_new2"(#loc60))
#loc121 = loc("b_v_new2"(#loc62))
#loc122 = loc("b_h1_bv2"(#loc63))
#loc123 = loc("b_v_new2"(#loc64))
#loc124 = loc("b_h1_bv2"(#loc65))
#loc125 = loc(callsite(#loc4 at #loc76))
#loc126 = loc(fused[#loc79, #loc80])
#loc127 = loc(callsite(#loc19 at #loc76))
#loc128 = loc("b_h1_bv2"(#loc91))
#loc129 = loc(callsite(#loc45 at #loc76))
