#loc = loc("/tmp/kernels_vllm_l2norm_fwd_kernel2_loop.qyyDyd.py":6:0)
#loc2 = loc("/home/yuanye/AscendNPU-IR/.venv/lib/python3.9/site-packages/triton/language/standard.py":306:36)
#loc3 = loc("/tmp/kernels_vllm_l2norm_fwd_kernel2_loop.qyyDyd.py":16:36)
#loc8 = loc("/tmp/kernels_vllm_l2norm_fwd_kernel2_loop.qyyDyd.py":15:22)
#loc15 = loc("X"(#loc))
#loc16 = loc("Y"(#loc))
#loc17 = loc("eps"(#loc))
#loc18 = loc("M"(#loc))
#loc19 = loc("square_sum"(#loc3))
#loc24 = loc("square"(#loc8))
#loc28 = loc(callsite(#loc2 at #loc19))
module attributes {hacc.target = #hacc.target<"Ascend910_9362">} {
  func.func @l2norm_fwd_kernel2_loop(%arg0: memref<?xi8> loc("/tmp/kernels_vllm_l2norm_fwd_kernel2_loop.qyyDyd.py":6:0), %arg1: memref<?xi8> loc("/tmp/kernels_vllm_l2norm_fwd_kernel2_loop.qyyDyd.py":6:0), %X: memref<?xbf16> {tt.divisibility = 16 : i32, tt.tensor_kind = 0 : i32} loc("X"(#loc)), %Y: memref<?xbf16> {tt.divisibility = 16 : i32, tt.tensor_kind = 1 : i32} loc("Y"(#loc)), %eps: f32 loc("eps"(#loc)), %M: i32 {tt.divisibility = 16 : i32} loc("M"(#loc)), %arg6: i32 loc("/tmp/kernels_vllm_l2norm_fwd_kernel2_loop.qyyDyd.py":6:0), %arg7: i32 loc("/tmp/kernels_vllm_l2norm_fwd_kernel2_loop.qyyDyd.py":6:0), %arg8: i32 loc("/tmp/kernels_vllm_l2norm_fwd_kernel2_loop.qyyDyd.py":6:0), %arg9: i32 loc("/tmp/kernels_vllm_l2norm_fwd_kernel2_loop.qyyDyd.py":6:0), %arg10: i32 loc("/tmp/kernels_vllm_l2norm_fwd_kernel2_loop.qyyDyd.py":6:0), %arg11: i32 loc("/tmp/kernels_vllm_l2norm_fwd_kernel2_loop.qyyDyd.py":6:0)) attributes {SyncBlockLockArgIdx = 0 : i64, WorkspaceArgIdx = 1 : i64, global_kernel = "local", mix_mode = "aiv", parallel_mode = "simd"} {
    %square_sum = arith.constant 0.000000e+00 : f32 loc(#loc29)
    %xs = arith.constant 0.000000e+00 : bf16 loc(#loc20)
    %xs_0 = arith.constant 16 : index loc(#loc20)
    %xs_1 = arith.constant 64 : index loc(#loc21)
    %base_row = arith.constant 16 : i32 loc(#loc22)
    %base_row_2 = arith.muli %arg9, %base_row : i32 loc(#loc22)
    %base_row_3 = arith.index_cast %base_row_2 : i32 to index loc(#loc22)
    %xs_4 = arith.muli %base_row_3, %xs_1 : index loc(#loc21)
    %xs_5 = memref.reinterpret_cast %X to offset: [%xs_4], sizes: [16, 64], strides: [64, 1] : memref<?xbf16> to memref<16x64xbf16, strided<[64, 1], offset: ?>> loc(#loc21)
    %xs_6 = memref.alloc() : memref<16x64xbf16> loc(#loc20)
    %xs_7 = arith.addi %base_row_3, %xs_0 : index loc(#loc20)
    %M_8 = arith.index_cast %M : i32 to index loc(#loc18)
    %xs_9 = arith.maxsi %base_row_3, %M_8 : index loc(#loc20)
    %xs_10 = arith.minsi %xs_7, %xs_9 : index loc(#loc20)
    %xs_11 = arith.subi %xs_10, %base_row_3 : index loc(#loc20)
    %xs_12 = arith.cmpi slt, %xs_11, %xs_0 : index loc(#loc20)
    scf.if %xs_12 {
      linalg.fill ins(%xs : bf16) outs(%xs_6 : memref<16x64xbf16>) loc(#loc20)
    } {hivm.unlikely_condition} loc(#loc20)
    %xs_13 = memref.subview %xs_5[0, 0] [%xs_11, 64] [1, 1] : memref<16x64xbf16, strided<[64, 1], offset: ?>> to memref<?x64xbf16, strided<[64, 1], offset: ?>> loc(#loc20)
    %xs_14 = memref.subview %xs_6[0, 0] [%xs_11, 64] [1, 1] : memref<16x64xbf16> to memref<?x64xbf16, strided<[64, 1]>> loc(#loc20)
    memref.copy %xs_13, %xs_14 : memref<?x64xbf16, strided<[64, 1], offset: ?>> to memref<?x64xbf16, strided<[64, 1]>> loc(#loc20)
    %xs_15 = bufferization.to_tensor %xs_6 restrict writable : memref<16x64xbf16> loc(#loc20)
    %xs_16 = arith.extf %xs_15 : tensor<16x64xbf16> to tensor<16x64xf32> loc(#loc23)
    %square = arith.mulf %xs_16, %xs_16 : tensor<16x64xf32> loc(#loc24)
    %square_sum_17 = tensor.empty() : tensor<16xf32> loc(#loc28)
    %square_sum_18 = linalg.fill ins(%square_sum : f32) outs(%square_sum_17 : tensor<16xf32>) -> tensor<16xf32> loc(#loc28)
    %square_sum_19 = linalg.reduce ins(%square : tensor<16x64xf32>) outs(%square_sum_18 : tensor<16xf32>) dimensions = [1] 
      (%square_24: f32 loc("square"(#loc8)), %square_sum_25: f32 loc(callsite(#loc2 at #loc19))) {
        %square_sum_26 = arith.addf %square_24, %square_sum_25 : f32 loc(#loc28)
        linalg.yield %square_sum_26 : f32 loc(#loc28)
      } loc(#loc28)
    %square_sum_20 = tensor.expand_shape %square_sum_19 [[0, 1]] output_shape [16, 1] : tensor<16xf32> into tensor<16x1xf32> loc(#loc25)
    %rsqrt = tensor.empty() : tensor<16x1xf32> loc(#loc26)
    %rsqrt_21 = linalg.fill ins(%eps : f32) outs(%rsqrt : tensor<16x1xf32>) -> tensor<16x1xf32> loc(#loc26)
    %rsqrt_22 = arith.addf %square_sum_20, %rsqrt_21 : tensor<16x1xf32> loc(#loc26)
    %rsqrt_23 = math.rsqrt %rsqrt_22 : tensor<16x1xf32> loc(#loc27)
    %reinterpret_cast = memref.reinterpret_cast %Y to offset: [%xs_4], sizes: [16, 64], strides: [64, 1] : memref<?xbf16> to memref<16x64xbf16, strided<[64, 1], offset: ?>> loc(#loc12)
    %0 = tensor.empty() : tensor<16x64xf32> loc(#loc13)
    %collapsed = tensor.collapse_shape %rsqrt_23 [[0, 1]] : tensor<16x1xf32> into tensor<16xf32> loc(#loc13)
    %broadcasted = linalg.broadcast ins(%collapsed : tensor<16xf32>) outs(%0 : tensor<16x64xf32>) dimensions = [1]  loc(#loc13)
    %1 = arith.mulf %xs_16, %broadcasted : tensor<16x64xf32> loc(#loc13)
    %2 = arith.truncf %1 : tensor<16x64xf32> to tensor<16x64xbf16> loc(#loc14)
    %extracted_slice = tensor.extract_slice %2[0, 0] [%xs_11, 64] [1, 1] : tensor<16x64xbf16> to tensor<?x64xbf16> loc(#loc14)
    %subview = memref.subview %reinterpret_cast[0, 0] [%xs_11, 64] [1, 1] : memref<16x64xbf16, strided<[64, 1], offset: ?>> to memref<?x64xbf16, strided<[64, 1], offset: ?>> loc(#loc14)
    bufferization.materialize_in_destination %extracted_slice in writable %subview : (tensor<?x64xbf16>, memref<?x64xbf16, strided<[64, 1], offset: ?>>) -> () loc(#loc14)
    return loc(#loc)
  } loc(#loc)
} loc(#loc)
#loc1 = loc("/home/yuanye/AscendNPU-IR/.venv/lib/python3.9/site-packages/triton/language/standard.py":275:15)
#loc4 = loc("/tmp/kernels_vllm_l2norm_fwd_kernel2_loop.qyyDyd.py":14:21)
#loc5 = loc("/tmp/kernels_vllm_l2norm_fwd_kernel2_loop.qyyDyd.py":14:26)
#loc6 = loc("/tmp/kernels_vllm_l2norm_fwd_kernel2_loop.qyyDyd.py":7:35)
#loc7 = loc("/tmp/kernels_vllm_l2norm_fwd_kernel2_loop.qyyDyd.py":14:75)
#loc9 = loc("/tmp/kernels_vllm_l2norm_fwd_kernel2_loop.qyyDyd.py":16:39)
#loc10 = loc("/tmp/kernels_vllm_l2norm_fwd_kernel2_loop.qyyDyd.py":17:38)
#loc11 = loc("/tmp/kernels_vllm_l2norm_fwd_kernel2_loop.qyyDyd.py":17:25)
#loc12 = loc("/tmp/kernels_vllm_l2norm_fwd_kernel2_loop.qyyDyd.py":19:22)
#loc13 = loc("/tmp/kernels_vllm_l2norm_fwd_kernel2_loop.qyyDyd.py":19:50)
#loc14 = loc("/tmp/kernels_vllm_l2norm_fwd_kernel2_loop.qyyDyd.py":19:57)
#loc20 = loc("xs"(#loc4))
#loc21 = loc("xs"(#loc5))
#loc22 = loc("base_row"(#loc6))
#loc23 = loc("xs"(#loc7))
#loc25 = loc("square_sum"(#loc9))
#loc26 = loc("rsqrt"(#loc10))
#loc27 = loc("rsqrt"(#loc11))
#loc29 = loc(callsite(#loc1 at #loc28))
