#loc = loc("/tmp/kernels_vllm_expand_kernel.QLSyAy.py":7:0)
#loc18 = loc("output_ptr"(#loc))
#loc19 = loc("input_ptr"(#loc))
#loc20 = loc("cu_num_tokens_ptr"(#loc))
#loc21 = loc("replace_from"(#loc))
#loc22 = loc("replace_to"(#loc))
#loc23 = loc("vec_len"(#loc))
module attributes {hacc.target = #hacc.target<"Ascend910_9362">} {
  func.func @expand_kernel(%arg0: memref<?xi8> loc("/tmp/kernels_vllm_expand_kernel.QLSyAy.py":7:0), %arg1: memref<?xi8> loc("/tmp/kernels_vllm_expand_kernel.QLSyAy.py":7:0), %output_ptr: memref<?xi32> {tt.divisibility = 16 : i32, tt.tensor_kind = 1 : i32} loc("output_ptr"(#loc)), %input_ptr: memref<?xi32> {tt.divisibility = 16 : i32, tt.tensor_kind = 0 : i32} loc("input_ptr"(#loc)), %cu_num_tokens_ptr: memref<?xi32> {tt.divisibility = 16 : i32, tt.tensor_kind = 0 : i32} loc("cu_num_tokens_ptr"(#loc)), %replace_from: i32 loc("replace_from"(#loc)), %replace_to: i32 loc("replace_to"(#loc)), %vec_len: i32 loc("vec_len"(#loc)), %arg8: i32 loc("/tmp/kernels_vllm_expand_kernel.QLSyAy.py":7:0), %arg9: i32 loc("/tmp/kernels_vllm_expand_kernel.QLSyAy.py":7:0), %arg10: i32 loc("/tmp/kernels_vllm_expand_kernel.QLSyAy.py":7:0), %arg11: i32 loc("/tmp/kernels_vllm_expand_kernel.QLSyAy.py":7:0), %arg12: i32 loc("/tmp/kernels_vllm_expand_kernel.QLSyAy.py":7:0), %arg13: i32 loc("/tmp/kernels_vllm_expand_kernel.QLSyAy.py":7:0)) attributes {SyncBlockLockArgIdx = 0 : i64, WorkspaceArgIdx = 1 : i64, global_kernel = "local", mix_mode = "aiv", parallel_mode = "simd"} {
    %c16 = arith.constant 16 : index loc(#loc1)
    %start_idx = arith.constant -1 : index loc(#loc24)
    %c1_i32 = arith.constant 1 : i32 loc(#loc3)
    %start_idx_0 = arith.constant 1 : index loc(#loc25)
    %start_idx_1 = arith.constant 4 : index loc(#loc25)
    %c0 = arith.constant 0 : index loc(#loc1)
    %offset = arith.constant 4 : i32 loc(#loc26)
    %c0_i32 = arith.constant 0 : i32 loc(#loc3)
    %start_idx_2 = tensor.empty() : tensor<4xi32> loc(#loc24)
    %start_idx_3 = linalg.fill ins(%c0_i32 : i32) outs(%start_idx_2 : tensor<4xi32>) -> tensor<4xi32> loc(#loc25)
    %offset_4 = arith.muli %arg11, %offset : i32 loc(#loc26)
    %offset_5 = arith.index_cast %offset_4 : i32 to index loc(#loc26)
    %start_idx_6 = memref.reinterpret_cast %cu_num_tokens_ptr to offset: [%offset_5], sizes: [4], strides: [1] : memref<?xi32> to memref<4xi32, strided<[1], offset: ?>> loc(#loc27)
    %start_idx_7 = arith.addi %offset_5, %start_idx : index loc(#loc24)
    %start_idx_8 = memref.reinterpret_cast %cu_num_tokens_ptr to offset: [%start_idx_7], sizes: [4], strides: [1] : memref<?xi32> to memref<4xi32, strided<[1], offset: ?>> loc(#loc24)
    %start_idx_9 = memref.alloc() : memref<4xi32> loc(#loc28)
    %start_idx_10 = arith.addi %offset_5, %start_idx_1 : index loc(#loc28)
    %vec_len_11 = arith.index_cast %vec_len : i32 to index loc(#loc23)
    %start_idx_12 = arith.maxsi %offset_5, %vec_len_11 : index loc(#loc28)
    %start_idx_13 = arith.minsi %start_idx_10, %start_idx_12 : index loc(#loc28)
    %start_idx_14 = arith.subi %start_idx_13, %offset_5 : index loc(#loc28)
    %start_idx_15 = arith.cmpi slt, %start_idx_14, %start_idx_1 : index loc(#loc28)
    scf.if %start_idx_15 {
      linalg.fill ins(%c0_i32 : i32) outs(%start_idx_9 : memref<4xi32>) loc(#loc28)
    } {hivm.unlikely_condition} loc(#loc28)
    %start_idx_16 = memref.subview %start_idx_8[0] [%start_idx_14] [1] : memref<4xi32, strided<[1], offset: ?>> to memref<?xi32, strided<[1], offset: ?>> loc(#loc28)
    %start_idx_17 = memref.subview %start_idx_9[0] [%start_idx_14] [1] : memref<4xi32> to memref<?xi32, strided<[1]>> loc(#loc28)
    memref.copy %start_idx_16, %start_idx_17 : memref<?xi32, strided<[1], offset: ?>> to memref<?xi32, strided<[1]>> loc(#loc28)
    %start_idx_18 = bufferization.to_tensor %start_idx_9 restrict writable : memref<4xi32> loc(#loc28)
    %start_idx_19 = arith.subi %c0, %offset_5 : index loc(#loc25)
    %start_idx_20 = arith.subi %start_idx_0, %offset_5 : index loc(#loc25)
    %start_idx_21 = arith.cmpi slt, %start_idx_19, %c0 : index loc(#loc25)
    %start_idx_22 = arith.cmpi sge, %start_idx_19, %start_idx_1 : index loc(#loc25)
    %start_idx_23 = arith.ori %start_idx_21, %start_idx_22 : i1 loc(#loc25)
    %start_idx_24 = scf.if %start_idx_23 -> (tensor<4xi32>) {
      scf.yield %start_idx_18 : tensor<4xi32> loc(#loc25)
    } else {
      %start_idx_36 = tensor.extract_slice %start_idx_18[0] [%start_idx_19] [1] : tensor<4xi32> to tensor<?xi32> loc(#loc25)
      %start_idx_37 = tensor.insert_slice %start_idx_36 into %start_idx_3[0] [%start_idx_19] [1] : tensor<?xi32> into tensor<4xi32> loc(#loc25)
      %start_idx_38 = tensor.extract_slice %start_idx_37[0] [%start_idx_20] [1] : tensor<4xi32> to tensor<?xi32> loc(#loc25)
      %start_idx_39 = tensor.insert_slice %start_idx_38 into %start_idx_18[0] [%start_idx_20] [1] : tensor<?xi32> into tensor<4xi32> loc(#loc25)
      scf.yield %start_idx_39 : tensor<4xi32> loc(#loc25)
    } loc(#loc25)
    %end_idx = memref.alloc() : memref<4xi32> loc(#loc29)
    scf.if %start_idx_15 {
      linalg.fill ins(%c0_i32 : i32) outs(%end_idx : memref<4xi32>) loc(#loc29)
    } {hivm.unlikely_condition} loc(#loc29)
    %end_idx_25 = memref.subview %start_idx_6[0] [%start_idx_14] [1] : memref<4xi32, strided<[1], offset: ?>> to memref<?xi32, strided<[1], offset: ?>> loc(#loc29)
    %end_idx_26 = memref.subview %end_idx[0] [%start_idx_14] [1] : memref<4xi32> to memref<?xi32, strided<[1]>> loc(#loc29)
    memref.copy %end_idx_25, %end_idx_26 : memref<?xi32, strided<[1], offset: ?>> to memref<?xi32, strided<[1]>> loc(#loc29)
    %end_idx_27 = bufferization.to_tensor %end_idx restrict writable : memref<4xi32> loc(#loc29)
    %src_val = memref.reinterpret_cast %input_ptr to offset: [%offset_5], sizes: [4], strides: [1] : memref<?xi32> to memref<4xi32, strided<[1], offset: ?>> loc(#loc30)
    %src_val_28 = memref.alloc() : memref<4xi32> loc(#loc31)
    scf.if %start_idx_15 {
      linalg.fill ins(%c0_i32 : i32) outs(%src_val_28 : memref<4xi32>) loc(#loc31)
    } {hivm.unlikely_condition} loc(#loc31)
    %src_val_29 = memref.subview %src_val[0] [%start_idx_14] [1] : memref<4xi32, strided<[1], offset: ?>> to memref<?xi32, strided<[1], offset: ?>> loc(#loc31)
    %src_val_30 = memref.subview %src_val_28[0] [%start_idx_14] [1] : memref<4xi32> to memref<?xi32, strided<[1]>> loc(#loc31)
    memref.copy %src_val_29, %src_val_30 : memref<?xi32, strided<[1], offset: ?>> to memref<?xi32, strided<[1]>> loc(#loc31)
    %src_val_31 = bufferization.to_tensor %src_val_28 restrict writable : memref<4xi32> loc(#loc31)
    %src_val_32 = linalg.fill ins(%replace_from : i32) outs(%start_idx_2 : tensor<4xi32>) -> tensor<4xi32> loc(#loc32)
    %src_val_33 = arith.cmpi eq, %src_val_31, %src_val_32 : tensor<4xi32> loc(#loc32)
    %src_val_34 = linalg.fill ins(%replace_to : i32) outs(%start_idx_2 : tensor<4xi32>) -> tensor<4xi32> loc(#loc33)
    %src_val_35 = arith.select %src_val_33, %src_val_34, %src_val_31 : tensor<4xi1>, tensor<4xi32> loc(#loc33)
    %offset1 = tensor.empty() : tensor<16xi32> loc(#loc34)
    scf.for %arg14 = %c0_i32 to %offset step %c1_i32  : i32 {
      %num_tokens1 = arith.index_cast %arg14 : i32 to index loc(#loc35)
      %num_tokens1_36 = tensor.extract %end_idx_27[%num_tokens1] {DiscreteMemAccess} : tensor<4xi32> loc(#loc35)
      %num_tokens1_37 = tensor.extract %start_idx_24[%num_tokens1] {DiscreteMemAccess} : tensor<4xi32> loc(#loc35)
      %num_tokens1_38 = arith.subi %num_tokens1_36, %num_tokens1_37 : i32 loc(#loc35)
      %start_idx1 = tensor.extract %start_idx_24[%num_tokens1] : tensor<4xi32> loc(#loc36)
      %src_val1 = tensor.extract %src_val_35[%num_tokens1] : tensor<4xi32> loc(#loc37)
      %start_idx1_39 = arith.index_cast %start_idx1 : i32 to index loc(#loc36)
      %reinterpret_cast = memref.reinterpret_cast %output_ptr to offset: [%start_idx1_39], sizes: [16], strides: [1] : memref<?xi32> to memref<16xi32, strided<[1], offset: ?>> loc(#loc17)
      %0 = linalg.fill ins(%src_val1 : i32) outs(%offset1 : tensor<16xi32>) -> tensor<16xi32> loc(#loc1)
      %num_tokens1_40 = arith.index_cast %num_tokens1_38 : i32 to index loc(#loc35)
      %1 = arith.maxsi %num_tokens1_40, %c0 : index loc(#loc1)
      %2 = arith.minsi %1, %c16 : index loc(#loc1)
      %extracted_slice = tensor.extract_slice %0[0] [%2] [1] : tensor<16xi32> to tensor<?xi32> loc(#loc1)
      %subview = memref.subview %reinterpret_cast[0] [%2] [1] : memref<16xi32, strided<[1], offset: ?>> to memref<?xi32, strided<[1], offset: ?>> loc(#loc1)
      bufferization.materialize_in_destination %extracted_slice in writable %subview : (tensor<?xi32>, memref<?xi32, strided<[1], offset: ?>>) -> () loc(#loc1)
    } loc(#loc3)
    return loc(#loc)
  } loc(#loc)
} loc(#loc)
#loc1 = loc("/tmp/kernels_vllm_expand_kernel.QLSyAy.py":33:52)
#loc2 = loc("/tmp/kernels_vllm_expand_kernel.QLSyAy.py":21:78)
#loc3 = loc("/tmp/kernels_vllm_expand_kernel.QLSyAy.py":28:25)
#loc4 = loc("/tmp/kernels_vllm_expand_kernel.QLSyAy.py":21:41)
#loc5 = loc("/tmp/kernels_vllm_expand_kernel.QLSyAy.py":18:23)
#loc6 = loc("/tmp/kernels_vllm_expand_kernel.QLSyAy.py":21:69)
#loc7 = loc("/tmp/kernels_vllm_expand_kernel.QLSyAy.py":21:81)
#loc8 = loc("/tmp/kernels_vllm_expand_kernel.QLSyAy.py":22:50)
#loc9 = loc("/tmp/kernels_vllm_expand_kernel.QLSyAy.py":25:34)
#loc10 = loc("/tmp/kernels_vllm_expand_kernel.QLSyAy.py":25:42)
#loc11 = loc("/tmp/kernels_vllm_expand_kernel.QLSyAy.py":26:34)
#loc12 = loc("/tmp/kernels_vllm_expand_kernel.QLSyAy.py":26:60)
#loc13 = loc("/tmp/kernels_vllm_expand_kernel.QLSyAy.py":32:31)
#loc14 = loc("/tmp/kernels_vllm_expand_kernel.QLSyAy.py":29:56)
#loc15 = loc("/tmp/kernels_vllm_expand_kernel.QLSyAy.py":30:54)
#loc16 = loc("/tmp/kernels_vllm_expand_kernel.QLSyAy.py":31:50)
#loc17 = loc("/tmp/kernels_vllm_expand_kernel.QLSyAy.py":33:43)
#loc24 = loc("start_idx"(#loc2))
#loc25 = loc("start_idx"(#loc4))
#loc26 = loc("offset"(#loc5))
#loc27 = loc("start_idx"(#loc6))
#loc28 = loc("start_idx"(#loc7))
#loc29 = loc("end_idx"(#loc8))
#loc30 = loc("src_val"(#loc9))
#loc31 = loc("src_val"(#loc10))
#loc32 = loc("src_val"(#loc11))
#loc33 = loc("src_val"(#loc12))
#loc34 = loc("offset1"(#loc13))
#loc35 = loc("num_tokens1"(#loc14))
#loc36 = loc("start_idx1"(#loc15))
#loc37 = loc("src_val1"(#loc16))
