#loc = loc("/tmp/kernels_vllm_chunk_local_cumsum_scalar_kernel.X5YiRz.py":8:0)
#loc17 = loc("s"(#loc))
#loc18 = loc("o"(#loc))
#loc19 = loc("T"(#loc))
module attributes {hacc.target = #hacc.target<"Ascend910_9362">} {
  func.func private @triton_cumsum_0(tensor<64x1x4xf32>, i32, i1) -> tensor<64x1x4xf32> loc(#loc30)
  func.func @chunk_local_cumsum_scalar_kernel(%arg0: memref<?xi8> loc("/tmp/kernels_vllm_chunk_local_cumsum_scalar_kernel.X5YiRz.py":8:0), %arg1: memref<?xi8> loc("/tmp/kernels_vllm_chunk_local_cumsum_scalar_kernel.X5YiRz.py":8:0), %s: memref<?xbf16> {tt.divisibility = 16 : i32, tt.tensor_kind = 0 : i32} loc("s"(#loc)), %o: memref<?xbf16> {tt.divisibility = 16 : i32, tt.tensor_kind = 1 : i32} loc("o"(#loc)), %T: i32 loc("T"(#loc)), %arg5: i32 loc("/tmp/kernels_vllm_chunk_local_cumsum_scalar_kernel.X5YiRz.py":8:0), %arg6: i32 loc("/tmp/kernels_vllm_chunk_local_cumsum_scalar_kernel.X5YiRz.py":8:0), %arg7: i32 loc("/tmp/kernels_vllm_chunk_local_cumsum_scalar_kernel.X5YiRz.py":8:0), %arg8: i32 loc("/tmp/kernels_vllm_chunk_local_cumsum_scalar_kernel.X5YiRz.py":8:0), %arg9: i32 loc("/tmp/kernels_vllm_chunk_local_cumsum_scalar_kernel.X5YiRz.py":8:0), %arg10: i32 loc("/tmp/kernels_vllm_chunk_local_cumsum_scalar_kernel.X5YiRz.py":8:0)) attributes {SyncBlockLockArgIdx = 0 : i64, WorkspaceArgIdx = 1 : i64, global_kernel = "local", mix_mode = "aiv", parallel_mode = "simd"} {
    %b_o = arith.constant dense<[64, 4]> : tensor<2xi64> loc(#loc20)
    %b_s = arith.constant dense<[1, 64, 4]> : tensor<3xi64> loc(#loc21)
    %b_s_0 = arith.constant false loc(#loc22)
    %b_s_1 = arith.constant 0.000000e+00 : bf16 loc(#loc22)
    %b_s_2 = arith.constant 64 : index loc(#loc22)
    %b_s_3 = arith.constant 0 : index loc(#loc22)
    %ptr_s = arith.constant 4 : index loc(#loc23)
    %ptr_s_4 = arith.constant 0 : i32 loc(#loc23)
    %ptr_s_5 = arith.constant 4 : i32 loc(#loc24)
    %ptr_s_6 = arith.constant 64 : i32 loc(#loc25)
    %0 = arith.muli %arg9, %T : i32 loc(#loc9)
    %ptr_s_7 = arith.muli %0, %ptr_s_5 : i32 loc(#loc24)
    %ptr_s_8 = arith.index_cast %ptr_s_7 : i32 to index loc(#loc24)
    %ptr_s_9 = arith.muli %arg8, %ptr_s_6 : i32 loc(#loc25)
    %ptr_s_10 = arith.maxsi %ptr_s_9, %ptr_s_4 : i32 loc(#loc23)
    %ptr_s_11 = arith.index_cast %ptr_s_10 : i32 to index loc(#loc23)
    %ptr_s_12 = arith.muli %ptr_s_11, %ptr_s : index loc(#loc23)
    %ptr_s_13 = arith.addi %ptr_s_12, %ptr_s_8 : index loc(#loc23)
    %ptr_s_14 = arith.index_cast %T : i32 to index loc(#loc23)
    %ptr_s_15 = memref.reinterpret_cast %s to offset: [%ptr_s_13], sizes: [64, 4], strides: [4, 1] : memref<?xbf16> to memref<64x4xbf16, strided<[4, 1], offset: ?>> loc(#loc23)
    %ptr_o = memref.reinterpret_cast %o to offset: [%ptr_s_13], sizes: [64, 4], strides: [4, 1] : memref<?xbf16> to memref<64x4xbf16, strided<[4, 1], offset: ?>> loc(#loc26)
    %b_s_16 = memref.alloc() : memref<64x4xbf16> loc(#loc22)
    %b_s_17 = arith.divsi %ptr_s_12, %ptr_s : index loc(#loc22)
    %b_s_18 = arith.subi %ptr_s_14, %b_s_17 : index loc(#loc22)
    %b_s_19 = arith.maxsi %b_s_18, %b_s_3 : index loc(#loc22)
    %b_s_20 = arith.minsi %b_s_19, %b_s_2 : index loc(#loc22)
    %b_s_21 = arith.subi %ptr_s_4, %ptr_s_9 : i32 loc(#loc22)
    %b_s_22 = arith.maxsi %b_s_21, %ptr_s_4 : i32 loc(#loc22)
    %b_s_23 = arith.index_cast %b_s_22 : i32 to index loc(#loc22)
    %b_s_24 = arith.minsi %b_s_23, %b_s_20 : index loc(#loc22)
    %b_s_25 = arith.subi %b_s_20, %b_s_24 : index loc(#loc22)
    %b_s_26 = arith.cmpi slt, %b_s_25, %b_s_2 : index loc(#loc22)
    scf.if %b_s_26 {
      linalg.fill ins(%b_s_1 : bf16) outs(%b_s_16 : memref<64x4xbf16>) loc(#loc22)
    } {hivm.unlikely_condition} loc(#loc22)
    %b_s_27 = memref.subview %ptr_s_15[0, 0] [%b_s_25, 4] [1, 1] : memref<64x4xbf16, strided<[4, 1], offset: ?>> to memref<?x4xbf16, strided<[4, 1], offset: ?>> loc(#loc22)
    %b_s_28 = memref.subview %b_s_16[%b_s_24, 0] [%b_s_25, 4] [1, 1] : memref<64x4xbf16> to memref<?x4xbf16, strided<[4, 1], offset: ?>> loc(#loc22)
    memref.copy %b_s_27, %b_s_28 : memref<?x4xbf16, strided<[4, 1], offset: ?>> to memref<?x4xbf16, strided<[4, 1], offset: ?>> loc(#loc22)
    %b_s_29 = bufferization.to_tensor %b_s_16 restrict writable : memref<64x4xbf16> loc(#loc22)
    %b_s_30 = arith.extf %b_s_29 : tensor<64x4xbf16> to tensor<64x4xf32> loc(#loc27)
    %b_s_31 = tensor.reshape %b_s_30(%b_s) : (tensor<64x4xf32>, tensor<3xi64>) -> tensor<1x64x4xf32> loc(#loc21)
    %b_s_32 = tensor.empty() : tensor<64x1x4xf32> loc(#loc28)
    %b_s_33 = linalg.transpose ins(%b_s_31 : tensor<1x64x4xf32>) outs(%b_s_32 : tensor<64x1x4xf32>) permutation = [1, 0, 2]  loc(#loc28)
    %b_o_34 = call @triton_cumsum_0(%b_s_33, %ptr_s_4, %b_s_0) : (tensor<64x1x4xf32>, i32, i1) -> tensor<64x1x4xf32> loc(#loc30)
    %b_o_35 = tensor.empty() : tensor<1x64x4xf32> loc(#loc29)
    %b_o_36 = linalg.transpose ins(%b_o_34 : tensor<64x1x4xf32>) outs(%b_o_35 : tensor<1x64x4xf32>) permutation = [1, 0, 2]  loc(#loc29)
    %b_o_37 = tensor.reshape %b_o_36(%b_o) : (tensor<1x64x4xf32>, tensor<2xi64>) -> tensor<64x4xf32> loc(#loc20)
    %1 = arith.truncf %b_o_37 : tensor<64x4xf32> to tensor<64x4xbf16> loc(#loc14)
    %extracted_slice = tensor.extract_slice %1[%b_s_24, 0] [%b_s_25, 4] [1, 1] : tensor<64x4xbf16> to tensor<?x4xbf16> loc(#loc15)
    %subview = memref.subview %ptr_o[0, 0] [%b_s_25, 4] [1, 1] : memref<64x4xbf16, strided<[4, 1], offset: ?>> to memref<?x4xbf16, strided<[4, 1], offset: ?>> loc(#loc15)
    bufferization.materialize_in_destination %extracted_slice in writable %subview : (tensor<?x4xbf16>, memref<?x4xbf16, strided<[4, 1], offset: ?>>) -> () loc(#loc15)
    return loc(#loc)
  } loc(#loc)
} loc(#loc)
#loc1 = loc("/home/yuanye/AscendNPU-IR/.venv/lib/python3.9/site-packages/triton/language/standard.py":356:60)
#loc2 = loc("/tmp/kernels_vllm_chunk_local_cumsum_scalar_kernel.X5YiRz.py":52:24)
#loc3 = loc("/tmp/kernels_vllm_chunk_local_cumsum_scalar_kernel.X5YiRz.py":56:30)
#loc4 = loc("/tmp/kernels_vllm_chunk_local_cumsum_scalar_kernel.X5YiRz.py":50:30)
#loc5 = loc("/tmp/kernels_vllm_chunk_local_cumsum_scalar_kernel.X5YiRz.py":49:22)
#loc6 = loc("/tmp/kernels_vllm_chunk_local_cumsum_scalar_kernel.X5YiRz.py":47:101)
#loc7 = loc("/tmp/kernels_vllm_chunk_local_cumsum_scalar_kernel.X5YiRz.py":47:44)
#loc8 = loc("/tmp/kernels_vllm_chunk_local_cumsum_scalar_kernel.X5YiRz.py":47:74)
#loc9 = loc("/tmp/kernels_vllm_chunk_local_cumsum_scalar_kernel.X5YiRz.py":33:25)
#loc10 = loc("/tmp/kernels_vllm_chunk_local_cumsum_scalar_kernel.X5YiRz.py":48:101)
#loc11 = loc("/tmp/kernels_vllm_chunk_local_cumsum_scalar_kernel.X5YiRz.py":49:54)
#loc12 = loc("/tmp/kernels_vllm_chunk_local_cumsum_scalar_kernel.X5YiRz.py":51:28)
#loc13 = loc("/tmp/kernels_vllm_chunk_local_cumsum_scalar_kernel.X5YiRz.py":55:28)
#loc14 = loc("/tmp/kernels_vllm_chunk_local_cumsum_scalar_kernel.X5YiRz.py":58:27)
#loc15 = loc("/tmp/kernels_vllm_chunk_local_cumsum_scalar_kernel.X5YiRz.py":58:20)
#loc16 = loc("b_o"(#loc2))
#loc20 = loc("b_o"(#loc3))
#loc21 = loc("b_s"(#loc4))
#loc22 = loc("b_s"(#loc5))
#loc23 = loc("ptr_s"(#loc6))
#loc24 = loc("ptr_s"(#loc7))
#loc25 = loc("ptr_s"(#loc8))
#loc26 = loc("ptr_o"(#loc10))
#loc27 = loc("b_s"(#loc11))
#loc28 = loc("b_s"(#loc12))
#loc29 = loc("b_o"(#loc13))
#loc30 = loc(callsite(#loc1 at #loc16))
