#loc = loc("/tmp/kernels_vllm_layer_norm_fwd_kernel.4PKYMs.py":10:0)
#loc8 = loc("/home/yuanye/AscendNPU-IR/.venv/lib/python3.9/site-packages/triton/language/standard.py":306:36)
#loc9 = loc("/tmp/kernels_vllm_layer_norm_fwd_kernel.4PKYMs.py":59:26)
#loc39 = loc("/tmp/kernels_vllm_layer_norm_fwd_kernel.4PKYMs.py":54:63)
#loc44 = loc("/tmp/kernels_vllm_layer_norm_fwd_kernel.4PKYMs.py":62:32)
#loc45 = loc("/tmp/kernels_vllm_layer_norm_fwd_kernel.4PKYMs.py":62:25)
#loc66 = loc("X"(#loc))
#loc67 = loc("Y"(#loc))
#loc68 = loc("W"(#loc))
#loc69 = loc("B"(#loc))
#loc70 = loc("Z"(#loc))
#loc71 = loc("Mean"(#loc))
#loc72 = loc("Rstd"(#loc))
#loc73 = loc("stride_x_row"(#loc))
#loc74 = loc("stride_y_row"(#loc))
#loc75 = loc("stride_z_row"(#loc))
#loc76 = loc("M"(#loc))
#loc77 = loc("N"(#loc))
#loc78 = loc("eps"(#loc))
#loc83 = loc("mean"(#loc9))
#loc109 = loc("x"(#loc39))
#loc112 = loc("var"(#loc44))
#loc113 = loc("var"(#loc45))
#loc131 = loc(callsite(#loc8 at #loc83))
#loc134 = loc(callsite(#loc8 at #loc113))
module attributes {hacc.target = #hacc.target<"Ascend910_9362">} {
  func.func @layer_norm_fwd_kernel(%arg0: memref<?xi8> loc("/tmp/kernels_vllm_layer_norm_fwd_kernel.4PKYMs.py":10:0), %arg1: memref<?xi8> loc("/tmp/kernels_vllm_layer_norm_fwd_kernel.4PKYMs.py":10:0), %X: memref<?xbf16> {tt.divisibility = 16 : i32, tt.tensor_kind = 0 : i32} loc("X"(#loc)), %Y: memref<?xbf16> {tt.divisibility = 16 : i32, tt.tensor_kind = 1 : i32} loc("Y"(#loc)), %W: memref<?xbf16> {tt.divisibility = 16 : i32, tt.tensor_kind = 0 : i32} loc("W"(#loc)), %B: memref<?xbf16> {tt.divisibility = 16 : i32, tt.tensor_kind = 0 : i32} loc("B"(#loc)), %Z: memref<?xbf16> {tt.divisibility = 16 : i32, tt.tensor_kind = 0 : i32} loc("Z"(#loc)), %Mean: memref<?xf32> {tt.divisibility = 16 : i32, tt.tensor_kind = 1 : i32} loc("Mean"(#loc)), %Rstd: memref<?xf32> {tt.divisibility = 16 : i32, tt.tensor_kind = 1 : i32} loc("Rstd"(#loc)), %stride_x_row: i32 {tt.divisibility = 16 : i32} loc("stride_x_row"(#loc)), %stride_y_row: i32 {tt.divisibility = 16 : i32} loc("stride_y_row"(#loc)), %stride_z_row: i32 {tt.divisibility = 16 : i32} loc("stride_z_row"(#loc)), %M: i32 {tt.divisibility = 16 : i32} loc("M"(#loc)), %N: i32 {tt.divisibility = 16 : i32} loc("N"(#loc)), %eps: f32 loc("eps"(#loc)), %arg15: i32 loc("/tmp/kernels_vllm_layer_norm_fwd_kernel.4PKYMs.py":10:0), %arg16: i32 loc("/tmp/kernels_vllm_layer_norm_fwd_kernel.4PKYMs.py":10:0), %arg17: i32 loc("/tmp/kernels_vllm_layer_norm_fwd_kernel.4PKYMs.py":10:0), %arg18: i32 loc("/tmp/kernels_vllm_layer_norm_fwd_kernel.4PKYMs.py":10:0), %arg19: i32 loc("/tmp/kernels_vllm_layer_norm_fwd_kernel.4PKYMs.py":10:0), %arg20: i32 loc("/tmp/kernels_vllm_layer_norm_fwd_kernel.4PKYMs.py":10:0)) attributes {SyncBlockLockArgIdx = 0 : i64, WorkspaceArgIdx = 1 : i64, global_kernel = "local", mix_mode = "aiv", parallel_mode = "simd"} {
    %z = arith.constant 0.000000e+00 : bf16 loc(#loc79)
    %c0_i32 = arith.constant 0 : i32 loc(#loc2)
    %y = arith.constant 1.000000e+00 : f32 loc(#loc129)
    %x = arith.constant 128 : index loc(#loc81)
    %x_0 = arith.constant 0 : index loc(#loc81)
    %n_iters = arith.constant 1 : i32 loc(#loc130)
    %mean = arith.constant 0.000000e+00 : f32 loc(#loc137)
    %xbar = tensor.empty() : tensor<128xf32> loc(#loc84)
    %y_1 = linalg.fill ins(%mean : f32) outs(%xbar : tensor<128xf32>) -> tensor<128xf32> loc(#loc132)
    %y_2 = linalg.fill ins(%y : f32) outs(%xbar : tensor<128xf32>) -> tensor<128xf32> loc(#loc129)
    %BLOCK_ROWS = arith.cmpi slt, %M, %n_iters : i32 loc(#loc85)
    %BLOCK_ROWS_3 = arith.select %BLOCK_ROWS, %M, %n_iters : i32 loc(#loc86)
    %n_iters_4 = arith.divsi %M, %BLOCK_ROWS_3 : i32 loc(#loc133)
    %remain = arith.remsi %M, %BLOCK_ROWS_3 : i32 loc(#loc88)
    %0 = arith.cmpi slt, %arg18, %remain : i32 loc(#loc16)
    %1 = scf.if %0 -> (i32) {
      %n_iters_8 = arith.addi %n_iters_4, %n_iters : i32 loc(#loc130)
      scf.yield %n_iters_8 : i32 loc(#loc130)
    } else {
      scf.yield %n_iters_4 : i32 loc(#loc18)
    } loc(#loc17)
    %X_base = arith.muli %arg18, %stride_x_row : i32 loc(#loc89)
    %X_base_5 = arith.muli %arg19, %N : i32 loc(#loc90)
    %Y_base = arith.muli %arg18, %stride_y_row : i32 loc(#loc91)
    %Z_base = arith.muli %arg18, %stride_z_row : i32 loc(#loc92)
    %Mean_base = arith.muli %arg19, %M : i32 loc(#loc93)
    %X_base_6 = arith.index_cast %X_base_5 : i32 to index loc(#loc90)
    %mean_7 = arith.sitofp %N : i32 to f32 loc(#loc94)
    %w = memref.reinterpret_cast %W to offset: [%X_base_6], sizes: [128], strides: [1] : memref<?xbf16> to memref<128xbf16, strided<[1], offset: ?>> loc(#loc95)
    %b = memref.reinterpret_cast %B to offset: [%X_base_6], sizes: [128], strides: [1] : memref<?xbf16> to memref<128xbf16, strided<[1], offset: ?>> loc(#loc96)
    scf.for %arg21 = %c0_i32 to %1 step %n_iters  : i32 {
      %X_base_8 = arith.muli %arg21, %BLOCK_ROWS_3 : i32 loc(#loc97)
      %X_base_9 = arith.muli %X_base_8, %stride_x_row : i32 loc(#loc98)
      %X_base_10 = arith.index_cast %X_base_9 : i32 to index loc(#loc98)
      %X_base_11 = arith.index_cast %X_base : i32 to index loc(#loc89)
      %X_base_12 = arith.addi %X_base_10, %X_base_11 : index loc(#loc99)
      %X_base_13 = arith.addi %X_base_12, %X_base_6 : index loc(#loc100)
      %Y_base_14 = arith.muli %X_base_8, %stride_y_row : i32 loc(#loc101)
      %Y_base_15 = arith.index_cast %Y_base_14 : i32 to index loc(#loc101)
      %Y_base_16 = arith.index_cast %Y_base : i32 to index loc(#loc91)
      %Y_base_17 = arith.addi %Y_base_15, %Y_base_16 : index loc(#loc102)
      %Y_base_18 = arith.addi %Y_base_17, %X_base_6 : index loc(#loc103)
      %Z_base_19 = arith.muli %X_base_8, %stride_z_row : i32 loc(#loc104)
      %Z_base_20 = arith.index_cast %Z_base_19 : i32 to index loc(#loc104)
      %Z_base_21 = arith.index_cast %Z_base : i32 to index loc(#loc92)
      %Z_base_22 = arith.addi %Z_base_20, %Z_base_21 : index loc(#loc105)
      %Z_base_23 = arith.addi %Z_base_22, %X_base_6 : index loc(#loc106)
      %X_base_24 = arith.index_cast %X_base_8 : i32 to index loc(#loc97)
      %Mean_base_25 = arith.index_cast %Mean_base : i32 to index loc(#loc93)
      %Mean_base_26 = arith.addi %X_base_24, %Mean_base_25 : index loc(#loc107)
      %x_27 = memref.reinterpret_cast %X to offset: [%X_base_13], sizes: [128], strides: [1] : memref<?xbf16> to memref<128xbf16, strided<[1], offset: ?>> loc(#loc108)
      %x_28 = memref.alloc() : memref<128xbf16> loc(#loc81)
      %N_29 = arith.index_cast %N : i32 to index loc(#loc77)
      %x_30 = arith.maxsi %N_29, %x_0 : index loc(#loc81)
      %x_31 = arith.minsi %x_30, %x : index loc(#loc81)
      %x_32 = arith.cmpi slt, %x_31, %x : index loc(#loc81)
      scf.if %x_32 {
        linalg.fill ins(%z : bf16) outs(%x_28 : memref<128xbf16>) loc(#loc81)
      } {hivm.unlikely_condition} loc(#loc81)
      %x_33 = memref.subview %x_27[0] [%x_31] [1] : memref<128xbf16, strided<[1], offset: ?>> to memref<?xbf16, strided<[1], offset: ?>> loc(#loc81)
      %x_34 = memref.subview %x_28[0] [%x_31] [1] : memref<128xbf16> to memref<?xbf16, strided<[1]>> loc(#loc81)
      memref.copy %x_33, %x_34 : memref<?xbf16, strided<[1], offset: ?>> to memref<?xbf16, strided<[1]>> loc(#loc81)
      %x_35 = bufferization.to_tensor %x_28 restrict writable : memref<128xbf16> loc(#loc81)
      %x_36 = arith.extf %x_35 : tensor<128xbf16> to tensor<128xf32> loc(#loc109)
      %mean_37 = bufferization.alloc_tensor() : tensor<f32> loc(#loc131)
      %mean_38 = linalg.fill ins(%mean : f32) outs(%mean_37 : tensor<f32>) -> tensor<f32> loc(#loc131)
      %mean_39 = linalg.reduce ins(%x_36 : tensor<128xf32>) outs(%mean_38 : tensor<f32>) dimensions = [0] 
        (%x_86: f32 loc("x"(#loc39)), %mean_87: f32 loc(callsite(#loc8 at #loc83))) {
          %mean_88 = arith.addf %x_86, %mean_87 : f32 loc(#loc131)
          linalg.yield %mean_88 : f32 loc(#loc131)
        } loc(#loc131)
      %mean_40 = tensor.extract %mean_39[] : tensor<f32> loc(#loc131)
      %mean_41 = arith.divf %mean_40, %mean_7 : f32 loc(#loc94)
      %row = arith.index_cast %arg18 : i32 to index loc(#loc110)
      %2 = arith.addi %Mean_base_26, %row : index loc(#loc41)
      %3 = tensor.empty() : tensor<1xf32> loc(#loc42)
      %inserted = tensor.insert %mean_41 into %3[%x_0] : tensor<1xf32> loc(#loc42)
      %reinterpret_cast = memref.reinterpret_cast %Mean to offset: [%2], sizes: [1], strides: [1] : memref<?xf32> to memref<1xf32, strided<[1], offset: ?>> loc(#loc42)
      bufferization.materialize_in_destination %inserted in writable %reinterpret_cast : (tensor<1xf32>, memref<1xf32, strided<[1], offset: ?>>) -> () loc(#loc42)
      %xbar_42 = linalg.fill ins(%mean_41 : f32) outs(%xbar : tensor<128xf32>) -> tensor<128xf32> loc(#loc84)
      %xbar_43 = arith.subf %x_36, %xbar_42 : tensor<128xf32> loc(#loc84)
      %xbar_44 = tensor.extract_slice %xbar_43[0] [%x_31] [1] : tensor<128xf32> to tensor<?xf32> loc(#loc111)
      %xbar_45 = tensor.insert_slice %xbar_44 into %y_1[0] [%x_31] [1] : tensor<?xf32> into tensor<128xf32> loc(#loc111)
      %var = arith.mulf %xbar_45, %xbar_45 : tensor<128xf32> loc(#loc112)
      %var_46 = bufferization.alloc_tensor() : tensor<f32> loc(#loc134)
      %var_47 = linalg.fill ins(%mean : f32) outs(%var_46 : tensor<f32>) -> tensor<f32> loc(#loc134)
      %var_48 = linalg.reduce ins(%var : tensor<128xf32>) outs(%var_47 : tensor<f32>) dimensions = [0] 
        (%var_86: f32 loc("var"(#loc44)), %var_87: f32 loc(callsite(#loc8 at #loc113))) {
          %var_88 = arith.addf %var_86, %var_87 : f32 loc(#loc134)
          linalg.yield %var_88 : f32 loc(#loc134)
        } loc(#loc134)
      %var_49 = tensor.extract %var_48[] : tensor<f32> loc(#loc134)
      %var_50 = arith.divf %var_49, %mean_7 : f32 loc(#loc114)
      %rstd = tensor.insert %var_50 into %3[%x_0] : tensor<1xf32> loc(#loc115)
      %rstd_51 = tensor.insert %eps into %3[%x_0] : tensor<1xf32> loc(#loc115)
      %rstd_52 = arith.addf %rstd, %rstd_51 : tensor<1xf32> loc(#loc115)
      %rstd_53 = tensor.extract %rstd_52[%x_0] : tensor<1xf32> loc(#loc115)
      %rstd_54 = tensor.insert %rstd_53 into %3[%x_0] : tensor<1xf32> loc(#loc116)
      %rstd_55 = math.sqrt %rstd_54 : tensor<1xf32> loc(#loc116)
      %rstd_56 = tensor.extract %rstd_55[%x_0] : tensor<1xf32> loc(#loc116)
      %rstd_57 = arith.divf %y, %rstd_56 : f32 loc(#loc117)
      %inserted_58 = tensor.insert %rstd_57 into %3[%x_0] : tensor<1xf32> loc(#loc50)
      %reinterpret_cast_59 = memref.reinterpret_cast %Rstd to offset: [%2], sizes: [1], strides: [1] : memref<?xf32> to memref<1xf32, strided<[1], offset: ?>> loc(#loc50)
      bufferization.materialize_in_destination %inserted_58 in writable %reinterpret_cast_59 : (tensor<1xf32>, memref<1xf32, strided<[1], offset: ?>>) -> () loc(#loc50)
      %w_60 = memref.alloc() : memref<128xbf16> loc(#loc118)
      scf.if %x_32 {
        linalg.fill ins(%z : bf16) outs(%w_60 : memref<128xbf16>) loc(#loc118)
      } {hivm.unlikely_condition} loc(#loc118)
      %w_61 = memref.subview %w[0] [%x_31] [1] : memref<128xbf16, strided<[1], offset: ?>> to memref<?xbf16, strided<[1], offset: ?>> loc(#loc118)
      %w_62 = memref.subview %w_60[0] [%x_31] [1] : memref<128xbf16> to memref<?xbf16, strided<[1]>> loc(#loc118)
      memref.copy %w_61, %w_62 : memref<?xbf16, strided<[1], offset: ?>> to memref<?xbf16, strided<[1]>> loc(#loc118)
      %w_63 = bufferization.to_tensor %w_60 restrict writable : memref<128xbf16> loc(#loc118)
      %w_64 = arith.extf %w_63 : tensor<128xbf16> to tensor<128xf32> loc(#loc119)
      %b_65 = memref.alloc() : memref<128xbf16> loc(#loc120)
      scf.if %x_32 {
        linalg.fill ins(%z : bf16) outs(%b_65 : memref<128xbf16>) loc(#loc120)
      } {hivm.unlikely_condition} loc(#loc120)
      %b_66 = memref.subview %b[0] [%x_31] [1] : memref<128xbf16, strided<[1], offset: ?>> to memref<?xbf16, strided<[1], offset: ?>> loc(#loc120)
      %b_67 = memref.subview %b_65[0] [%x_31] [1] : memref<128xbf16> to memref<?xbf16, strided<[1]>> loc(#loc120)
      memref.copy %b_66, %b_67 : memref<?xbf16, strided<[1], offset: ?>> to memref<?xbf16, strided<[1]>> loc(#loc120)
      %b_68 = bufferization.to_tensor %b_65 restrict writable : memref<128xbf16> loc(#loc120)
      %b_69 = arith.extf %b_68 : tensor<128xbf16> to tensor<128xf32> loc(#loc121)
      %x_hat = linalg.fill ins(%rstd_57 : f32) outs(%xbar : tensor<128xf32>) -> tensor<128xf32> loc(#loc122)
      %x_hat_70 = arith.mulf %xbar_43, %x_hat : tensor<128xf32> loc(#loc122)
      %y_71 = arith.mulf %x_hat_70, %w_64 : tensor<128xf32> loc(#loc123)
      %y_72 = arith.addf %y_71, %b_69 : tensor<128xf32> loc(#loc124)
      %z_73 = memref.reinterpret_cast %Z to offset: [%Z_base_23], sizes: [128], strides: [1] : memref<?xbf16> to memref<128xbf16, strided<[1], offset: ?>> loc(#loc125)
      %z_74 = memref.alloc() : memref<128xbf16> loc(#loc79)
      scf.if %x_32 {
        linalg.fill ins(%z : bf16) outs(%z_74 : memref<128xbf16>) loc(#loc79)
      } {hivm.unlikely_condition} loc(#loc79)
      %z_75 = memref.subview %z_73[0] [%x_31] [1] : memref<128xbf16, strided<[1], offset: ?>> to memref<?xbf16, strided<[1], offset: ?>> loc(#loc79)
      %z_76 = memref.subview %z_74[0] [%x_31] [1] : memref<128xbf16> to memref<?xbf16, strided<[1]>> loc(#loc79)
      memref.copy %z_75, %z_76 : memref<?xbf16, strided<[1], offset: ?>> to memref<?xbf16, strided<[1]>> loc(#loc79)
      %z_77 = bufferization.to_tensor %z_74 restrict writable : memref<128xbf16> loc(#loc79)
      %z_78 = arith.extf %z_77 : tensor<128xbf16> to tensor<128xf32> loc(#loc126)
      %y_79 = arith.subf %y_1, %z_78 : tensor<128xf32> loc(#loc132)
      %y_80 = math.exp %y_79 : tensor<128xf32> loc(#loc135)
      %y_81 = arith.addf %y_80, %y_2 : tensor<128xf32> loc(#loc136)
      %y_82 = arith.divf %y_2, %y_81 : tensor<128xf32> loc(#loc129)
      %y_83 = arith.mulf %z_78, %y_82 : tensor<128xf32> loc(#loc127)
      %y_84 = arith.mulf %y_72, %y_83 : tensor<128xf32> loc(#loc128)
      %reinterpret_cast_85 = memref.reinterpret_cast %Y to offset: [%Y_base_18], sizes: [128], strides: [1] : memref<?xbf16> to memref<128xbf16, strided<[1], offset: ?>> loc(#loc64)
      %4 = arith.truncf %y_84 : tensor<128xf32> to tensor<128xbf16> loc(#loc65)
      %extracted_slice = tensor.extract_slice %4[0] [%x_31] [1] : tensor<128xbf16> to tensor<?xbf16> loc(#loc65)
      %subview = memref.subview %reinterpret_cast_85[0] [%x_31] [1] : memref<128xbf16, strided<[1], offset: ?>> to memref<?xbf16, strided<[1], offset: ?>> loc(#loc65)
      bufferization.materialize_in_destination %extracted_slice in writable %subview : (tensor<?xbf16>, memref<?xbf16, strided<[1], offset: ?>>) -> () loc(#loc65)
    } loc(#loc2)
    return loc(#loc)
  } loc(#loc)
} loc(#loc)
#loc1 = loc("/tmp/kernels_vllm_layer_norm_fwd_kernel.4PKYMs.py":76:24)
#loc2 = loc("/tmp/kernels_vllm_layer_norm_fwd_kernel.4PKYMs.py":41:22)
#loc3 = loc("/home/yuanye/AscendNPU-IR/.venv/lib/python3.9/site-packages/triton/language/standard.py":48:16)
#loc4 = loc("/tmp/kernels_vllm_layer_norm_fwd_kernel.4PKYMs.py":77:32)
#loc5 = loc("/tmp/kernels_vllm_layer_norm_fwd_kernel.4PKYMs.py":54:20)
#loc6 = loc("/tmp/kernels_vllm_layer_norm_fwd_kernel.4PKYMs.py":39:28)
#loc7 = loc("/home/yuanye/AscendNPU-IR/.venv/lib/python3.9/site-packages/triton/language/standard.py":275:15)
#loc10 = loc("/tmp/kernels_vllm_layer_norm_fwd_kernel.4PKYMs.py":61:42)
#loc11 = loc("/home/yuanye/AscendNPU-IR/.venv/lib/python3.9/site-packages/triton/language/standard.py":48:30)
#loc12 = loc("/tmp/kernels_vllm_layer_norm_fwd_kernel.4PKYMs.py":35:26)
#loc13 = loc("/tmp/kernels_vllm_layer_norm_fwd_kernel.4PKYMs.py":35:22)
#loc14 = loc("/tmp/kernels_vllm_layer_norm_fwd_kernel.4PKYMs.py":36:19)
#loc15 = loc("/tmp/kernels_vllm_layer_norm_fwd_kernel.4PKYMs.py":37:17)
#loc16 = loc("/tmp/kernels_vllm_layer_norm_fwd_kernel.4PKYMs.py":38:13)
#loc17 = loc("/tmp/kernels_vllm_layer_norm_fwd_kernel.4PKYMs.py":38:7)
#loc18 = loc(unknown)
#loc19 = loc("/tmp/kernels_vllm_layer_norm_fwd_kernel.4PKYMs.py":42:61)
#loc20 = loc("/tmp/kernels_vllm_layer_norm_fwd_kernel.4PKYMs.py":42:84)
#loc21 = loc("/tmp/kernels_vllm_layer_norm_fwd_kernel.4PKYMs.py":43:61)
#loc22 = loc("/tmp/kernels_vllm_layer_norm_fwd_kernel.4PKYMs.py":45:65)
#loc23 = loc("/tmp/kernels_vllm_layer_norm_fwd_kernel.4PKYMs.py":47:58)
#loc24 = loc("/tmp/kernels_vllm_layer_norm_fwd_kernel.4PKYMs.py":59:39)
#loc25 = loc("/tmp/kernels_vllm_layer_norm_fwd_kernel.4PKYMs.py":70:29)
#loc26 = loc("/tmp/kernels_vllm_layer_norm_fwd_kernel.4PKYMs.py":72:33)
#loc27 = loc("/tmp/kernels_vllm_layer_norm_fwd_kernel.4PKYMs.py":42:26)
#loc28 = loc("/tmp/kernels_vllm_layer_norm_fwd_kernel.4PKYMs.py":42:39)
#loc29 = loc("/tmp/kernels_vllm_layer_norm_fwd_kernel.4PKYMs.py":42:55)
#loc30 = loc("/tmp/kernels_vllm_layer_norm_fwd_kernel.4PKYMs.py":42:76)
#loc31 = loc("/tmp/kernels_vllm_layer_norm_fwd_kernel.4PKYMs.py":43:39)
#loc32 = loc("/tmp/kernels_vllm_layer_norm_fwd_kernel.4PKYMs.py":43:55)
#loc33 = loc("/tmp/kernels_vllm_layer_norm_fwd_kernel.4PKYMs.py":43:76)
#loc34 = loc("/tmp/kernels_vllm_layer_norm_fwd_kernel.4PKYMs.py":45:43)
#loc35 = loc("/tmp/kernels_vllm_layer_norm_fwd_kernel.4PKYMs.py":45:59)
#loc36 = loc("/tmp/kernels_vllm_layer_norm_fwd_kernel.4PKYMs.py":45:80)
#loc37 = loc("/tmp/kernels_vllm_layer_norm_fwd_kernel.4PKYMs.py":47:50)
#loc38 = loc("/tmp/kernels_vllm_layer_norm_fwd_kernel.4PKYMs.py":54:29)
#loc40 = loc("/tmp/kernels_vllm_layer_norm_fwd_kernel.4PKYMs.py":32:24)
#loc41 = loc("/tmp/kernels_vllm_layer_norm_fwd_kernel.4PKYMs.py":60:33)
#loc42 = loc("/tmp/kernels_vllm_layer_norm_fwd_kernel.4PKYMs.py":60:38)
#loc43 = loc("/tmp/kernels_vllm_layer_norm_fwd_kernel.4PKYMs.py":61:48)
#loc46 = loc("/tmp/kernels_vllm_layer_norm_fwd_kernel.4PKYMs.py":62:48)
#loc47 = loc("/tmp/kernels_vllm_layer_norm_fwd_kernel.4PKYMs.py":66:33)
#loc48 = loc("/tmp/kernels_vllm_layer_norm_fwd_kernel.4PKYMs.py":66:27)
#loc49 = loc("/tmp/kernels_vllm_layer_norm_fwd_kernel.4PKYMs.py":66:19)
#loc50 = loc("/tmp/kernels_vllm_layer_norm_fwd_kernel.4PKYMs.py":67:34)
#loc51 = loc("/tmp/kernels_vllm_layer_norm_fwd_kernel.4PKYMs.py":70:20)
#loc52 = loc("/tmp/kernels_vllm_layer_norm_fwd_kernel.4PKYMs.py":70:49)
#loc53 = loc("/tmp/kernels_vllm_layer_norm_fwd_kernel.4PKYMs.py":72:24)
#loc54 = loc("/tmp/kernels_vllm_layer_norm_fwd_kernel.4PKYMs.py":72:53)
#loc55 = loc("/tmp/kernels_vllm_layer_norm_fwd_kernel.4PKYMs.py":73:29)
#loc56 = loc("/tmp/kernels_vllm_layer_norm_fwd_kernel.4PKYMs.py":74:20)
#loc57 = loc("/tmp/kernels_vllm_layer_norm_fwd_kernel.4PKYMs.py":74:24)
#loc58 = loc("/tmp/kernels_vllm_layer_norm_fwd_kernel.4PKYMs.py":76:33)
#loc59 = loc("/tmp/kernels_vllm_layer_norm_fwd_kernel.4PKYMs.py":76:53)
#loc60 = loc("/home/yuanye/AscendNPU-IR/.venv/lib/python3.9/site-packages/triton/language/standard.py":48:29)
#loc61 = loc("/home/yuanye/AscendNPU-IR/.venv/lib/python3.9/site-packages/triton/language/standard.py":48:20)
#loc62 = loc("/tmp/kernels_vllm_layer_norm_fwd_kernel.4PKYMs.py":77:21)
#loc63 = loc("/tmp/kernels_vllm_layer_norm_fwd_kernel.4PKYMs.py":77:17)
#loc64 = loc("/tmp/kernels_vllm_layer_norm_fwd_kernel.4PKYMs.py":79:26)
#loc65 = loc("/tmp/kernels_vllm_layer_norm_fwd_kernel.4PKYMs.py":79:32)
#loc79 = loc("z"(#loc1))
#loc80 = loc("y"(#loc4))
#loc81 = loc("x"(#loc5))
#loc82 = loc("n_iters"(#loc6))
#loc84 = loc("xbar"(#loc10))
#loc85 = loc("BLOCK_ROWS"(#loc12))
#loc86 = loc("BLOCK_ROWS"(#loc13))
#loc87 = loc("n_iters"(#loc14))
#loc88 = loc("remain"(#loc15))
#loc89 = loc("X_base"(#loc19))
#loc90 = loc("X_base"(#loc20))
#loc91 = loc("Y_base"(#loc21))
#loc92 = loc("Z_base"(#loc22))
#loc93 = loc("Mean_base"(#loc23))
#loc94 = loc("mean"(#loc24))
#loc95 = loc("w"(#loc25))
#loc96 = loc("b"(#loc26))
#loc97 = loc("X_base"(#loc27))
#loc98 = loc("X_base"(#loc28))
#loc99 = loc("X_base"(#loc29))
#loc100 = loc("X_base"(#loc30))
#loc101 = loc("Y_base"(#loc31))
#loc102 = loc("Y_base"(#loc32))
#loc103 = loc("Y_base"(#loc33))
#loc104 = loc("Z_base"(#loc34))
#loc105 = loc("Z_base"(#loc35))
#loc106 = loc("Z_base"(#loc36))
#loc107 = loc("Mean_base"(#loc37))
#loc108 = loc("x"(#loc38))
#loc110 = loc("row"(#loc40))
#loc111 = loc("xbar"(#loc43))
#loc114 = loc("var"(#loc46))
#loc115 = loc("rstd"(#loc47))
#loc116 = loc("rstd"(#loc48))
#loc117 = loc("rstd"(#loc49))
#loc118 = loc("w"(#loc51))
#loc119 = loc("w"(#loc52))
#loc120 = loc("b"(#loc53))
#loc121 = loc("b"(#loc54))
#loc122 = loc("x_hat"(#loc55))
#loc123 = loc("y"(#loc56))
#loc124 = loc("y"(#loc57))
#loc125 = loc("z"(#loc58))
#loc126 = loc("z"(#loc59))
#loc127 = loc("y"(#loc62))
#loc128 = loc("y"(#loc63))
#loc129 = loc(callsite(#loc3 at #loc80))
#loc130 = loc("n_iters"(#loc82))
#loc132 = loc(callsite(#loc11 at #loc80))
#loc133 = loc("n_iters"(#loc87))
#loc135 = loc(callsite(#loc60 at #loc80))
#loc136 = loc(callsite(#loc61 at #loc80))
#loc137 = loc(callsite(#loc7 at #loc131))
