#loc = loc("/tmp/kernels_vllm_fused_gdn_gating_kernel.NCAWiM.py":6:0)
#loc35 = loc("g"(#loc))
#loc36 = loc("beta_output"(#loc))
#loc37 = loc("A_log"(#loc))
#loc38 = loc("a"(#loc))
#loc39 = loc("b"(#loc))
#loc40 = loc("dt_bias"(#loc))
#loc41 = loc("seq_len"(#loc))
module attributes {hacc.target = #hacc.target<"Ascend910_9362">} {
  func.func @fused_gdn_gating_kernel(%arg0: memref<?xi8> loc("/tmp/kernels_vllm_fused_gdn_gating_kernel.NCAWiM.py":6:0), %arg1: memref<?xi8> loc("/tmp/kernels_vllm_fused_gdn_gating_kernel.NCAWiM.py":6:0), %g: memref<?xbf16> {tt.divisibility = 16 : i32, tt.tensor_kind = 1 : i32} loc("g"(#loc)), %beta_output: memref<?xbf16> {tt.divisibility = 16 : i32, tt.tensor_kind = 1 : i32} loc("beta_output"(#loc)), %A_log: memref<?xbf16> {tt.divisibility = 16 : i32, tt.tensor_kind = 0 : i32} loc("A_log"(#loc)), %a: memref<?xbf16> {tt.divisibility = 16 : i32, tt.tensor_kind = 0 : i32} loc("a"(#loc)), %b: memref<?xbf16> {tt.divisibility = 16 : i32, tt.tensor_kind = 0 : i32} loc("b"(#loc)), %dt_bias: memref<?xbf16> {tt.divisibility = 16 : i32, tt.tensor_kind = 0 : i32} loc("dt_bias"(#loc)), %seq_len: i32 {tt.divisibility = 16 : i32} loc("seq_len"(#loc)), %arg9: i32 loc("/tmp/kernels_vllm_fused_gdn_gating_kernel.NCAWiM.py":6:0), %arg10: i32 loc("/tmp/kernels_vllm_fused_gdn_gating_kernel.NCAWiM.py":6:0), %arg11: i32 loc("/tmp/kernels_vllm_fused_gdn_gating_kernel.NCAWiM.py":6:0), %arg12: i32 loc("/tmp/kernels_vllm_fused_gdn_gating_kernel.NCAWiM.py":6:0), %arg13: i32 loc("/tmp/kernels_vllm_fused_gdn_gating_kernel.NCAWiM.py":6:0), %arg14: i32 loc("/tmp/kernels_vllm_fused_gdn_gating_kernel.NCAWiM.py":6:0)) attributes {SyncBlockLockArgIdx = 0 : i64, WorkspaceArgIdx = 1 : i64, global_kernel = "local", mix_mode = "aiv", parallel_mode = "simd"} {
    %blk_a = arith.constant 4 : index loc(#loc42)
    %blk_a_0 = arith.constant 16 : index loc(#loc43)
    %blk_b = arith.constant 0.000000e+00 : bf16 loc(#loc44)
    %softplus_x = arith.constant 2.000000e+01 : f32 loc(#loc45)
    %blk_beta_output = arith.constant 1.000000e+00 : f32 loc(#loc66)
    %batch_off = arith.constant 4 : i32 loc(#loc47)
    %off = arith.constant 16 : i32 loc(#loc48)
    %blk_beta_output_1 = arith.constant 0.000000e+00 : f32 loc(#loc67)
    %blk_g = tensor.empty() : tensor<16xf32> loc(#loc49)
    %blk_g_2 = linalg.fill ins(%blk_beta_output_1 : f32) outs(%blk_g : tensor<16xf32>) -> tensor<16xf32> loc(#loc49)
    %blk_beta_output_3 = tensor.empty() : tensor<4x16xf32> loc(#loc67)
    %blk_beta_output_4 = linalg.fill ins(%blk_beta_output : f32) outs(%blk_beta_output_3 : tensor<4x16xf32>) -> tensor<4x16xf32> loc(#loc66)
    %softplus_x_5 = linalg.fill ins(%softplus_x : f32) outs(%blk_beta_output_3 : tensor<4x16xf32>) -> tensor<4x16xf32> loc(#loc45)
    %blk_beta_output_6 = linalg.fill ins(%blk_beta_output_1 : f32) outs(%blk_beta_output_3 : tensor<4x16xf32>) -> tensor<4x16xf32> loc(#loc67)
    %batch_off_7 = arith.muli %arg12, %batch_off : i32 loc(#loc47)
    %off_8 = arith.muli %arg13, %off : i32 loc(#loc48)
    %blk_A_log = memref.reinterpret_cast %A_log to offset: [0], sizes: [16], strides: [1] : memref<?xbf16> to memref<16xbf16, strided<[1]>> loc(#loc50)
    %blk_A_log_9 = memref.alloc() : memref<16xbf16> loc(#loc51)
    memref.copy %blk_A_log, %blk_A_log_9 : memref<16xbf16, strided<[1]>> to memref<16xbf16> loc(#loc51)
    %blk_A_log_10 = bufferization.to_tensor %blk_A_log_9 restrict writable : memref<16xbf16> loc(#loc51)
    %batch_off_11 = arith.index_cast %batch_off_7 : i32 to index loc(#loc47)
    %seq_len_12 = arith.index_cast %seq_len : i32 to index loc(#loc41)
    %blk_a_13 = arith.muli %batch_off_11, %seq_len_12 : index loc(#loc43)
    %blk_a_14 = arith.muli %blk_a_13, %blk_a_0 : index loc(#loc43)
    %blk_a_15 = arith.muli %seq_len_12, %blk_a_0 : index loc(#loc43)
    %off_16 = arith.index_cast %off_8 : i32 to index loc(#loc48)
    %blk_a_17 = arith.addi %blk_a_14, %off_16 : index loc(#loc43)
    %blk_a_18 = memref.reinterpret_cast %a to offset: [%blk_a_17], sizes: [4, 16], strides: [%blk_a_15, 1] : memref<?xbf16> to memref<4x16xbf16, strided<[?, 1], offset: ?>> loc(#loc43)
    %blk_a_19 = memref.alloc() : memref<4x16xbf16> loc(#loc42)
    %blk_a_20 = arith.addi %batch_off_11, %blk_a : index loc(#loc42)
    %blk_a_21 = arith.maxsi %batch_off_11, %blk_a : index loc(#loc42)
    %blk_a_22 = arith.minsi %blk_a_20, %blk_a_21 : index loc(#loc42)
    %blk_a_23 = arith.subi %blk_a_22, %batch_off_11 : index loc(#loc42)
    %blk_a_24 = arith.minsi %blk_a_23, %blk_a : index loc(#loc42)
    %blk_a_25 = arith.cmpi slt, %blk_a_24, %blk_a : index loc(#loc42)
    scf.if %blk_a_25 {
      linalg.fill ins(%blk_b : bf16) outs(%blk_a_19 : memref<4x16xbf16>) loc(#loc42)
    } {hivm.unlikely_condition} loc(#loc42)
    %blk_a_26 = memref.subview %blk_a_18[0, 0] [%blk_a_24, 16] [1, 1] : memref<4x16xbf16, strided<[?, 1], offset: ?>> to memref<?x16xbf16, strided<[?, 1], offset: ?>> loc(#loc42)
    %blk_a_27 = memref.subview %blk_a_19[0, 0] [%blk_a_24, 16] [1, 1] : memref<4x16xbf16> to memref<?x16xbf16, strided<[16, 1]>> loc(#loc42)
    memref.copy %blk_a_26, %blk_a_27 : memref<?x16xbf16, strided<[?, 1], offset: ?>> to memref<?x16xbf16, strided<[16, 1]>> loc(#loc42)
    %blk_a_28 = bufferization.to_tensor %blk_a_19 restrict writable : memref<4x16xbf16> loc(#loc42)
    %blk_b_29 = memref.reinterpret_cast %b to offset: [%blk_a_17], sizes: [4, 16], strides: [%blk_a_15, 1] : memref<?xbf16> to memref<4x16xbf16, strided<[?, 1], offset: ?>> loc(#loc52)
    %blk_b_30 = memref.alloc() : memref<4x16xbf16> loc(#loc44)
    scf.if %blk_a_25 {
      linalg.fill ins(%blk_b : bf16) outs(%blk_b_30 : memref<4x16xbf16>) loc(#loc44)
    } {hivm.unlikely_condition} loc(#loc44)
    %blk_b_31 = memref.subview %blk_b_29[0, 0] [%blk_a_24, 16] [1, 1] : memref<4x16xbf16, strided<[?, 1], offset: ?>> to memref<?x16xbf16, strided<[?, 1], offset: ?>> loc(#loc44)
    %blk_b_32 = memref.subview %blk_b_30[0, 0] [%blk_a_24, 16] [1, 1] : memref<4x16xbf16> to memref<?x16xbf16, strided<[16, 1]>> loc(#loc44)
    memref.copy %blk_b_31, %blk_b_32 : memref<?x16xbf16, strided<[?, 1], offset: ?>> to memref<?x16xbf16, strided<[16, 1]>> loc(#loc44)
    %blk_b_33 = bufferization.to_tensor %blk_b_30 restrict writable : memref<4x16xbf16> loc(#loc44)
    %blk_bias = memref.reinterpret_cast %dt_bias to offset: [0], sizes: [16], strides: [1] : memref<?xbf16> to memref<16xbf16, strided<[1]>> loc(#loc53)
    %blk_bias_34 = memref.alloc() : memref<16xbf16> loc(#loc54)
    memref.copy %blk_bias, %blk_bias_34 : memref<16xbf16, strided<[1]>> to memref<16xbf16> loc(#loc54)
    %blk_bias_35 = bufferization.to_tensor %blk_bias_34 restrict writable : memref<16xbf16> loc(#loc54)
    %x = arith.extf %blk_a_28 : tensor<4x16xbf16> to tensor<4x16xf32> loc(#loc55)
    %x_36 = arith.extf %blk_bias_35 : tensor<16xbf16> to tensor<16xf32> loc(#loc56)
    %x_37 = linalg.broadcast ins(%x_36 : tensor<16xf32>) outs(%blk_beta_output_3 : tensor<4x16xf32>) dimensions = [0]  loc(#loc57)
    %x_38 = arith.addf %x, %x_37 : tensor<4x16xf32> loc(#loc57)
    %softplus_x_39 = arith.cmpf ole, %x_38, %softplus_x_5 : tensor<4x16xf32> loc(#loc45)
    %softplus_x_40 = math.exp %x_38 : tensor<4x16xf32> loc(#loc58)
    %softplus_x_41 = arith.addf %softplus_x_40, %blk_beta_output_4 : tensor<4x16xf32> loc(#loc59)
    %softplus_x_42 = math.log %softplus_x_41 : tensor<4x16xf32> loc(#loc60)
    %softplus_x_43 = arith.select %softplus_x_39, %softplus_x_42, %x_38 : tensor<4x16xi1>, tensor<4x16xf32> loc(#loc61)
    %blk_g_44 = arith.extf %blk_A_log_10 : tensor<16xbf16> to tensor<16xf32> loc(#loc62)
    %blk_g_45 = math.exp %blk_g_44 : tensor<16xf32> loc(#loc63)
    %blk_g_46 = arith.subf %blk_g_2, %blk_g_45 : tensor<16xf32> loc(#loc49)
    %blk_g_47 = linalg.broadcast ins(%blk_g_46 : tensor<16xf32>) outs(%blk_beta_output_3 : tensor<4x16xf32>) dimensions = [0]  loc(#loc64)
    %blk_g_48 = arith.mulf %blk_g_47, %softplus_x_43 : tensor<4x16xf32> loc(#loc64)
    %reinterpret_cast = memref.reinterpret_cast %g to offset: [%blk_a_17], sizes: [4, 16], strides: [%blk_a_15, 1] : memref<?xbf16> to memref<4x16xbf16, strided<[?, 1], offset: ?>> loc(#loc26)
    %0 = arith.truncf %blk_g_48 : tensor<4x16xf32> to tensor<4x16xbf16> loc(#loc27)
    %extracted_slice = tensor.extract_slice %0[0, 0] [%blk_a_24, 16] [1, 1] : tensor<4x16xbf16> to tensor<?x16xbf16> loc(#loc28)
    %subview = memref.subview %reinterpret_cast[0, 0] [%blk_a_24, 16] [1, 1] : memref<4x16xbf16, strided<[?, 1], offset: ?>> to memref<?x16xbf16, strided<[?, 1], offset: ?>> loc(#loc28)
    bufferization.materialize_in_destination %extracted_slice in writable %subview : (tensor<?x16xbf16>, memref<?x16xbf16, strided<[?, 1], offset: ?>>) -> () loc(#loc28)
    %blk_beta_output_49 = arith.extf %blk_b_33 : tensor<4x16xbf16> to tensor<4x16xf32> loc(#loc65)
    %blk_beta_output_50 = arith.subf %blk_beta_output_6, %blk_beta_output_49 : tensor<4x16xf32> loc(#loc67)
    %blk_beta_output_51 = math.exp %blk_beta_output_50 : tensor<4x16xf32> loc(#loc68)
    %blk_beta_output_52 = arith.addf %blk_beta_output_51, %blk_beta_output_4 : tensor<4x16xf32> loc(#loc69)
    %blk_beta_output_53 = arith.divf %blk_beta_output_4, %blk_beta_output_52 : tensor<4x16xf32> loc(#loc66)
    %reinterpret_cast_54 = memref.reinterpret_cast %beta_output to offset: [%blk_a_17], sizes: [4, 16], strides: [%blk_a_15, 1] : memref<?xbf16> to memref<4x16xbf16, strided<[?, 1], offset: ?>> loc(#loc32)
    %1 = arith.truncf %blk_beta_output_53 : tensor<4x16xf32> to tensor<4x16xbf16> loc(#loc33)
    %extracted_slice_55 = tensor.extract_slice %1[0, 0] [%blk_a_24, 16] [1, 1] : tensor<4x16xbf16> to tensor<?x16xbf16> loc(#loc34)
    %subview_56 = memref.subview %reinterpret_cast_54[0, 0] [%blk_a_24, 16] [1, 1] : memref<4x16xbf16, strided<[?, 1], offset: ?>> to memref<?x16xbf16, strided<[?, 1], offset: ?>> loc(#loc34)
    bufferization.materialize_in_destination %extracted_slice_55 in writable %subview_56 : (tensor<?x16xbf16>, memref<?x16xbf16, strided<[?, 1], offset: ?>>) -> () loc(#loc34)
    return loc(#loc)
  } loc(#loc)
} loc(#loc)
#loc1 = loc("/tmp/kernels_vllm_fused_gdn_gating_kernel.NCAWiM.py":35:28)
#loc2 = loc("/tmp/kernels_vllm_fused_gdn_gating_kernel.NCAWiM.py":35:32)
#loc3 = loc("/tmp/kernels_vllm_fused_gdn_gating_kernel.NCAWiM.py":36:28)
#loc4 = loc("/tmp/kernels_vllm_fused_gdn_gating_kernel.NCAWiM.py":40:46)
#loc5 = loc("/home/yuanye/AscendNPU-IR/.venv/lib/python3.9/site-packages/triton/language/standard.py":48:16)
#loc6 = loc("/tmp/kernels_vllm_fused_gdn_gating_kernel.NCAWiM.py":46:41)
#loc7 = loc("/tmp/kernels_vllm_fused_gdn_gating_kernel.NCAWiM.py":25:37)
#loc8 = loc("/tmp/kernels_vllm_fused_gdn_gating_kernel.NCAWiM.py":30:67)
#loc9 = loc("/home/yuanye/AscendNPU-IR/.venv/lib/python3.9/site-packages/triton/language/standard.py":48:30)
#loc10 = loc("/tmp/kernels_vllm_fused_gdn_gating_kernel.NCAWiM.py":42:21)
#loc11 = loc("/tmp/kernels_vllm_fused_gdn_gating_kernel.NCAWiM.py":34:40)
#loc12 = loc("/tmp/kernels_vllm_fused_gdn_gating_kernel.NCAWiM.py":34:32)
#loc13 = loc("/tmp/kernels_vllm_fused_gdn_gating_kernel.NCAWiM.py":36:32)
#loc14 = loc("/tmp/kernels_vllm_fused_gdn_gating_kernel.NCAWiM.py":37:41)
#loc15 = loc("/tmp/kernels_vllm_fused_gdn_gating_kernel.NCAWiM.py":37:31)
#loc16 = loc("/tmp/kernels_vllm_fused_gdn_gating_kernel.NCAWiM.py":39:25)
#loc17 = loc("/tmp/kernels_vllm_fused_gdn_gating_kernel.NCAWiM.py":39:51)
#loc18 = loc("/tmp/kernels_vllm_fused_gdn_gating_kernel.NCAWiM.py":39:39)
#loc19 = loc("/tmp/kernels_vllm_fused_gdn_gating_kernel.NCAWiM.py":40:88)
#loc20 = loc("/tmp/kernels_vllm_fused_gdn_gating_kernel.NCAWiM.py":40:81)
#loc21 = loc("/tmp/kernels_vllm_fused_gdn_gating_kernel.NCAWiM.py":40:77)
#loc22 = loc("/tmp/kernels_vllm_fused_gdn_gating_kernel.NCAWiM.py":40:100)
#loc23 = loc("/tmp/kernels_vllm_fused_gdn_gating_kernel.NCAWiM.py":42:41)
#loc24 = loc("/tmp/kernels_vllm_fused_gdn_gating_kernel.NCAWiM.py":42:28)
#loc25 = loc("/tmp/kernels_vllm_fused_gdn_gating_kernel.NCAWiM.py":42:56)
#loc26 = loc("/tmp/kernels_vllm_fused_gdn_gating_kernel.NCAWiM.py":43:25)
#loc27 = loc("/tmp/kernels_vllm_fused_gdn_gating_kernel.NCAWiM.py":43:39)
#loc28 = loc("/tmp/kernels_vllm_fused_gdn_gating_kernel.NCAWiM.py":43:30)
#loc29 = loc("/tmp/kernels_vllm_fused_gdn_gating_kernel.NCAWiM.py":46:50)
#loc30 = loc("/home/yuanye/AscendNPU-IR/.venv/lib/python3.9/site-packages/triton/language/standard.py":48:29)
#loc31 = loc("/home/yuanye/AscendNPU-IR/.venv/lib/python3.9/site-packages/triton/language/standard.py":48:20)
#loc32 = loc("/tmp/kernels_vllm_fused_gdn_gating_kernel.NCAWiM.py":47:35)
#loc33 = loc("/tmp/kernels_vllm_fused_gdn_gating_kernel.NCAWiM.py":47:59)
#loc34 = loc("/tmp/kernels_vllm_fused_gdn_gating_kernel.NCAWiM.py":47:40)
#loc42 = loc("blk_a"(#loc1))
#loc43 = loc("blk_a"(#loc2))
#loc44 = loc("blk_b"(#loc3))
#loc45 = loc("softplus_x"(#loc4))
#loc46 = loc("blk_beta_output"(#loc6))
#loc47 = loc("batch_off"(#loc7))
#loc48 = loc("off"(#loc8))
#loc49 = loc("blk_g"(#loc10))
#loc50 = loc("blk_A_log"(#loc11))
#loc51 = loc("blk_A_log"(#loc12))
#loc52 = loc("blk_b"(#loc13))
#loc53 = loc("blk_bias"(#loc14))
#loc54 = loc("blk_bias"(#loc15))
#loc55 = loc("x"(#loc16))
#loc56 = loc("x"(#loc17))
#loc57 = loc("x"(#loc18))
#loc58 = loc("softplus_x"(#loc19))
#loc59 = loc("softplus_x"(#loc20))
#loc60 = loc("softplus_x"(#loc21))
#loc61 = loc("softplus_x"(#loc22))
#loc62 = loc("blk_g"(#loc23))
#loc63 = loc("blk_g"(#loc24))
#loc64 = loc("blk_g"(#loc25))
#loc65 = loc("blk_beta_output"(#loc29))
#loc66 = loc(callsite(#loc5 at #loc46))
#loc67 = loc(callsite(#loc9 at #loc46))
#loc68 = loc(callsite(#loc30 at #loc46))
#loc69 = loc(callsite(#loc31 at #loc46))
