#loc = loc("/tmp/triton.language.static_range.P09kW9.py":11:0)
#loc5 = loc("x_ptr"(#loc))
#loc6 = loc("out_ptr"(#loc))
module attributes {hacc.target = #hacc.target<"Ascend910_9362">} {
  func.func @static_range_kernel(%arg0: memref<?xi8> loc("/tmp/triton.language.static_range.P09kW9.py":11:0), %arg1: memref<?xi8> loc("/tmp/triton.language.static_range.P09kW9.py":11:0), %x_ptr: memref<?xf32> {tt.divisibility = 16 : i32, tt.tensor_kind = 0 : i32} loc("x_ptr"(#loc)), %out_ptr: memref<?xf32> {tt.divisibility = 16 : i32, tt.tensor_kind = 1 : i32} loc("out_ptr"(#loc)), %arg4: i32 loc("/tmp/triton.language.static_range.P09kW9.py":11:0), %arg5: i32 loc("/tmp/triton.language.static_range.P09kW9.py":11:0), %arg6: i32 loc("/tmp/triton.language.static_range.P09kW9.py":11:0), %arg7: i32 loc("/tmp/triton.language.static_range.P09kW9.py":11:0), %arg8: i32 loc("/tmp/triton.language.static_range.P09kW9.py":11:0), %arg9: i32 loc("/tmp/triton.language.static_range.P09kW9.py":11:0)) attributes {SyncBlockLockArgIdx = 0 : i64, WorkspaceArgIdx = 1 : i64, global_kernel = "local", mix_mode = "aiv", parallel_mode = "simd"} {
    %x = arith.constant 0 : index loc(#loc7)
    %x_0 = memref.reinterpret_cast %x_ptr to offset: [0], sizes: [1], strides: [1] : memref<?xf32> to memref<1xf32, strided<[1]>> loc(#loc8)
    %x_1 = memref.load %x_0[%x] : memref<1xf32, strided<[1]>> loc(#loc7)
    %0 = tensor.empty() : tensor<1xf32> loc(#loc3)
    %inserted = tensor.insert %x_1 into %0[%x] : tensor<1xf32> loc(#loc3)
    %1 = arith.mulf %inserted, %inserted : tensor<1xf32> loc(#loc3)
    %extracted = tensor.extract %1[%x] : tensor<1xf32> loc(#loc3)
    %inserted_2 = tensor.insert %extracted into %0[%x] : tensor<1xf32> loc(#loc4)
    %reinterpret_cast = memref.reinterpret_cast %out_ptr to offset: [0], sizes: [1], strides: [1] : memref<?xf32> to memref<1xf32, strided<[1]>> loc(#loc4)
    bufferization.materialize_in_destination %inserted_2 in writable %reinterpret_cast : (tensor<1xf32>, memref<1xf32, strided<[1]>>) -> () loc(#loc4)
    %x_3 = memref.reinterpret_cast %x_ptr to offset: [1], sizes: [1], strides: [1] : memref<?xf32> to memref<1xf32, strided<[1], offset: 1>> loc(#loc8)
    %x_4 = memref.load %x_3[%x] : memref<1xf32, strided<[1], offset: 1>> loc(#loc7)
    %inserted_5 = tensor.insert %x_4 into %0[%x] : tensor<1xf32> loc(#loc3)
    %2 = arith.mulf %inserted_5, %inserted_5 : tensor<1xf32> loc(#loc3)
    %extracted_6 = tensor.extract %2[%x] : tensor<1xf32> loc(#loc3)
    %inserted_7 = tensor.insert %extracted_6 into %0[%x] : tensor<1xf32> loc(#loc4)
    %reinterpret_cast_8 = memref.reinterpret_cast %out_ptr to offset: [1], sizes: [1], strides: [1] : memref<?xf32> to memref<1xf32, strided<[1], offset: 1>> loc(#loc4)
    bufferization.materialize_in_destination %inserted_7 in writable %reinterpret_cast_8 : (tensor<1xf32>, memref<1xf32, strided<[1], offset: 1>>) -> () loc(#loc4)
    %x_9 = memref.reinterpret_cast %x_ptr to offset: [2], sizes: [1], strides: [1] : memref<?xf32> to memref<1xf32, strided<[1], offset: 2>> loc(#loc8)
    %x_10 = memref.load %x_9[%x] : memref<1xf32, strided<[1], offset: 2>> loc(#loc7)
    %inserted_11 = tensor.insert %x_10 into %0[%x] : tensor<1xf32> loc(#loc3)
    %3 = arith.mulf %inserted_11, %inserted_11 : tensor<1xf32> loc(#loc3)
    %extracted_12 = tensor.extract %3[%x] : tensor<1xf32> loc(#loc3)
    %inserted_13 = tensor.insert %extracted_12 into %0[%x] : tensor<1xf32> loc(#loc4)
    %reinterpret_cast_14 = memref.reinterpret_cast %out_ptr to offset: [2], sizes: [1], strides: [1] : memref<?xf32> to memref<1xf32, strided<[1], offset: 2>> loc(#loc4)
    bufferization.materialize_in_destination %inserted_13 in writable %reinterpret_cast_14 : (tensor<1xf32>, memref<1xf32, strided<[1], offset: 2>>) -> () loc(#loc4)
    %x_15 = memref.reinterpret_cast %x_ptr to offset: [3], sizes: [1], strides: [1] : memref<?xf32> to memref<1xf32, strided<[1], offset: 3>> loc(#loc8)
    %x_16 = memref.load %x_15[%x] : memref<1xf32, strided<[1], offset: 3>> loc(#loc7)
    %inserted_17 = tensor.insert %x_16 into %0[%x] : tensor<1xf32> loc(#loc3)
    %4 = arith.mulf %inserted_17, %inserted_17 : tensor<1xf32> loc(#loc3)
    %extracted_18 = tensor.extract %4[%x] : tensor<1xf32> loc(#loc3)
    %inserted_19 = tensor.insert %extracted_18 into %0[%x] : tensor<1xf32> loc(#loc4)
    %reinterpret_cast_20 = memref.reinterpret_cast %out_ptr to offset: [3], sizes: [1], strides: [1] : memref<?xf32> to memref<1xf32, strided<[1], offset: 3>> loc(#loc4)
    bufferization.materialize_in_destination %inserted_19 in writable %reinterpret_cast_20 : (tensor<1xf32>, memref<1xf32, strided<[1], offset: 3>>) -> () loc(#loc4)
    %x_21 = memref.reinterpret_cast %x_ptr to offset: [4], sizes: [1], strides: [1] : memref<?xf32> to memref<1xf32, strided<[1], offset: 4>> loc(#loc8)
    %x_22 = memref.load %x_21[%x] : memref<1xf32, strided<[1], offset: 4>> loc(#loc7)
    %inserted_23 = tensor.insert %x_22 into %0[%x] : tensor<1xf32> loc(#loc3)
    %5 = arith.mulf %inserted_23, %inserted_23 : tensor<1xf32> loc(#loc3)
    %extracted_24 = tensor.extract %5[%x] : tensor<1xf32> loc(#loc3)
    %inserted_25 = tensor.insert %extracted_24 into %0[%x] : tensor<1xf32> loc(#loc4)
    %reinterpret_cast_26 = memref.reinterpret_cast %out_ptr to offset: [4], sizes: [1], strides: [1] : memref<?xf32> to memref<1xf32, strided<[1], offset: 4>> loc(#loc4)
    bufferization.materialize_in_destination %inserted_25 in writable %reinterpret_cast_26 : (tensor<1xf32>, memref<1xf32, strided<[1], offset: 4>>) -> () loc(#loc4)
    %x_27 = memref.reinterpret_cast %x_ptr to offset: [5], sizes: [1], strides: [1] : memref<?xf32> to memref<1xf32, strided<[1], offset: 5>> loc(#loc8)
    %x_28 = memref.load %x_27[%x] : memref<1xf32, strided<[1], offset: 5>> loc(#loc7)
    %inserted_29 = tensor.insert %x_28 into %0[%x] : tensor<1xf32> loc(#loc3)
    %6 = arith.mulf %inserted_29, %inserted_29 : tensor<1xf32> loc(#loc3)
    %extracted_30 = tensor.extract %6[%x] : tensor<1xf32> loc(#loc3)
    %inserted_31 = tensor.insert %extracted_30 into %0[%x] : tensor<1xf32> loc(#loc4)
    %reinterpret_cast_32 = memref.reinterpret_cast %out_ptr to offset: [5], sizes: [1], strides: [1] : memref<?xf32> to memref<1xf32, strided<[1], offset: 5>> loc(#loc4)
    bufferization.materialize_in_destination %inserted_31 in writable %reinterpret_cast_32 : (tensor<1xf32>, memref<1xf32, strided<[1], offset: 5>>) -> () loc(#loc4)
    %x_33 = memref.reinterpret_cast %x_ptr to offset: [6], sizes: [1], strides: [1] : memref<?xf32> to memref<1xf32, strided<[1], offset: 6>> loc(#loc8)
    %x_34 = memref.load %x_33[%x] : memref<1xf32, strided<[1], offset: 6>> loc(#loc7)
    %inserted_35 = tensor.insert %x_34 into %0[%x] : tensor<1xf32> loc(#loc3)
    %7 = arith.mulf %inserted_35, %inserted_35 : tensor<1xf32> loc(#loc3)
    %extracted_36 = tensor.extract %7[%x] : tensor<1xf32> loc(#loc3)
    %inserted_37 = tensor.insert %extracted_36 into %0[%x] : tensor<1xf32> loc(#loc4)
    %reinterpret_cast_38 = memref.reinterpret_cast %out_ptr to offset: [6], sizes: [1], strides: [1] : memref<?xf32> to memref<1xf32, strided<[1], offset: 6>> loc(#loc4)
    bufferization.materialize_in_destination %inserted_37 in writable %reinterpret_cast_38 : (tensor<1xf32>, memref<1xf32, strided<[1], offset: 6>>) -> () loc(#loc4)
    %x_39 = memref.reinterpret_cast %x_ptr to offset: [7], sizes: [1], strides: [1] : memref<?xf32> to memref<1xf32, strided<[1], offset: 7>> loc(#loc8)
    %x_40 = memref.load %x_39[%x] : memref<1xf32, strided<[1], offset: 7>> loc(#loc7)
    %inserted_41 = tensor.insert %x_40 into %0[%x] : tensor<1xf32> loc(#loc3)
    %8 = arith.mulf %inserted_41, %inserted_41 : tensor<1xf32> loc(#loc3)
    %extracted_42 = tensor.extract %8[%x] : tensor<1xf32> loc(#loc3)
    %inserted_43 = tensor.insert %extracted_42 into %0[%x] : tensor<1xf32> loc(#loc4)
    %reinterpret_cast_44 = memref.reinterpret_cast %out_ptr to offset: [7], sizes: [1], strides: [1] : memref<?xf32> to memref<1xf32, strided<[1], offset: 7>> loc(#loc4)
    bufferization.materialize_in_destination %inserted_43 in writable %reinterpret_cast_44 : (tensor<1xf32>, memref<1xf32, strided<[1], offset: 7>>) -> () loc(#loc4)
    %x_45 = memref.reinterpret_cast %x_ptr to offset: [8], sizes: [1], strides: [1] : memref<?xf32> to memref<1xf32, strided<[1], offset: 8>> loc(#loc8)
    %x_46 = memref.load %x_45[%x] : memref<1xf32, strided<[1], offset: 8>> loc(#loc7)
    %inserted_47 = tensor.insert %x_46 into %0[%x] : tensor<1xf32> loc(#loc3)
    %9 = arith.mulf %inserted_47, %inserted_47 : tensor<1xf32> loc(#loc3)
    %extracted_48 = tensor.extract %9[%x] : tensor<1xf32> loc(#loc3)
    %inserted_49 = tensor.insert %extracted_48 into %0[%x] : tensor<1xf32> loc(#loc4)
    %reinterpret_cast_50 = memref.reinterpret_cast %out_ptr to offset: [8], sizes: [1], strides: [1] : memref<?xf32> to memref<1xf32, strided<[1], offset: 8>> loc(#loc4)
    bufferization.materialize_in_destination %inserted_49 in writable %reinterpret_cast_50 : (tensor<1xf32>, memref<1xf32, strided<[1], offset: 8>>) -> () loc(#loc4)
    %x_51 = memref.reinterpret_cast %x_ptr to offset: [9], sizes: [1], strides: [1] : memref<?xf32> to memref<1xf32, strided<[1], offset: 9>> loc(#loc8)
    %x_52 = memref.load %x_51[%x] : memref<1xf32, strided<[1], offset: 9>> loc(#loc7)
    %inserted_53 = tensor.insert %x_52 into %0[%x] : tensor<1xf32> loc(#loc3)
    %10 = arith.mulf %inserted_53, %inserted_53 : tensor<1xf32> loc(#loc3)
    %extracted_54 = tensor.extract %10[%x] : tensor<1xf32> loc(#loc3)
    %inserted_55 = tensor.insert %extracted_54 into %0[%x] : tensor<1xf32> loc(#loc4)
    %reinterpret_cast_56 = memref.reinterpret_cast %out_ptr to offset: [9], sizes: [1], strides: [1] : memref<?xf32> to memref<1xf32, strided<[1], offset: 9>> loc(#loc4)
    bufferization.materialize_in_destination %inserted_55 in writable %reinterpret_cast_56 : (tensor<1xf32>, memref<1xf32, strided<[1], offset: 9>>) -> () loc(#loc4)
    %x_57 = memref.reinterpret_cast %x_ptr to offset: [10], sizes: [1], strides: [1] : memref<?xf32> to memref<1xf32, strided<[1], offset: 10>> loc(#loc8)
    %x_58 = memref.load %x_57[%x] : memref<1xf32, strided<[1], offset: 10>> loc(#loc7)
    %inserted_59 = tensor.insert %x_58 into %0[%x] : tensor<1xf32> loc(#loc3)
    %11 = arith.mulf %inserted_59, %inserted_59 : tensor<1xf32> loc(#loc3)
    %extracted_60 = tensor.extract %11[%x] : tensor<1xf32> loc(#loc3)
    %inserted_61 = tensor.insert %extracted_60 into %0[%x] : tensor<1xf32> loc(#loc4)
    %reinterpret_cast_62 = memref.reinterpret_cast %out_ptr to offset: [10], sizes: [1], strides: [1] : memref<?xf32> to memref<1xf32, strided<[1], offset: 10>> loc(#loc4)
    bufferization.materialize_in_destination %inserted_61 in writable %reinterpret_cast_62 : (tensor<1xf32>, memref<1xf32, strided<[1], offset: 10>>) -> () loc(#loc4)
    %x_63 = memref.reinterpret_cast %x_ptr to offset: [11], sizes: [1], strides: [1] : memref<?xf32> to memref<1xf32, strided<[1], offset: 11>> loc(#loc8)
    %x_64 = memref.load %x_63[%x] : memref<1xf32, strided<[1], offset: 11>> loc(#loc7)
    %inserted_65 = tensor.insert %x_64 into %0[%x] : tensor<1xf32> loc(#loc3)
    %12 = arith.mulf %inserted_65, %inserted_65 : tensor<1xf32> loc(#loc3)
    %extracted_66 = tensor.extract %12[%x] : tensor<1xf32> loc(#loc3)
    %inserted_67 = tensor.insert %extracted_66 into %0[%x] : tensor<1xf32> loc(#loc4)
    %reinterpret_cast_68 = memref.reinterpret_cast %out_ptr to offset: [11], sizes: [1], strides: [1] : memref<?xf32> to memref<1xf32, strided<[1], offset: 11>> loc(#loc4)
    bufferization.materialize_in_destination %inserted_67 in writable %reinterpret_cast_68 : (tensor<1xf32>, memref<1xf32, strided<[1], offset: 11>>) -> () loc(#loc4)
    %x_69 = memref.reinterpret_cast %x_ptr to offset: [12], sizes: [1], strides: [1] : memref<?xf32> to memref<1xf32, strided<[1], offset: 12>> loc(#loc8)
    %x_70 = memref.load %x_69[%x] : memref<1xf32, strided<[1], offset: 12>> loc(#loc7)
    %inserted_71 = tensor.insert %x_70 into %0[%x] : tensor<1xf32> loc(#loc3)
    %13 = arith.mulf %inserted_71, %inserted_71 : tensor<1xf32> loc(#loc3)
    %extracted_72 = tensor.extract %13[%x] : tensor<1xf32> loc(#loc3)
    %inserted_73 = tensor.insert %extracted_72 into %0[%x] : tensor<1xf32> loc(#loc4)
    %reinterpret_cast_74 = memref.reinterpret_cast %out_ptr to offset: [12], sizes: [1], strides: [1] : memref<?xf32> to memref<1xf32, strided<[1], offset: 12>> loc(#loc4)
    bufferization.materialize_in_destination %inserted_73 in writable %reinterpret_cast_74 : (tensor<1xf32>, memref<1xf32, strided<[1], offset: 12>>) -> () loc(#loc4)
    %x_75 = memref.reinterpret_cast %x_ptr to offset: [13], sizes: [1], strides: [1] : memref<?xf32> to memref<1xf32, strided<[1], offset: 13>> loc(#loc8)
    %x_76 = memref.load %x_75[%x] : memref<1xf32, strided<[1], offset: 13>> loc(#loc7)
    %inserted_77 = tensor.insert %x_76 into %0[%x] : tensor<1xf32> loc(#loc3)
    %14 = arith.mulf %inserted_77, %inserted_77 : tensor<1xf32> loc(#loc3)
    %extracted_78 = tensor.extract %14[%x] : tensor<1xf32> loc(#loc3)
    %inserted_79 = tensor.insert %extracted_78 into %0[%x] : tensor<1xf32> loc(#loc4)
    %reinterpret_cast_80 = memref.reinterpret_cast %out_ptr to offset: [13], sizes: [1], strides: [1] : memref<?xf32> to memref<1xf32, strided<[1], offset: 13>> loc(#loc4)
    bufferization.materialize_in_destination %inserted_79 in writable %reinterpret_cast_80 : (tensor<1xf32>, memref<1xf32, strided<[1], offset: 13>>) -> () loc(#loc4)
    %x_81 = memref.reinterpret_cast %x_ptr to offset: [14], sizes: [1], strides: [1] : memref<?xf32> to memref<1xf32, strided<[1], offset: 14>> loc(#loc8)
    %x_82 = memref.load %x_81[%x] : memref<1xf32, strided<[1], offset: 14>> loc(#loc7)
    %inserted_83 = tensor.insert %x_82 into %0[%x] : tensor<1xf32> loc(#loc3)
    %15 = arith.mulf %inserted_83, %inserted_83 : tensor<1xf32> loc(#loc3)
    %extracted_84 = tensor.extract %15[%x] : tensor<1xf32> loc(#loc3)
    %inserted_85 = tensor.insert %extracted_84 into %0[%x] : tensor<1xf32> loc(#loc4)
    %reinterpret_cast_86 = memref.reinterpret_cast %out_ptr to offset: [14], sizes: [1], strides: [1] : memref<?xf32> to memref<1xf32, strided<[1], offset: 14>> loc(#loc4)
    bufferization.materialize_in_destination %inserted_85 in writable %reinterpret_cast_86 : (tensor<1xf32>, memref<1xf32, strided<[1], offset: 14>>) -> () loc(#loc4)
    %x_87 = memref.reinterpret_cast %x_ptr to offset: [15], sizes: [1], strides: [1] : memref<?xf32> to memref<1xf32, strided<[1], offset: 15>> loc(#loc8)
    %x_88 = memref.load %x_87[%x] : memref<1xf32, strided<[1], offset: 15>> loc(#loc7)
    %inserted_89 = tensor.insert %x_88 into %0[%x] : tensor<1xf32> loc(#loc3)
    %16 = arith.mulf %inserted_89, %inserted_89 : tensor<1xf32> loc(#loc3)
    %extracted_90 = tensor.extract %16[%x] : tensor<1xf32> loc(#loc3)
    %inserted_91 = tensor.insert %extracted_90 into %0[%x] : tensor<1xf32> loc(#loc4)
    %reinterpret_cast_92 = memref.reinterpret_cast %out_ptr to offset: [15], sizes: [1], strides: [1] : memref<?xf32> to memref<1xf32, strided<[1], offset: 15>> loc(#loc4)
    bufferization.materialize_in_destination %inserted_91 in writable %reinterpret_cast_92 : (tensor<1xf32>, memref<1xf32, strided<[1], offset: 15>>) -> () loc(#loc4)
    %x_93 = memref.reinterpret_cast %x_ptr to offset: [16], sizes: [1], strides: [1] : memref<?xf32> to memref<1xf32, strided<[1], offset: 16>> loc(#loc8)
    %x_94 = memref.load %x_93[%x] : memref<1xf32, strided<[1], offset: 16>> loc(#loc7)
    %inserted_95 = tensor.insert %x_94 into %0[%x] : tensor<1xf32> loc(#loc3)
    %17 = arith.mulf %inserted_95, %inserted_95 : tensor<1xf32> loc(#loc3)
    %extracted_96 = tensor.extract %17[%x] : tensor<1xf32> loc(#loc3)
    %inserted_97 = tensor.insert %extracted_96 into %0[%x] : tensor<1xf32> loc(#loc4)
    %reinterpret_cast_98 = memref.reinterpret_cast %out_ptr to offset: [16], sizes: [1], strides: [1] : memref<?xf32> to memref<1xf32, strided<[1], offset: 16>> loc(#loc4)
    bufferization.materialize_in_destination %inserted_97 in writable %reinterpret_cast_98 : (tensor<1xf32>, memref<1xf32, strided<[1], offset: 16>>) -> () loc(#loc4)
    %x_99 = memref.reinterpret_cast %x_ptr to offset: [17], sizes: [1], strides: [1] : memref<?xf32> to memref<1xf32, strided<[1], offset: 17>> loc(#loc8)
    %x_100 = memref.load %x_99[%x] : memref<1xf32, strided<[1], offset: 17>> loc(#loc7)
    %inserted_101 = tensor.insert %x_100 into %0[%x] : tensor<1xf32> loc(#loc3)
    %18 = arith.mulf %inserted_101, %inserted_101 : tensor<1xf32> loc(#loc3)
    %extracted_102 = tensor.extract %18[%x] : tensor<1xf32> loc(#loc3)
    %inserted_103 = tensor.insert %extracted_102 into %0[%x] : tensor<1xf32> loc(#loc4)
    %reinterpret_cast_104 = memref.reinterpret_cast %out_ptr to offset: [17], sizes: [1], strides: [1] : memref<?xf32> to memref<1xf32, strided<[1], offset: 17>> loc(#loc4)
    bufferization.materialize_in_destination %inserted_103 in writable %reinterpret_cast_104 : (tensor<1xf32>, memref<1xf32, strided<[1], offset: 17>>) -> () loc(#loc4)
    %x_105 = memref.reinterpret_cast %x_ptr to offset: [18], sizes: [1], strides: [1] : memref<?xf32> to memref<1xf32, strided<[1], offset: 18>> loc(#loc8)
    %x_106 = memref.load %x_105[%x] : memref<1xf32, strided<[1], offset: 18>> loc(#loc7)
    %inserted_107 = tensor.insert %x_106 into %0[%x] : tensor<1xf32> loc(#loc3)
    %19 = arith.mulf %inserted_107, %inserted_107 : tensor<1xf32> loc(#loc3)
    %extracted_108 = tensor.extract %19[%x] : tensor<1xf32> loc(#loc3)
    %inserted_109 = tensor.insert %extracted_108 into %0[%x] : tensor<1xf32> loc(#loc4)
    %reinterpret_cast_110 = memref.reinterpret_cast %out_ptr to offset: [18], sizes: [1], strides: [1] : memref<?xf32> to memref<1xf32, strided<[1], offset: 18>> loc(#loc4)
    bufferization.materialize_in_destination %inserted_109 in writable %reinterpret_cast_110 : (tensor<1xf32>, memref<1xf32, strided<[1], offset: 18>>) -> () loc(#loc4)
    %x_111 = memref.reinterpret_cast %x_ptr to offset: [19], sizes: [1], strides: [1] : memref<?xf32> to memref<1xf32, strided<[1], offset: 19>> loc(#loc8)
    %x_112 = memref.load %x_111[%x] : memref<1xf32, strided<[1], offset: 19>> loc(#loc7)
    %inserted_113 = tensor.insert %x_112 into %0[%x] : tensor<1xf32> loc(#loc3)
    %20 = arith.mulf %inserted_113, %inserted_113 : tensor<1xf32> loc(#loc3)
    %extracted_114 = tensor.extract %20[%x] : tensor<1xf32> loc(#loc3)
    %inserted_115 = tensor.insert %extracted_114 into %0[%x] : tensor<1xf32> loc(#loc4)
    %reinterpret_cast_116 = memref.reinterpret_cast %out_ptr to offset: [19], sizes: [1], strides: [1] : memref<?xf32> to memref<1xf32, strided<[1], offset: 19>> loc(#loc4)
    bufferization.materialize_in_destination %inserted_115 in writable %reinterpret_cast_116 : (tensor<1xf32>, memref<1xf32, strided<[1], offset: 19>>) -> () loc(#loc4)
    %x_117 = memref.reinterpret_cast %x_ptr to offset: [20], sizes: [1], strides: [1] : memref<?xf32> to memref<1xf32, strided<[1], offset: 20>> loc(#loc8)
    %x_118 = memref.load %x_117[%x] : memref<1xf32, strided<[1], offset: 20>> loc(#loc7)
    %inserted_119 = tensor.insert %x_118 into %0[%x] : tensor<1xf32> loc(#loc3)
    %21 = arith.mulf %inserted_119, %inserted_119 : tensor<1xf32> loc(#loc3)
    %extracted_120 = tensor.extract %21[%x] : tensor<1xf32> loc(#loc3)
    %inserted_121 = tensor.insert %extracted_120 into %0[%x] : tensor<1xf32> loc(#loc4)
    %reinterpret_cast_122 = memref.reinterpret_cast %out_ptr to offset: [20], sizes: [1], strides: [1] : memref<?xf32> to memref<1xf32, strided<[1], offset: 20>> loc(#loc4)
    bufferization.materialize_in_destination %inserted_121 in writable %reinterpret_cast_122 : (tensor<1xf32>, memref<1xf32, strided<[1], offset: 20>>) -> () loc(#loc4)
    %x_123 = memref.reinterpret_cast %x_ptr to offset: [21], sizes: [1], strides: [1] : memref<?xf32> to memref<1xf32, strided<[1], offset: 21>> loc(#loc8)
    %x_124 = memref.load %x_123[%x] : memref<1xf32, strided<[1], offset: 21>> loc(#loc7)
    %inserted_125 = tensor.insert %x_124 into %0[%x] : tensor<1xf32> loc(#loc3)
    %22 = arith.mulf %inserted_125, %inserted_125 : tensor<1xf32> loc(#loc3)
    %extracted_126 = tensor.extract %22[%x] : tensor<1xf32> loc(#loc3)
    %inserted_127 = tensor.insert %extracted_126 into %0[%x] : tensor<1xf32> loc(#loc4)
    %reinterpret_cast_128 = memref.reinterpret_cast %out_ptr to offset: [21], sizes: [1], strides: [1] : memref<?xf32> to memref<1xf32, strided<[1], offset: 21>> loc(#loc4)
    bufferization.materialize_in_destination %inserted_127 in writable %reinterpret_cast_128 : (tensor<1xf32>, memref<1xf32, strided<[1], offset: 21>>) -> () loc(#loc4)
    %x_129 = memref.reinterpret_cast %x_ptr to offset: [22], sizes: [1], strides: [1] : memref<?xf32> to memref<1xf32, strided<[1], offset: 22>> loc(#loc8)
    %x_130 = memref.load %x_129[%x] : memref<1xf32, strided<[1], offset: 22>> loc(#loc7)
    %inserted_131 = tensor.insert %x_130 into %0[%x] : tensor<1xf32> loc(#loc3)
    %23 = arith.mulf %inserted_131, %inserted_131 : tensor<1xf32> loc(#loc3)
    %extracted_132 = tensor.extract %23[%x] : tensor<1xf32> loc(#loc3)
    %inserted_133 = tensor.insert %extracted_132 into %0[%x] : tensor<1xf32> loc(#loc4)
    %reinterpret_cast_134 = memref.reinterpret_cast %out_ptr to offset: [22], sizes: [1], strides: [1] : memref<?xf32> to memref<1xf32, strided<[1], offset: 22>> loc(#loc4)
    bufferization.materialize_in_destination %inserted_133 in writable %reinterpret_cast_134 : (tensor<1xf32>, memref<1xf32, strided<[1], offset: 22>>) -> () loc(#loc4)
    %x_135 = memref.reinterpret_cast %x_ptr to offset: [23], sizes: [1], strides: [1] : memref<?xf32> to memref<1xf32, strided<[1], offset: 23>> loc(#loc8)
    %x_136 = memref.load %x_135[%x] : memref<1xf32, strided<[1], offset: 23>> loc(#loc7)
    %inserted_137 = tensor.insert %x_136 into %0[%x] : tensor<1xf32> loc(#loc3)
    %24 = arith.mulf %inserted_137, %inserted_137 : tensor<1xf32> loc(#loc3)
    %extracted_138 = tensor.extract %24[%x] : tensor<1xf32> loc(#loc3)
    %inserted_139 = tensor.insert %extracted_138 into %0[%x] : tensor<1xf32> loc(#loc4)
    %reinterpret_cast_140 = memref.reinterpret_cast %out_ptr to offset: [23], sizes: [1], strides: [1] : memref<?xf32> to memref<1xf32, strided<[1], offset: 23>> loc(#loc4)
    bufferization.materialize_in_destination %inserted_139 in writable %reinterpret_cast_140 : (tensor<1xf32>, memref<1xf32, strided<[1], offset: 23>>) -> () loc(#loc4)
    %x_141 = memref.reinterpret_cast %x_ptr to offset: [24], sizes: [1], strides: [1] : memref<?xf32> to memref<1xf32, strided<[1], offset: 24>> loc(#loc8)
    %x_142 = memref.load %x_141[%x] : memref<1xf32, strided<[1], offset: 24>> loc(#loc7)
    %inserted_143 = tensor.insert %x_142 into %0[%x] : tensor<1xf32> loc(#loc3)
    %25 = arith.mulf %inserted_143, %inserted_143 : tensor<1xf32> loc(#loc3)
    %extracted_144 = tensor.extract %25[%x] : tensor<1xf32> loc(#loc3)
    %inserted_145 = tensor.insert %extracted_144 into %0[%x] : tensor<1xf32> loc(#loc4)
    %reinterpret_cast_146 = memref.reinterpret_cast %out_ptr to offset: [24], sizes: [1], strides: [1] : memref<?xf32> to memref<1xf32, strided<[1], offset: 24>> loc(#loc4)
    bufferization.materialize_in_destination %inserted_145 in writable %reinterpret_cast_146 : (tensor<1xf32>, memref<1xf32, strided<[1], offset: 24>>) -> () loc(#loc4)
    %x_147 = memref.reinterpret_cast %x_ptr to offset: [25], sizes: [1], strides: [1] : memref<?xf32> to memref<1xf32, strided<[1], offset: 25>> loc(#loc8)
    %x_148 = memref.load %x_147[%x] : memref<1xf32, strided<[1], offset: 25>> loc(#loc7)
    %inserted_149 = tensor.insert %x_148 into %0[%x] : tensor<1xf32> loc(#loc3)
    %26 = arith.mulf %inserted_149, %inserted_149 : tensor<1xf32> loc(#loc3)
    %extracted_150 = tensor.extract %26[%x] : tensor<1xf32> loc(#loc3)
    %inserted_151 = tensor.insert %extracted_150 into %0[%x] : tensor<1xf32> loc(#loc4)
    %reinterpret_cast_152 = memref.reinterpret_cast %out_ptr to offset: [25], sizes: [1], strides: [1] : memref<?xf32> to memref<1xf32, strided<[1], offset: 25>> loc(#loc4)
    bufferization.materialize_in_destination %inserted_151 in writable %reinterpret_cast_152 : (tensor<1xf32>, memref<1xf32, strided<[1], offset: 25>>) -> () loc(#loc4)
    %x_153 = memref.reinterpret_cast %x_ptr to offset: [26], sizes: [1], strides: [1] : memref<?xf32> to memref<1xf32, strided<[1], offset: 26>> loc(#loc8)
    %x_154 = memref.load %x_153[%x] : memref<1xf32, strided<[1], offset: 26>> loc(#loc7)
    %inserted_155 = tensor.insert %x_154 into %0[%x] : tensor<1xf32> loc(#loc3)
    %27 = arith.mulf %inserted_155, %inserted_155 : tensor<1xf32> loc(#loc3)
    %extracted_156 = tensor.extract %27[%x] : tensor<1xf32> loc(#loc3)
    %inserted_157 = tensor.insert %extracted_156 into %0[%x] : tensor<1xf32> loc(#loc4)
    %reinterpret_cast_158 = memref.reinterpret_cast %out_ptr to offset: [26], sizes: [1], strides: [1] : memref<?xf32> to memref<1xf32, strided<[1], offset: 26>> loc(#loc4)
    bufferization.materialize_in_destination %inserted_157 in writable %reinterpret_cast_158 : (tensor<1xf32>, memref<1xf32, strided<[1], offset: 26>>) -> () loc(#loc4)
    %x_159 = memref.reinterpret_cast %x_ptr to offset: [27], sizes: [1], strides: [1] : memref<?xf32> to memref<1xf32, strided<[1], offset: 27>> loc(#loc8)
    %x_160 = memref.load %x_159[%x] : memref<1xf32, strided<[1], offset: 27>> loc(#loc7)
    %inserted_161 = tensor.insert %x_160 into %0[%x] : tensor<1xf32> loc(#loc3)
    %28 = arith.mulf %inserted_161, %inserted_161 : tensor<1xf32> loc(#loc3)
    %extracted_162 = tensor.extract %28[%x] : tensor<1xf32> loc(#loc3)
    %inserted_163 = tensor.insert %extracted_162 into %0[%x] : tensor<1xf32> loc(#loc4)
    %reinterpret_cast_164 = memref.reinterpret_cast %out_ptr to offset: [27], sizes: [1], strides: [1] : memref<?xf32> to memref<1xf32, strided<[1], offset: 27>> loc(#loc4)
    bufferization.materialize_in_destination %inserted_163 in writable %reinterpret_cast_164 : (tensor<1xf32>, memref<1xf32, strided<[1], offset: 27>>) -> () loc(#loc4)
    %x_165 = memref.reinterpret_cast %x_ptr to offset: [28], sizes: [1], strides: [1] : memref<?xf32> to memref<1xf32, strided<[1], offset: 28>> loc(#loc8)
    %x_166 = memref.load %x_165[%x] : memref<1xf32, strided<[1], offset: 28>> loc(#loc7)
    %inserted_167 = tensor.insert %x_166 into %0[%x] : tensor<1xf32> loc(#loc3)
    %29 = arith.mulf %inserted_167, %inserted_167 : tensor<1xf32> loc(#loc3)
    %extracted_168 = tensor.extract %29[%x] : tensor<1xf32> loc(#loc3)
    %inserted_169 = tensor.insert %extracted_168 into %0[%x] : tensor<1xf32> loc(#loc4)
    %reinterpret_cast_170 = memref.reinterpret_cast %out_ptr to offset: [28], sizes: [1], strides: [1] : memref<?xf32> to memref<1xf32, strided<[1], offset: 28>> loc(#loc4)
    bufferization.materialize_in_destination %inserted_169 in writable %reinterpret_cast_170 : (tensor<1xf32>, memref<1xf32, strided<[1], offset: 28>>) -> () loc(#loc4)
    %x_171 = memref.reinterpret_cast %x_ptr to offset: [29], sizes: [1], strides: [1] : memref<?xf32> to memref<1xf32, strided<[1], offset: 29>> loc(#loc8)
    %x_172 = memref.load %x_171[%x] : memref<1xf32, strided<[1], offset: 29>> loc(#loc7)
    %inserted_173 = tensor.insert %x_172 into %0[%x] : tensor<1xf32> loc(#loc3)
    %30 = arith.mulf %inserted_173, %inserted_173 : tensor<1xf32> loc(#loc3)
    %extracted_174 = tensor.extract %30[%x] : tensor<1xf32> loc(#loc3)
    %inserted_175 = tensor.insert %extracted_174 into %0[%x] : tensor<1xf32> loc(#loc4)
    %reinterpret_cast_176 = memref.reinterpret_cast %out_ptr to offset: [29], sizes: [1], strides: [1] : memref<?xf32> to memref<1xf32, strided<[1], offset: 29>> loc(#loc4)
    bufferization.materialize_in_destination %inserted_175 in writable %reinterpret_cast_176 : (tensor<1xf32>, memref<1xf32, strided<[1], offset: 29>>) -> () loc(#loc4)
    %x_177 = memref.reinterpret_cast %x_ptr to offset: [30], sizes: [1], strides: [1] : memref<?xf32> to memref<1xf32, strided<[1], offset: 30>> loc(#loc8)
    %x_178 = memref.load %x_177[%x] : memref<1xf32, strided<[1], offset: 30>> loc(#loc7)
    %inserted_179 = tensor.insert %x_178 into %0[%x] : tensor<1xf32> loc(#loc3)
    %31 = arith.mulf %inserted_179, %inserted_179 : tensor<1xf32> loc(#loc3)
    %extracted_180 = tensor.extract %31[%x] : tensor<1xf32> loc(#loc3)
    %inserted_181 = tensor.insert %extracted_180 into %0[%x] : tensor<1xf32> loc(#loc4)
    %reinterpret_cast_182 = memref.reinterpret_cast %out_ptr to offset: [30], sizes: [1], strides: [1] : memref<?xf32> to memref<1xf32, strided<[1], offset: 30>> loc(#loc4)
    bufferization.materialize_in_destination %inserted_181 in writable %reinterpret_cast_182 : (tensor<1xf32>, memref<1xf32, strided<[1], offset: 30>>) -> () loc(#loc4)
    %x_183 = memref.reinterpret_cast %x_ptr to offset: [31], sizes: [1], strides: [1] : memref<?xf32> to memref<1xf32, strided<[1], offset: 31>> loc(#loc8)
    %x_184 = memref.load %x_183[%x] : memref<1xf32, strided<[1], offset: 31>> loc(#loc7)
    %inserted_185 = tensor.insert %x_184 into %0[%x] : tensor<1xf32> loc(#loc3)
    %32 = arith.mulf %inserted_185, %inserted_185 : tensor<1xf32> loc(#loc3)
    %extracted_186 = tensor.extract %32[%x] : tensor<1xf32> loc(#loc3)
    %inserted_187 = tensor.insert %extracted_186 into %0[%x] : tensor<1xf32> loc(#loc4)
    %reinterpret_cast_188 = memref.reinterpret_cast %out_ptr to offset: [31], sizes: [1], strides: [1] : memref<?xf32> to memref<1xf32, strided<[1], offset: 31>> loc(#loc4)
    bufferization.materialize_in_destination %inserted_187 in writable %reinterpret_cast_188 : (tensor<1xf32>, memref<1xf32, strided<[1], offset: 31>>) -> () loc(#loc4)
    %x_189 = memref.reinterpret_cast %x_ptr to offset: [32], sizes: [1], strides: [1] : memref<?xf32> to memref<1xf32, strided<[1], offset: 32>> loc(#loc8)
    %x_190 = memref.load %x_189[%x] : memref<1xf32, strided<[1], offset: 32>> loc(#loc7)
    %inserted_191 = tensor.insert %x_190 into %0[%x] : tensor<1xf32> loc(#loc3)
    %33 = arith.mulf %inserted_191, %inserted_191 : tensor<1xf32> loc(#loc3)
    %extracted_192 = tensor.extract %33[%x] : tensor<1xf32> loc(#loc3)
    %inserted_193 = tensor.insert %extracted_192 into %0[%x] : tensor<1xf32> loc(#loc4)
    %reinterpret_cast_194 = memref.reinterpret_cast %out_ptr to offset: [32], sizes: [1], strides: [1] : memref<?xf32> to memref<1xf32, strided<[1], offset: 32>> loc(#loc4)
    bufferization.materialize_in_destination %inserted_193 in writable %reinterpret_cast_194 : (tensor<1xf32>, memref<1xf32, strided<[1], offset: 32>>) -> () loc(#loc4)
    %x_195 = memref.reinterpret_cast %x_ptr to offset: [33], sizes: [1], strides: [1] : memref<?xf32> to memref<1xf32, strided<[1], offset: 33>> loc(#loc8)
    %x_196 = memref.load %x_195[%x] : memref<1xf32, strided<[1], offset: 33>> loc(#loc7)
    %inserted_197 = tensor.insert %x_196 into %0[%x] : tensor<1xf32> loc(#loc3)
    %34 = arith.mulf %inserted_197, %inserted_197 : tensor<1xf32> loc(#loc3)
    %extracted_198 = tensor.extract %34[%x] : tensor<1xf32> loc(#loc3)
    %inserted_199 = tensor.insert %extracted_198 into %0[%x] : tensor<1xf32> loc(#loc4)
    %reinterpret_cast_200 = memref.reinterpret_cast %out_ptr to offset: [33], sizes: [1], strides: [1] : memref<?xf32> to memref<1xf32, strided<[1], offset: 33>> loc(#loc4)
    bufferization.materialize_in_destination %inserted_199 in writable %reinterpret_cast_200 : (tensor<1xf32>, memref<1xf32, strided<[1], offset: 33>>) -> () loc(#loc4)
    %x_201 = memref.reinterpret_cast %x_ptr to offset: [34], sizes: [1], strides: [1] : memref<?xf32> to memref<1xf32, strided<[1], offset: 34>> loc(#loc8)
    %x_202 = memref.load %x_201[%x] : memref<1xf32, strided<[1], offset: 34>> loc(#loc7)
    %inserted_203 = tensor.insert %x_202 into %0[%x] : tensor<1xf32> loc(#loc3)
    %35 = arith.mulf %inserted_203, %inserted_203 : tensor<1xf32> loc(#loc3)
    %extracted_204 = tensor.extract %35[%x] : tensor<1xf32> loc(#loc3)
    %inserted_205 = tensor.insert %extracted_204 into %0[%x] : tensor<1xf32> loc(#loc4)
    %reinterpret_cast_206 = memref.reinterpret_cast %out_ptr to offset: [34], sizes: [1], strides: [1] : memref<?xf32> to memref<1xf32, strided<[1], offset: 34>> loc(#loc4)
    bufferization.materialize_in_destination %inserted_205 in writable %reinterpret_cast_206 : (tensor<1xf32>, memref<1xf32, strided<[1], offset: 34>>) -> () loc(#loc4)
    %x_207 = memref.reinterpret_cast %x_ptr to offset: [35], sizes: [1], strides: [1] : memref<?xf32> to memref<1xf32, strided<[1], offset: 35>> loc(#loc8)
    %x_208 = memref.load %x_207[%x] : memref<1xf32, strided<[1], offset: 35>> loc(#loc7)
    %inserted_209 = tensor.insert %x_208 into %0[%x] : tensor<1xf32> loc(#loc3)
    %36 = arith.mulf %inserted_209, %inserted_209 : tensor<1xf32> loc(#loc3)
    %extracted_210 = tensor.extract %36[%x] : tensor<1xf32> loc(#loc3)
    %inserted_211 = tensor.insert %extracted_210 into %0[%x] : tensor<1xf32> loc(#loc4)
    %reinterpret_cast_212 = memref.reinterpret_cast %out_ptr to offset: [35], sizes: [1], strides: [1] : memref<?xf32> to memref<1xf32, strided<[1], offset: 35>> loc(#loc4)
    bufferization.materialize_in_destination %inserted_211 in writable %reinterpret_cast_212 : (tensor<1xf32>, memref<1xf32, strided<[1], offset: 35>>) -> () loc(#loc4)
    %x_213 = memref.reinterpret_cast %x_ptr to offset: [36], sizes: [1], strides: [1] : memref<?xf32> to memref<1xf32, strided<[1], offset: 36>> loc(#loc8)
    %x_214 = memref.load %x_213[%x] : memref<1xf32, strided<[1], offset: 36>> loc(#loc7)
    %inserted_215 = tensor.insert %x_214 into %0[%x] : tensor<1xf32> loc(#loc3)
    %37 = arith.mulf %inserted_215, %inserted_215 : tensor<1xf32> loc(#loc3)
    %extracted_216 = tensor.extract %37[%x] : tensor<1xf32> loc(#loc3)
    %inserted_217 = tensor.insert %extracted_216 into %0[%x] : tensor<1xf32> loc(#loc4)
    %reinterpret_cast_218 = memref.reinterpret_cast %out_ptr to offset: [36], sizes: [1], strides: [1] : memref<?xf32> to memref<1xf32, strided<[1], offset: 36>> loc(#loc4)
    bufferization.materialize_in_destination %inserted_217 in writable %reinterpret_cast_218 : (tensor<1xf32>, memref<1xf32, strided<[1], offset: 36>>) -> () loc(#loc4)
    %x_219 = memref.reinterpret_cast %x_ptr to offset: [37], sizes: [1], strides: [1] : memref<?xf32> to memref<1xf32, strided<[1], offset: 37>> loc(#loc8)
    %x_220 = memref.load %x_219[%x] : memref<1xf32, strided<[1], offset: 37>> loc(#loc7)
    %inserted_221 = tensor.insert %x_220 into %0[%x] : tensor<1xf32> loc(#loc3)
    %38 = arith.mulf %inserted_221, %inserted_221 : tensor<1xf32> loc(#loc3)
    %extracted_222 = tensor.extract %38[%x] : tensor<1xf32> loc(#loc3)
    %inserted_223 = tensor.insert %extracted_222 into %0[%x] : tensor<1xf32> loc(#loc4)
    %reinterpret_cast_224 = memref.reinterpret_cast %out_ptr to offset: [37], sizes: [1], strides: [1] : memref<?xf32> to memref<1xf32, strided<[1], offset: 37>> loc(#loc4)
    bufferization.materialize_in_destination %inserted_223 in writable %reinterpret_cast_224 : (tensor<1xf32>, memref<1xf32, strided<[1], offset: 37>>) -> () loc(#loc4)
    %x_225 = memref.reinterpret_cast %x_ptr to offset: [38], sizes: [1], strides: [1] : memref<?xf32> to memref<1xf32, strided<[1], offset: 38>> loc(#loc8)
    %x_226 = memref.load %x_225[%x] : memref<1xf32, strided<[1], offset: 38>> loc(#loc7)
    %inserted_227 = tensor.insert %x_226 into %0[%x] : tensor<1xf32> loc(#loc3)
    %39 = arith.mulf %inserted_227, %inserted_227 : tensor<1xf32> loc(#loc3)
    %extracted_228 = tensor.extract %39[%x] : tensor<1xf32> loc(#loc3)
    %inserted_229 = tensor.insert %extracted_228 into %0[%x] : tensor<1xf32> loc(#loc4)
    %reinterpret_cast_230 = memref.reinterpret_cast %out_ptr to offset: [38], sizes: [1], strides: [1] : memref<?xf32> to memref<1xf32, strided<[1], offset: 38>> loc(#loc4)
    bufferization.materialize_in_destination %inserted_229 in writable %reinterpret_cast_230 : (tensor<1xf32>, memref<1xf32, strided<[1], offset: 38>>) -> () loc(#loc4)
    %x_231 = memref.reinterpret_cast %x_ptr to offset: [39], sizes: [1], strides: [1] : memref<?xf32> to memref<1xf32, strided<[1], offset: 39>> loc(#loc8)
    %x_232 = memref.load %x_231[%x] : memref<1xf32, strided<[1], offset: 39>> loc(#loc7)
    %inserted_233 = tensor.insert %x_232 into %0[%x] : tensor<1xf32> loc(#loc3)
    %40 = arith.mulf %inserted_233, %inserted_233 : tensor<1xf32> loc(#loc3)
    %extracted_234 = tensor.extract %40[%x] : tensor<1xf32> loc(#loc3)
    %inserted_235 = tensor.insert %extracted_234 into %0[%x] : tensor<1xf32> loc(#loc4)
    %reinterpret_cast_236 = memref.reinterpret_cast %out_ptr to offset: [39], sizes: [1], strides: [1] : memref<?xf32> to memref<1xf32, strided<[1], offset: 39>> loc(#loc4)
    bufferization.materialize_in_destination %inserted_235 in writable %reinterpret_cast_236 : (tensor<1xf32>, memref<1xf32, strided<[1], offset: 39>>) -> () loc(#loc4)
    %x_237 = memref.reinterpret_cast %x_ptr to offset: [40], sizes: [1], strides: [1] : memref<?xf32> to memref<1xf32, strided<[1], offset: 40>> loc(#loc8)
    %x_238 = memref.load %x_237[%x] : memref<1xf32, strided<[1], offset: 40>> loc(#loc7)
    %inserted_239 = tensor.insert %x_238 into %0[%x] : tensor<1xf32> loc(#loc3)
    %41 = arith.mulf %inserted_239, %inserted_239 : tensor<1xf32> loc(#loc3)
    %extracted_240 = tensor.extract %41[%x] : tensor<1xf32> loc(#loc3)
    %inserted_241 = tensor.insert %extracted_240 into %0[%x] : tensor<1xf32> loc(#loc4)
    %reinterpret_cast_242 = memref.reinterpret_cast %out_ptr to offset: [40], sizes: [1], strides: [1] : memref<?xf32> to memref<1xf32, strided<[1], offset: 40>> loc(#loc4)
    bufferization.materialize_in_destination %inserted_241 in writable %reinterpret_cast_242 : (tensor<1xf32>, memref<1xf32, strided<[1], offset: 40>>) -> () loc(#loc4)
    %x_243 = memref.reinterpret_cast %x_ptr to offset: [41], sizes: [1], strides: [1] : memref<?xf32> to memref<1xf32, strided<[1], offset: 41>> loc(#loc8)
    %x_244 = memref.load %x_243[%x] : memref<1xf32, strided<[1], offset: 41>> loc(#loc7)
    %inserted_245 = tensor.insert %x_244 into %0[%x] : tensor<1xf32> loc(#loc3)
    %42 = arith.mulf %inserted_245, %inserted_245 : tensor<1xf32> loc(#loc3)
    %extracted_246 = tensor.extract %42[%x] : tensor<1xf32> loc(#loc3)
    %inserted_247 = tensor.insert %extracted_246 into %0[%x] : tensor<1xf32> loc(#loc4)
    %reinterpret_cast_248 = memref.reinterpret_cast %out_ptr to offset: [41], sizes: [1], strides: [1] : memref<?xf32> to memref<1xf32, strided<[1], offset: 41>> loc(#loc4)
    bufferization.materialize_in_destination %inserted_247 in writable %reinterpret_cast_248 : (tensor<1xf32>, memref<1xf32, strided<[1], offset: 41>>) -> () loc(#loc4)
    %x_249 = memref.reinterpret_cast %x_ptr to offset: [42], sizes: [1], strides: [1] : memref<?xf32> to memref<1xf32, strided<[1], offset: 42>> loc(#loc8)
    %x_250 = memref.load %x_249[%x] : memref<1xf32, strided<[1], offset: 42>> loc(#loc7)
    %inserted_251 = tensor.insert %x_250 into %0[%x] : tensor<1xf32> loc(#loc3)
    %43 = arith.mulf %inserted_251, %inserted_251 : tensor<1xf32> loc(#loc3)
    %extracted_252 = tensor.extract %43[%x] : tensor<1xf32> loc(#loc3)
    %inserted_253 = tensor.insert %extracted_252 into %0[%x] : tensor<1xf32> loc(#loc4)
    %reinterpret_cast_254 = memref.reinterpret_cast %out_ptr to offset: [42], sizes: [1], strides: [1] : memref<?xf32> to memref<1xf32, strided<[1], offset: 42>> loc(#loc4)
    bufferization.materialize_in_destination %inserted_253 in writable %reinterpret_cast_254 : (tensor<1xf32>, memref<1xf32, strided<[1], offset: 42>>) -> () loc(#loc4)
    %x_255 = memref.reinterpret_cast %x_ptr to offset: [43], sizes: [1], strides: [1] : memref<?xf32> to memref<1xf32, strided<[1], offset: 43>> loc(#loc8)
    %x_256 = memref.load %x_255[%x] : memref<1xf32, strided<[1], offset: 43>> loc(#loc7)
    %inserted_257 = tensor.insert %x_256 into %0[%x] : tensor<1xf32> loc(#loc3)
    %44 = arith.mulf %inserted_257, %inserted_257 : tensor<1xf32> loc(#loc3)
    %extracted_258 = tensor.extract %44[%x] : tensor<1xf32> loc(#loc3)
    %inserted_259 = tensor.insert %extracted_258 into %0[%x] : tensor<1xf32> loc(#loc4)
    %reinterpret_cast_260 = memref.reinterpret_cast %out_ptr to offset: [43], sizes: [1], strides: [1] : memref<?xf32> to memref<1xf32, strided<[1], offset: 43>> loc(#loc4)
    bufferization.materialize_in_destination %inserted_259 in writable %reinterpret_cast_260 : (tensor<1xf32>, memref<1xf32, strided<[1], offset: 43>>) -> () loc(#loc4)
    %x_261 = memref.reinterpret_cast %x_ptr to offset: [44], sizes: [1], strides: [1] : memref<?xf32> to memref<1xf32, strided<[1], offset: 44>> loc(#loc8)
    %x_262 = memref.load %x_261[%x] : memref<1xf32, strided<[1], offset: 44>> loc(#loc7)
    %inserted_263 = tensor.insert %x_262 into %0[%x] : tensor<1xf32> loc(#loc3)
    %45 = arith.mulf %inserted_263, %inserted_263 : tensor<1xf32> loc(#loc3)
    %extracted_264 = tensor.extract %45[%x] : tensor<1xf32> loc(#loc3)
    %inserted_265 = tensor.insert %extracted_264 into %0[%x] : tensor<1xf32> loc(#loc4)
    %reinterpret_cast_266 = memref.reinterpret_cast %out_ptr to offset: [44], sizes: [1], strides: [1] : memref<?xf32> to memref<1xf32, strided<[1], offset: 44>> loc(#loc4)
    bufferization.materialize_in_destination %inserted_265 in writable %reinterpret_cast_266 : (tensor<1xf32>, memref<1xf32, strided<[1], offset: 44>>) -> () loc(#loc4)
    %x_267 = memref.reinterpret_cast %x_ptr to offset: [45], sizes: [1], strides: [1] : memref<?xf32> to memref<1xf32, strided<[1], offset: 45>> loc(#loc8)
    %x_268 = memref.load %x_267[%x] : memref<1xf32, strided<[1], offset: 45>> loc(#loc7)
    %inserted_269 = tensor.insert %x_268 into %0[%x] : tensor<1xf32> loc(#loc3)
    %46 = arith.mulf %inserted_269, %inserted_269 : tensor<1xf32> loc(#loc3)
    %extracted_270 = tensor.extract %46[%x] : tensor<1xf32> loc(#loc3)
    %inserted_271 = tensor.insert %extracted_270 into %0[%x] : tensor<1xf32> loc(#loc4)
    %reinterpret_cast_272 = memref.reinterpret_cast %out_ptr to offset: [45], sizes: [1], strides: [1] : memref<?xf32> to memref<1xf32, strided<[1], offset: 45>> loc(#loc4)
    bufferization.materialize_in_destination %inserted_271 in writable %reinterpret_cast_272 : (tensor<1xf32>, memref<1xf32, strided<[1], offset: 45>>) -> () loc(#loc4)
    %x_273 = memref.reinterpret_cast %x_ptr to offset: [46], sizes: [1], strides: [1] : memref<?xf32> to memref<1xf32, strided<[1], offset: 46>> loc(#loc8)
    %x_274 = memref.load %x_273[%x] : memref<1xf32, strided<[1], offset: 46>> loc(#loc7)
    %inserted_275 = tensor.insert %x_274 into %0[%x] : tensor<1xf32> loc(#loc3)
    %47 = arith.mulf %inserted_275, %inserted_275 : tensor<1xf32> loc(#loc3)
    %extracted_276 = tensor.extract %47[%x] : tensor<1xf32> loc(#loc3)
    %inserted_277 = tensor.insert %extracted_276 into %0[%x] : tensor<1xf32> loc(#loc4)
    %reinterpret_cast_278 = memref.reinterpret_cast %out_ptr to offset: [46], sizes: [1], strides: [1] : memref<?xf32> to memref<1xf32, strided<[1], offset: 46>> loc(#loc4)
    bufferization.materialize_in_destination %inserted_277 in writable %reinterpret_cast_278 : (tensor<1xf32>, memref<1xf32, strided<[1], offset: 46>>) -> () loc(#loc4)
    %x_279 = memref.reinterpret_cast %x_ptr to offset: [47], sizes: [1], strides: [1] : memref<?xf32> to memref<1xf32, strided<[1], offset: 47>> loc(#loc8)
    %x_280 = memref.load %x_279[%x] : memref<1xf32, strided<[1], offset: 47>> loc(#loc7)
    %inserted_281 = tensor.insert %x_280 into %0[%x] : tensor<1xf32> loc(#loc3)
    %48 = arith.mulf %inserted_281, %inserted_281 : tensor<1xf32> loc(#loc3)
    %extracted_282 = tensor.extract %48[%x] : tensor<1xf32> loc(#loc3)
    %inserted_283 = tensor.insert %extracted_282 into %0[%x] : tensor<1xf32> loc(#loc4)
    %reinterpret_cast_284 = memref.reinterpret_cast %out_ptr to offset: [47], sizes: [1], strides: [1] : memref<?xf32> to memref<1xf32, strided<[1], offset: 47>> loc(#loc4)
    bufferization.materialize_in_destination %inserted_283 in writable %reinterpret_cast_284 : (tensor<1xf32>, memref<1xf32, strided<[1], offset: 47>>) -> () loc(#loc4)
    %x_285 = memref.reinterpret_cast %x_ptr to offset: [48], sizes: [1], strides: [1] : memref<?xf32> to memref<1xf32, strided<[1], offset: 48>> loc(#loc8)
    %x_286 = memref.load %x_285[%x] : memref<1xf32, strided<[1], offset: 48>> loc(#loc7)
    %inserted_287 = tensor.insert %x_286 into %0[%x] : tensor<1xf32> loc(#loc3)
    %49 = arith.mulf %inserted_287, %inserted_287 : tensor<1xf32> loc(#loc3)
    %extracted_288 = tensor.extract %49[%x] : tensor<1xf32> loc(#loc3)
    %inserted_289 = tensor.insert %extracted_288 into %0[%x] : tensor<1xf32> loc(#loc4)
    %reinterpret_cast_290 = memref.reinterpret_cast %out_ptr to offset: [48], sizes: [1], strides: [1] : memref<?xf32> to memref<1xf32, strided<[1], offset: 48>> loc(#loc4)
    bufferization.materialize_in_destination %inserted_289 in writable %reinterpret_cast_290 : (tensor<1xf32>, memref<1xf32, strided<[1], offset: 48>>) -> () loc(#loc4)
    %x_291 = memref.reinterpret_cast %x_ptr to offset: [49], sizes: [1], strides: [1] : memref<?xf32> to memref<1xf32, strided<[1], offset: 49>> loc(#loc8)
    %x_292 = memref.load %x_291[%x] : memref<1xf32, strided<[1], offset: 49>> loc(#loc7)
    %inserted_293 = tensor.insert %x_292 into %0[%x] : tensor<1xf32> loc(#loc3)
    %50 = arith.mulf %inserted_293, %inserted_293 : tensor<1xf32> loc(#loc3)
    %extracted_294 = tensor.extract %50[%x] : tensor<1xf32> loc(#loc3)
    %inserted_295 = tensor.insert %extracted_294 into %0[%x] : tensor<1xf32> loc(#loc4)
    %reinterpret_cast_296 = memref.reinterpret_cast %out_ptr to offset: [49], sizes: [1], strides: [1] : memref<?xf32> to memref<1xf32, strided<[1], offset: 49>> loc(#loc4)
    bufferization.materialize_in_destination %inserted_295 in writable %reinterpret_cast_296 : (tensor<1xf32>, memref<1xf32, strided<[1], offset: 49>>) -> () loc(#loc4)
    %x_297 = memref.reinterpret_cast %x_ptr to offset: [50], sizes: [1], strides: [1] : memref<?xf32> to memref<1xf32, strided<[1], offset: 50>> loc(#loc8)
    %x_298 = memref.load %x_297[%x] : memref<1xf32, strided<[1], offset: 50>> loc(#loc7)
    %inserted_299 = tensor.insert %x_298 into %0[%x] : tensor<1xf32> loc(#loc3)
    %51 = arith.mulf %inserted_299, %inserted_299 : tensor<1xf32> loc(#loc3)
    %extracted_300 = tensor.extract %51[%x] : tensor<1xf32> loc(#loc3)
    %inserted_301 = tensor.insert %extracted_300 into %0[%x] : tensor<1xf32> loc(#loc4)
    %reinterpret_cast_302 = memref.reinterpret_cast %out_ptr to offset: [50], sizes: [1], strides: [1] : memref<?xf32> to memref<1xf32, strided<[1], offset: 50>> loc(#loc4)
    bufferization.materialize_in_destination %inserted_301 in writable %reinterpret_cast_302 : (tensor<1xf32>, memref<1xf32, strided<[1], offset: 50>>) -> () loc(#loc4)
    %x_303 = memref.reinterpret_cast %x_ptr to offset: [51], sizes: [1], strides: [1] : memref<?xf32> to memref<1xf32, strided<[1], offset: 51>> loc(#loc8)
    %x_304 = memref.load %x_303[%x] : memref<1xf32, strided<[1], offset: 51>> loc(#loc7)
    %inserted_305 = tensor.insert %x_304 into %0[%x] : tensor<1xf32> loc(#loc3)
    %52 = arith.mulf %inserted_305, %inserted_305 : tensor<1xf32> loc(#loc3)
    %extracted_306 = tensor.extract %52[%x] : tensor<1xf32> loc(#loc3)
    %inserted_307 = tensor.insert %extracted_306 into %0[%x] : tensor<1xf32> loc(#loc4)
    %reinterpret_cast_308 = memref.reinterpret_cast %out_ptr to offset: [51], sizes: [1], strides: [1] : memref<?xf32> to memref<1xf32, strided<[1], offset: 51>> loc(#loc4)
    bufferization.materialize_in_destination %inserted_307 in writable %reinterpret_cast_308 : (tensor<1xf32>, memref<1xf32, strided<[1], offset: 51>>) -> () loc(#loc4)
    %x_309 = memref.reinterpret_cast %x_ptr to offset: [52], sizes: [1], strides: [1] : memref<?xf32> to memref<1xf32, strided<[1], offset: 52>> loc(#loc8)
    %x_310 = memref.load %x_309[%x] : memref<1xf32, strided<[1], offset: 52>> loc(#loc7)
    %inserted_311 = tensor.insert %x_310 into %0[%x] : tensor<1xf32> loc(#loc3)
    %53 = arith.mulf %inserted_311, %inserted_311 : tensor<1xf32> loc(#loc3)
    %extracted_312 = tensor.extract %53[%x] : tensor<1xf32> loc(#loc3)
    %inserted_313 = tensor.insert %extracted_312 into %0[%x] : tensor<1xf32> loc(#loc4)
    %reinterpret_cast_314 = memref.reinterpret_cast %out_ptr to offset: [52], sizes: [1], strides: [1] : memref<?xf32> to memref<1xf32, strided<[1], offset: 52>> loc(#loc4)
    bufferization.materialize_in_destination %inserted_313 in writable %reinterpret_cast_314 : (tensor<1xf32>, memref<1xf32, strided<[1], offset: 52>>) -> () loc(#loc4)
    %x_315 = memref.reinterpret_cast %x_ptr to offset: [53], sizes: [1], strides: [1] : memref<?xf32> to memref<1xf32, strided<[1], offset: 53>> loc(#loc8)
    %x_316 = memref.load %x_315[%x] : memref<1xf32, strided<[1], offset: 53>> loc(#loc7)
    %inserted_317 = tensor.insert %x_316 into %0[%x] : tensor<1xf32> loc(#loc3)
    %54 = arith.mulf %inserted_317, %inserted_317 : tensor<1xf32> loc(#loc3)
    %extracted_318 = tensor.extract %54[%x] : tensor<1xf32> loc(#loc3)
    %inserted_319 = tensor.insert %extracted_318 into %0[%x] : tensor<1xf32> loc(#loc4)
    %reinterpret_cast_320 = memref.reinterpret_cast %out_ptr to offset: [53], sizes: [1], strides: [1] : memref<?xf32> to memref<1xf32, strided<[1], offset: 53>> loc(#loc4)
    bufferization.materialize_in_destination %inserted_319 in writable %reinterpret_cast_320 : (tensor<1xf32>, memref<1xf32, strided<[1], offset: 53>>) -> () loc(#loc4)
    %x_321 = memref.reinterpret_cast %x_ptr to offset: [54], sizes: [1], strides: [1] : memref<?xf32> to memref<1xf32, strided<[1], offset: 54>> loc(#loc8)
    %x_322 = memref.load %x_321[%x] : memref<1xf32, strided<[1], offset: 54>> loc(#loc7)
    %inserted_323 = tensor.insert %x_322 into %0[%x] : tensor<1xf32> loc(#loc3)
    %55 = arith.mulf %inserted_323, %inserted_323 : tensor<1xf32> loc(#loc3)
    %extracted_324 = tensor.extract %55[%x] : tensor<1xf32> loc(#loc3)
    %inserted_325 = tensor.insert %extracted_324 into %0[%x] : tensor<1xf32> loc(#loc4)
    %reinterpret_cast_326 = memref.reinterpret_cast %out_ptr to offset: [54], sizes: [1], strides: [1] : memref<?xf32> to memref<1xf32, strided<[1], offset: 54>> loc(#loc4)
    bufferization.materialize_in_destination %inserted_325 in writable %reinterpret_cast_326 : (tensor<1xf32>, memref<1xf32, strided<[1], offset: 54>>) -> () loc(#loc4)
    %x_327 = memref.reinterpret_cast %x_ptr to offset: [55], sizes: [1], strides: [1] : memref<?xf32> to memref<1xf32, strided<[1], offset: 55>> loc(#loc8)
    %x_328 = memref.load %x_327[%x] : memref<1xf32, strided<[1], offset: 55>> loc(#loc7)
    %inserted_329 = tensor.insert %x_328 into %0[%x] : tensor<1xf32> loc(#loc3)
    %56 = arith.mulf %inserted_329, %inserted_329 : tensor<1xf32> loc(#loc3)
    %extracted_330 = tensor.extract %56[%x] : tensor<1xf32> loc(#loc3)
    %inserted_331 = tensor.insert %extracted_330 into %0[%x] : tensor<1xf32> loc(#loc4)
    %reinterpret_cast_332 = memref.reinterpret_cast %out_ptr to offset: [55], sizes: [1], strides: [1] : memref<?xf32> to memref<1xf32, strided<[1], offset: 55>> loc(#loc4)
    bufferization.materialize_in_destination %inserted_331 in writable %reinterpret_cast_332 : (tensor<1xf32>, memref<1xf32, strided<[1], offset: 55>>) -> () loc(#loc4)
    %x_333 = memref.reinterpret_cast %x_ptr to offset: [56], sizes: [1], strides: [1] : memref<?xf32> to memref<1xf32, strided<[1], offset: 56>> loc(#loc8)
    %x_334 = memref.load %x_333[%x] : memref<1xf32, strided<[1], offset: 56>> loc(#loc7)
    %inserted_335 = tensor.insert %x_334 into %0[%x] : tensor<1xf32> loc(#loc3)
    %57 = arith.mulf %inserted_335, %inserted_335 : tensor<1xf32> loc(#loc3)
    %extracted_336 = tensor.extract %57[%x] : tensor<1xf32> loc(#loc3)
    %inserted_337 = tensor.insert %extracted_336 into %0[%x] : tensor<1xf32> loc(#loc4)
    %reinterpret_cast_338 = memref.reinterpret_cast %out_ptr to offset: [56], sizes: [1], strides: [1] : memref<?xf32> to memref<1xf32, strided<[1], offset: 56>> loc(#loc4)
    bufferization.materialize_in_destination %inserted_337 in writable %reinterpret_cast_338 : (tensor<1xf32>, memref<1xf32, strided<[1], offset: 56>>) -> () loc(#loc4)
    %x_339 = memref.reinterpret_cast %x_ptr to offset: [57], sizes: [1], strides: [1] : memref<?xf32> to memref<1xf32, strided<[1], offset: 57>> loc(#loc8)
    %x_340 = memref.load %x_339[%x] : memref<1xf32, strided<[1], offset: 57>> loc(#loc7)
    %inserted_341 = tensor.insert %x_340 into %0[%x] : tensor<1xf32> loc(#loc3)
    %58 = arith.mulf %inserted_341, %inserted_341 : tensor<1xf32> loc(#loc3)
    %extracted_342 = tensor.extract %58[%x] : tensor<1xf32> loc(#loc3)
    %inserted_343 = tensor.insert %extracted_342 into %0[%x] : tensor<1xf32> loc(#loc4)
    %reinterpret_cast_344 = memref.reinterpret_cast %out_ptr to offset: [57], sizes: [1], strides: [1] : memref<?xf32> to memref<1xf32, strided<[1], offset: 57>> loc(#loc4)
    bufferization.materialize_in_destination %inserted_343 in writable %reinterpret_cast_344 : (tensor<1xf32>, memref<1xf32, strided<[1], offset: 57>>) -> () loc(#loc4)
    %x_345 = memref.reinterpret_cast %x_ptr to offset: [58], sizes: [1], strides: [1] : memref<?xf32> to memref<1xf32, strided<[1], offset: 58>> loc(#loc8)
    %x_346 = memref.load %x_345[%x] : memref<1xf32, strided<[1], offset: 58>> loc(#loc7)
    %inserted_347 = tensor.insert %x_346 into %0[%x] : tensor<1xf32> loc(#loc3)
    %59 = arith.mulf %inserted_347, %inserted_347 : tensor<1xf32> loc(#loc3)
    %extracted_348 = tensor.extract %59[%x] : tensor<1xf32> loc(#loc3)
    %inserted_349 = tensor.insert %extracted_348 into %0[%x] : tensor<1xf32> loc(#loc4)
    %reinterpret_cast_350 = memref.reinterpret_cast %out_ptr to offset: [58], sizes: [1], strides: [1] : memref<?xf32> to memref<1xf32, strided<[1], offset: 58>> loc(#loc4)
    bufferization.materialize_in_destination %inserted_349 in writable %reinterpret_cast_350 : (tensor<1xf32>, memref<1xf32, strided<[1], offset: 58>>) -> () loc(#loc4)
    %x_351 = memref.reinterpret_cast %x_ptr to offset: [59], sizes: [1], strides: [1] : memref<?xf32> to memref<1xf32, strided<[1], offset: 59>> loc(#loc8)
    %x_352 = memref.load %x_351[%x] : memref<1xf32, strided<[1], offset: 59>> loc(#loc7)
    %inserted_353 = tensor.insert %x_352 into %0[%x] : tensor<1xf32> loc(#loc3)
    %60 = arith.mulf %inserted_353, %inserted_353 : tensor<1xf32> loc(#loc3)
    %extracted_354 = tensor.extract %60[%x] : tensor<1xf32> loc(#loc3)
    %inserted_355 = tensor.insert %extracted_354 into %0[%x] : tensor<1xf32> loc(#loc4)
    %reinterpret_cast_356 = memref.reinterpret_cast %out_ptr to offset: [59], sizes: [1], strides: [1] : memref<?xf32> to memref<1xf32, strided<[1], offset: 59>> loc(#loc4)
    bufferization.materialize_in_destination %inserted_355 in writable %reinterpret_cast_356 : (tensor<1xf32>, memref<1xf32, strided<[1], offset: 59>>) -> () loc(#loc4)
    %x_357 = memref.reinterpret_cast %x_ptr to offset: [60], sizes: [1], strides: [1] : memref<?xf32> to memref<1xf32, strided<[1], offset: 60>> loc(#loc8)
    %x_358 = memref.load %x_357[%x] : memref<1xf32, strided<[1], offset: 60>> loc(#loc7)
    %inserted_359 = tensor.insert %x_358 into %0[%x] : tensor<1xf32> loc(#loc3)
    %61 = arith.mulf %inserted_359, %inserted_359 : tensor<1xf32> loc(#loc3)
    %extracted_360 = tensor.extract %61[%x] : tensor<1xf32> loc(#loc3)
    %inserted_361 = tensor.insert %extracted_360 into %0[%x] : tensor<1xf32> loc(#loc4)
    %reinterpret_cast_362 = memref.reinterpret_cast %out_ptr to offset: [60], sizes: [1], strides: [1] : memref<?xf32> to memref<1xf32, strided<[1], offset: 60>> loc(#loc4)
    bufferization.materialize_in_destination %inserted_361 in writable %reinterpret_cast_362 : (tensor<1xf32>, memref<1xf32, strided<[1], offset: 60>>) -> () loc(#loc4)
    %x_363 = memref.reinterpret_cast %x_ptr to offset: [61], sizes: [1], strides: [1] : memref<?xf32> to memref<1xf32, strided<[1], offset: 61>> loc(#loc8)
    %x_364 = memref.load %x_363[%x] : memref<1xf32, strided<[1], offset: 61>> loc(#loc7)
    %inserted_365 = tensor.insert %x_364 into %0[%x] : tensor<1xf32> loc(#loc3)
    %62 = arith.mulf %inserted_365, %inserted_365 : tensor<1xf32> loc(#loc3)
    %extracted_366 = tensor.extract %62[%x] : tensor<1xf32> loc(#loc3)
    %inserted_367 = tensor.insert %extracted_366 into %0[%x] : tensor<1xf32> loc(#loc4)
    %reinterpret_cast_368 = memref.reinterpret_cast %out_ptr to offset: [61], sizes: [1], strides: [1] : memref<?xf32> to memref<1xf32, strided<[1], offset: 61>> loc(#loc4)
    bufferization.materialize_in_destination %inserted_367 in writable %reinterpret_cast_368 : (tensor<1xf32>, memref<1xf32, strided<[1], offset: 61>>) -> () loc(#loc4)
    %x_369 = memref.reinterpret_cast %x_ptr to offset: [62], sizes: [1], strides: [1] : memref<?xf32> to memref<1xf32, strided<[1], offset: 62>> loc(#loc8)
    %x_370 = memref.load %x_369[%x] : memref<1xf32, strided<[1], offset: 62>> loc(#loc7)
    %inserted_371 = tensor.insert %x_370 into %0[%x] : tensor<1xf32> loc(#loc3)
    %63 = arith.mulf %inserted_371, %inserted_371 : tensor<1xf32> loc(#loc3)
    %extracted_372 = tensor.extract %63[%x] : tensor<1xf32> loc(#loc3)
    %inserted_373 = tensor.insert %extracted_372 into %0[%x] : tensor<1xf32> loc(#loc4)
    %reinterpret_cast_374 = memref.reinterpret_cast %out_ptr to offset: [62], sizes: [1], strides: [1] : memref<?xf32> to memref<1xf32, strided<[1], offset: 62>> loc(#loc4)
    bufferization.materialize_in_destination %inserted_373 in writable %reinterpret_cast_374 : (tensor<1xf32>, memref<1xf32, strided<[1], offset: 62>>) -> () loc(#loc4)
    %x_375 = memref.reinterpret_cast %x_ptr to offset: [63], sizes: [1], strides: [1] : memref<?xf32> to memref<1xf32, strided<[1], offset: 63>> loc(#loc8)
    %x_376 = memref.load %x_375[%x] : memref<1xf32, strided<[1], offset: 63>> loc(#loc7)
    %inserted_377 = tensor.insert %x_376 into %0[%x] : tensor<1xf32> loc(#loc3)
    %64 = arith.mulf %inserted_377, %inserted_377 : tensor<1xf32> loc(#loc3)
    %extracted_378 = tensor.extract %64[%x] : tensor<1xf32> loc(#loc3)
    %inserted_379 = tensor.insert %extracted_378 into %0[%x] : tensor<1xf32> loc(#loc4)
    %reinterpret_cast_380 = memref.reinterpret_cast %out_ptr to offset: [63], sizes: [1], strides: [1] : memref<?xf32> to memref<1xf32, strided<[1], offset: 63>> loc(#loc4)
    bufferization.materialize_in_destination %inserted_379 in writable %reinterpret_cast_380 : (tensor<1xf32>, memref<1xf32, strided<[1], offset: 63>>) -> () loc(#loc4)
    %x_381 = memref.reinterpret_cast %x_ptr to offset: [64], sizes: [1], strides: [1] : memref<?xf32> to memref<1xf32, strided<[1], offset: 64>> loc(#loc8)
    %x_382 = memref.load %x_381[%x] : memref<1xf32, strided<[1], offset: 64>> loc(#loc7)
    %inserted_383 = tensor.insert %x_382 into %0[%x] : tensor<1xf32> loc(#loc3)
    %65 = arith.mulf %inserted_383, %inserted_383 : tensor<1xf32> loc(#loc3)
    %extracted_384 = tensor.extract %65[%x] : tensor<1xf32> loc(#loc3)
    %inserted_385 = tensor.insert %extracted_384 into %0[%x] : tensor<1xf32> loc(#loc4)
    %reinterpret_cast_386 = memref.reinterpret_cast %out_ptr to offset: [64], sizes: [1], strides: [1] : memref<?xf32> to memref<1xf32, strided<[1], offset: 64>> loc(#loc4)
    bufferization.materialize_in_destination %inserted_385 in writable %reinterpret_cast_386 : (tensor<1xf32>, memref<1xf32, strided<[1], offset: 64>>) -> () loc(#loc4)
    %x_387 = memref.reinterpret_cast %x_ptr to offset: [65], sizes: [1], strides: [1] : memref<?xf32> to memref<1xf32, strided<[1], offset: 65>> loc(#loc8)
    %x_388 = memref.load %x_387[%x] : memref<1xf32, strided<[1], offset: 65>> loc(#loc7)
    %inserted_389 = tensor.insert %x_388 into %0[%x] : tensor<1xf32> loc(#loc3)
    %66 = arith.mulf %inserted_389, %inserted_389 : tensor<1xf32> loc(#loc3)
    %extracted_390 = tensor.extract %66[%x] : tensor<1xf32> loc(#loc3)
    %inserted_391 = tensor.insert %extracted_390 into %0[%x] : tensor<1xf32> loc(#loc4)
    %reinterpret_cast_392 = memref.reinterpret_cast %out_ptr to offset: [65], sizes: [1], strides: [1] : memref<?xf32> to memref<1xf32, strided<[1], offset: 65>> loc(#loc4)
    bufferization.materialize_in_destination %inserted_391 in writable %reinterpret_cast_392 : (tensor<1xf32>, memref<1xf32, strided<[1], offset: 65>>) -> () loc(#loc4)
    %x_393 = memref.reinterpret_cast %x_ptr to offset: [66], sizes: [1], strides: [1] : memref<?xf32> to memref<1xf32, strided<[1], offset: 66>> loc(#loc8)
    %x_394 = memref.load %x_393[%x] : memref<1xf32, strided<[1], offset: 66>> loc(#loc7)
    %inserted_395 = tensor.insert %x_394 into %0[%x] : tensor<1xf32> loc(#loc3)
    %67 = arith.mulf %inserted_395, %inserted_395 : tensor<1xf32> loc(#loc3)
    %extracted_396 = tensor.extract %67[%x] : tensor<1xf32> loc(#loc3)
    %inserted_397 = tensor.insert %extracted_396 into %0[%x] : tensor<1xf32> loc(#loc4)
    %reinterpret_cast_398 = memref.reinterpret_cast %out_ptr to offset: [66], sizes: [1], strides: [1] : memref<?xf32> to memref<1xf32, strided<[1], offset: 66>> loc(#loc4)
    bufferization.materialize_in_destination %inserted_397 in writable %reinterpret_cast_398 : (tensor<1xf32>, memref<1xf32, strided<[1], offset: 66>>) -> () loc(#loc4)
    %x_399 = memref.reinterpret_cast %x_ptr to offset: [67], sizes: [1], strides: [1] : memref<?xf32> to memref<1xf32, strided<[1], offset: 67>> loc(#loc8)
    %x_400 = memref.load %x_399[%x] : memref<1xf32, strided<[1], offset: 67>> loc(#loc7)
    %inserted_401 = tensor.insert %x_400 into %0[%x] : tensor<1xf32> loc(#loc3)
    %68 = arith.mulf %inserted_401, %inserted_401 : tensor<1xf32> loc(#loc3)
    %extracted_402 = tensor.extract %68[%x] : tensor<1xf32> loc(#loc3)
    %inserted_403 = tensor.insert %extracted_402 into %0[%x] : tensor<1xf32> loc(#loc4)
    %reinterpret_cast_404 = memref.reinterpret_cast %out_ptr to offset: [67], sizes: [1], strides: [1] : memref<?xf32> to memref<1xf32, strided<[1], offset: 67>> loc(#loc4)
    bufferization.materialize_in_destination %inserted_403 in writable %reinterpret_cast_404 : (tensor<1xf32>, memref<1xf32, strided<[1], offset: 67>>) -> () loc(#loc4)
    %x_405 = memref.reinterpret_cast %x_ptr to offset: [68], sizes: [1], strides: [1] : memref<?xf32> to memref<1xf32, strided<[1], offset: 68>> loc(#loc8)
    %x_406 = memref.load %x_405[%x] : memref<1xf32, strided<[1], offset: 68>> loc(#loc7)
    %inserted_407 = tensor.insert %x_406 into %0[%x] : tensor<1xf32> loc(#loc3)
    %69 = arith.mulf %inserted_407, %inserted_407 : tensor<1xf32> loc(#loc3)
    %extracted_408 = tensor.extract %69[%x] : tensor<1xf32> loc(#loc3)
    %inserted_409 = tensor.insert %extracted_408 into %0[%x] : tensor<1xf32> loc(#loc4)
    %reinterpret_cast_410 = memref.reinterpret_cast %out_ptr to offset: [68], sizes: [1], strides: [1] : memref<?xf32> to memref<1xf32, strided<[1], offset: 68>> loc(#loc4)
    bufferization.materialize_in_destination %inserted_409 in writable %reinterpret_cast_410 : (tensor<1xf32>, memref<1xf32, strided<[1], offset: 68>>) -> () loc(#loc4)
    %x_411 = memref.reinterpret_cast %x_ptr to offset: [69], sizes: [1], strides: [1] : memref<?xf32> to memref<1xf32, strided<[1], offset: 69>> loc(#loc8)
    %x_412 = memref.load %x_411[%x] : memref<1xf32, strided<[1], offset: 69>> loc(#loc7)
    %inserted_413 = tensor.insert %x_412 into %0[%x] : tensor<1xf32> loc(#loc3)
    %70 = arith.mulf %inserted_413, %inserted_413 : tensor<1xf32> loc(#loc3)
    %extracted_414 = tensor.extract %70[%x] : tensor<1xf32> loc(#loc3)
    %inserted_415 = tensor.insert %extracted_414 into %0[%x] : tensor<1xf32> loc(#loc4)
    %reinterpret_cast_416 = memref.reinterpret_cast %out_ptr to offset: [69], sizes: [1], strides: [1] : memref<?xf32> to memref<1xf32, strided<[1], offset: 69>> loc(#loc4)
    bufferization.materialize_in_destination %inserted_415 in writable %reinterpret_cast_416 : (tensor<1xf32>, memref<1xf32, strided<[1], offset: 69>>) -> () loc(#loc4)
    %x_417 = memref.reinterpret_cast %x_ptr to offset: [70], sizes: [1], strides: [1] : memref<?xf32> to memref<1xf32, strided<[1], offset: 70>> loc(#loc8)
    %x_418 = memref.load %x_417[%x] : memref<1xf32, strided<[1], offset: 70>> loc(#loc7)
    %inserted_419 = tensor.insert %x_418 into %0[%x] : tensor<1xf32> loc(#loc3)
    %71 = arith.mulf %inserted_419, %inserted_419 : tensor<1xf32> loc(#loc3)
    %extracted_420 = tensor.extract %71[%x] : tensor<1xf32> loc(#loc3)
    %inserted_421 = tensor.insert %extracted_420 into %0[%x] : tensor<1xf32> loc(#loc4)
    %reinterpret_cast_422 = memref.reinterpret_cast %out_ptr to offset: [70], sizes: [1], strides: [1] : memref<?xf32> to memref<1xf32, strided<[1], offset: 70>> loc(#loc4)
    bufferization.materialize_in_destination %inserted_421 in writable %reinterpret_cast_422 : (tensor<1xf32>, memref<1xf32, strided<[1], offset: 70>>) -> () loc(#loc4)
    %x_423 = memref.reinterpret_cast %x_ptr to offset: [71], sizes: [1], strides: [1] : memref<?xf32> to memref<1xf32, strided<[1], offset: 71>> loc(#loc8)
    %x_424 = memref.load %x_423[%x] : memref<1xf32, strided<[1], offset: 71>> loc(#loc7)
    %inserted_425 = tensor.insert %x_424 into %0[%x] : tensor<1xf32> loc(#loc3)
    %72 = arith.mulf %inserted_425, %inserted_425 : tensor<1xf32> loc(#loc3)
    %extracted_426 = tensor.extract %72[%x] : tensor<1xf32> loc(#loc3)
    %inserted_427 = tensor.insert %extracted_426 into %0[%x] : tensor<1xf32> loc(#loc4)
    %reinterpret_cast_428 = memref.reinterpret_cast %out_ptr to offset: [71], sizes: [1], strides: [1] : memref<?xf32> to memref<1xf32, strided<[1], offset: 71>> loc(#loc4)
    bufferization.materialize_in_destination %inserted_427 in writable %reinterpret_cast_428 : (tensor<1xf32>, memref<1xf32, strided<[1], offset: 71>>) -> () loc(#loc4)
    %x_429 = memref.reinterpret_cast %x_ptr to offset: [72], sizes: [1], strides: [1] : memref<?xf32> to memref<1xf32, strided<[1], offset: 72>> loc(#loc8)
    %x_430 = memref.load %x_429[%x] : memref<1xf32, strided<[1], offset: 72>> loc(#loc7)
    %inserted_431 = tensor.insert %x_430 into %0[%x] : tensor<1xf32> loc(#loc3)
    %73 = arith.mulf %inserted_431, %inserted_431 : tensor<1xf32> loc(#loc3)
    %extracted_432 = tensor.extract %73[%x] : tensor<1xf32> loc(#loc3)
    %inserted_433 = tensor.insert %extracted_432 into %0[%x] : tensor<1xf32> loc(#loc4)
    %reinterpret_cast_434 = memref.reinterpret_cast %out_ptr to offset: [72], sizes: [1], strides: [1] : memref<?xf32> to memref<1xf32, strided<[1], offset: 72>> loc(#loc4)
    bufferization.materialize_in_destination %inserted_433 in writable %reinterpret_cast_434 : (tensor<1xf32>, memref<1xf32, strided<[1], offset: 72>>) -> () loc(#loc4)
    %x_435 = memref.reinterpret_cast %x_ptr to offset: [73], sizes: [1], strides: [1] : memref<?xf32> to memref<1xf32, strided<[1], offset: 73>> loc(#loc8)
    %x_436 = memref.load %x_435[%x] : memref<1xf32, strided<[1], offset: 73>> loc(#loc7)
    %inserted_437 = tensor.insert %x_436 into %0[%x] : tensor<1xf32> loc(#loc3)
    %74 = arith.mulf %inserted_437, %inserted_437 : tensor<1xf32> loc(#loc3)
    %extracted_438 = tensor.extract %74[%x] : tensor<1xf32> loc(#loc3)
    %inserted_439 = tensor.insert %extracted_438 into %0[%x] : tensor<1xf32> loc(#loc4)
    %reinterpret_cast_440 = memref.reinterpret_cast %out_ptr to offset: [73], sizes: [1], strides: [1] : memref<?xf32> to memref<1xf32, strided<[1], offset: 73>> loc(#loc4)
    bufferization.materialize_in_destination %inserted_439 in writable %reinterpret_cast_440 : (tensor<1xf32>, memref<1xf32, strided<[1], offset: 73>>) -> () loc(#loc4)
    %x_441 = memref.reinterpret_cast %x_ptr to offset: [74], sizes: [1], strides: [1] : memref<?xf32> to memref<1xf32, strided<[1], offset: 74>> loc(#loc8)
    %x_442 = memref.load %x_441[%x] : memref<1xf32, strided<[1], offset: 74>> loc(#loc7)
    %inserted_443 = tensor.insert %x_442 into %0[%x] : tensor<1xf32> loc(#loc3)
    %75 = arith.mulf %inserted_443, %inserted_443 : tensor<1xf32> loc(#loc3)
    %extracted_444 = tensor.extract %75[%x] : tensor<1xf32> loc(#loc3)
    %inserted_445 = tensor.insert %extracted_444 into %0[%x] : tensor<1xf32> loc(#loc4)
    %reinterpret_cast_446 = memref.reinterpret_cast %out_ptr to offset: [74], sizes: [1], strides: [1] : memref<?xf32> to memref<1xf32, strided<[1], offset: 74>> loc(#loc4)
    bufferization.materialize_in_destination %inserted_445 in writable %reinterpret_cast_446 : (tensor<1xf32>, memref<1xf32, strided<[1], offset: 74>>) -> () loc(#loc4)
    %x_447 = memref.reinterpret_cast %x_ptr to offset: [75], sizes: [1], strides: [1] : memref<?xf32> to memref<1xf32, strided<[1], offset: 75>> loc(#loc8)
    %x_448 = memref.load %x_447[%x] : memref<1xf32, strided<[1], offset: 75>> loc(#loc7)
    %inserted_449 = tensor.insert %x_448 into %0[%x] : tensor<1xf32> loc(#loc3)
    %76 = arith.mulf %inserted_449, %inserted_449 : tensor<1xf32> loc(#loc3)
    %extracted_450 = tensor.extract %76[%x] : tensor<1xf32> loc(#loc3)
    %inserted_451 = tensor.insert %extracted_450 into %0[%x] : tensor<1xf32> loc(#loc4)
    %reinterpret_cast_452 = memref.reinterpret_cast %out_ptr to offset: [75], sizes: [1], strides: [1] : memref<?xf32> to memref<1xf32, strided<[1], offset: 75>> loc(#loc4)
    bufferization.materialize_in_destination %inserted_451 in writable %reinterpret_cast_452 : (tensor<1xf32>, memref<1xf32, strided<[1], offset: 75>>) -> () loc(#loc4)
    %x_453 = memref.reinterpret_cast %x_ptr to offset: [76], sizes: [1], strides: [1] : memref<?xf32> to memref<1xf32, strided<[1], offset: 76>> loc(#loc8)
    %x_454 = memref.load %x_453[%x] : memref<1xf32, strided<[1], offset: 76>> loc(#loc7)
    %inserted_455 = tensor.insert %x_454 into %0[%x] : tensor<1xf32> loc(#loc3)
    %77 = arith.mulf %inserted_455, %inserted_455 : tensor<1xf32> loc(#loc3)
    %extracted_456 = tensor.extract %77[%x] : tensor<1xf32> loc(#loc3)
    %inserted_457 = tensor.insert %extracted_456 into %0[%x] : tensor<1xf32> loc(#loc4)
    %reinterpret_cast_458 = memref.reinterpret_cast %out_ptr to offset: [76], sizes: [1], strides: [1] : memref<?xf32> to memref<1xf32, strided<[1], offset: 76>> loc(#loc4)
    bufferization.materialize_in_destination %inserted_457 in writable %reinterpret_cast_458 : (tensor<1xf32>, memref<1xf32, strided<[1], offset: 76>>) -> () loc(#loc4)
    %x_459 = memref.reinterpret_cast %x_ptr to offset: [77], sizes: [1], strides: [1] : memref<?xf32> to memref<1xf32, strided<[1], offset: 77>> loc(#loc8)
    %x_460 = memref.load %x_459[%x] : memref<1xf32, strided<[1], offset: 77>> loc(#loc7)
    %inserted_461 = tensor.insert %x_460 into %0[%x] : tensor<1xf32> loc(#loc3)
    %78 = arith.mulf %inserted_461, %inserted_461 : tensor<1xf32> loc(#loc3)
    %extracted_462 = tensor.extract %78[%x] : tensor<1xf32> loc(#loc3)
    %inserted_463 = tensor.insert %extracted_462 into %0[%x] : tensor<1xf32> loc(#loc4)
    %reinterpret_cast_464 = memref.reinterpret_cast %out_ptr to offset: [77], sizes: [1], strides: [1] : memref<?xf32> to memref<1xf32, strided<[1], offset: 77>> loc(#loc4)
    bufferization.materialize_in_destination %inserted_463 in writable %reinterpret_cast_464 : (tensor<1xf32>, memref<1xf32, strided<[1], offset: 77>>) -> () loc(#loc4)
    %x_465 = memref.reinterpret_cast %x_ptr to offset: [78], sizes: [1], strides: [1] : memref<?xf32> to memref<1xf32, strided<[1], offset: 78>> loc(#loc8)
    %x_466 = memref.load %x_465[%x] : memref<1xf32, strided<[1], offset: 78>> loc(#loc7)
    %inserted_467 = tensor.insert %x_466 into %0[%x] : tensor<1xf32> loc(#loc3)
    %79 = arith.mulf %inserted_467, %inserted_467 : tensor<1xf32> loc(#loc3)
    %extracted_468 = tensor.extract %79[%x] : tensor<1xf32> loc(#loc3)
    %inserted_469 = tensor.insert %extracted_468 into %0[%x] : tensor<1xf32> loc(#loc4)
    %reinterpret_cast_470 = memref.reinterpret_cast %out_ptr to offset: [78], sizes: [1], strides: [1] : memref<?xf32> to memref<1xf32, strided<[1], offset: 78>> loc(#loc4)
    bufferization.materialize_in_destination %inserted_469 in writable %reinterpret_cast_470 : (tensor<1xf32>, memref<1xf32, strided<[1], offset: 78>>) -> () loc(#loc4)
    %x_471 = memref.reinterpret_cast %x_ptr to offset: [79], sizes: [1], strides: [1] : memref<?xf32> to memref<1xf32, strided<[1], offset: 79>> loc(#loc8)
    %x_472 = memref.load %x_471[%x] : memref<1xf32, strided<[1], offset: 79>> loc(#loc7)
    %inserted_473 = tensor.insert %x_472 into %0[%x] : tensor<1xf32> loc(#loc3)
    %80 = arith.mulf %inserted_473, %inserted_473 : tensor<1xf32> loc(#loc3)
    %extracted_474 = tensor.extract %80[%x] : tensor<1xf32> loc(#loc3)
    %inserted_475 = tensor.insert %extracted_474 into %0[%x] : tensor<1xf32> loc(#loc4)
    %reinterpret_cast_476 = memref.reinterpret_cast %out_ptr to offset: [79], sizes: [1], strides: [1] : memref<?xf32> to memref<1xf32, strided<[1], offset: 79>> loc(#loc4)
    bufferization.materialize_in_destination %inserted_475 in writable %reinterpret_cast_476 : (tensor<1xf32>, memref<1xf32, strided<[1], offset: 79>>) -> () loc(#loc4)
    %x_477 = memref.reinterpret_cast %x_ptr to offset: [80], sizes: [1], strides: [1] : memref<?xf32> to memref<1xf32, strided<[1], offset: 80>> loc(#loc8)
    %x_478 = memref.load %x_477[%x] : memref<1xf32, strided<[1], offset: 80>> loc(#loc7)
    %inserted_479 = tensor.insert %x_478 into %0[%x] : tensor<1xf32> loc(#loc3)
    %81 = arith.mulf %inserted_479, %inserted_479 : tensor<1xf32> loc(#loc3)
    %extracted_480 = tensor.extract %81[%x] : tensor<1xf32> loc(#loc3)
    %inserted_481 = tensor.insert %extracted_480 into %0[%x] : tensor<1xf32> loc(#loc4)
    %reinterpret_cast_482 = memref.reinterpret_cast %out_ptr to offset: [80], sizes: [1], strides: [1] : memref<?xf32> to memref<1xf32, strided<[1], offset: 80>> loc(#loc4)
    bufferization.materialize_in_destination %inserted_481 in writable %reinterpret_cast_482 : (tensor<1xf32>, memref<1xf32, strided<[1], offset: 80>>) -> () loc(#loc4)
    %x_483 = memref.reinterpret_cast %x_ptr to offset: [81], sizes: [1], strides: [1] : memref<?xf32> to memref<1xf32, strided<[1], offset: 81>> loc(#loc8)
    %x_484 = memref.load %x_483[%x] : memref<1xf32, strided<[1], offset: 81>> loc(#loc7)
    %inserted_485 = tensor.insert %x_484 into %0[%x] : tensor<1xf32> loc(#loc3)
    %82 = arith.mulf %inserted_485, %inserted_485 : tensor<1xf32> loc(#loc3)
    %extracted_486 = tensor.extract %82[%x] : tensor<1xf32> loc(#loc3)
    %inserted_487 = tensor.insert %extracted_486 into %0[%x] : tensor<1xf32> loc(#loc4)
    %reinterpret_cast_488 = memref.reinterpret_cast %out_ptr to offset: [81], sizes: [1], strides: [1] : memref<?xf32> to memref<1xf32, strided<[1], offset: 81>> loc(#loc4)
    bufferization.materialize_in_destination %inserted_487 in writable %reinterpret_cast_488 : (tensor<1xf32>, memref<1xf32, strided<[1], offset: 81>>) -> () loc(#loc4)
    %x_489 = memref.reinterpret_cast %x_ptr to offset: [82], sizes: [1], strides: [1] : memref<?xf32> to memref<1xf32, strided<[1], offset: 82>> loc(#loc8)
    %x_490 = memref.load %x_489[%x] : memref<1xf32, strided<[1], offset: 82>> loc(#loc7)
    %inserted_491 = tensor.insert %x_490 into %0[%x] : tensor<1xf32> loc(#loc3)
    %83 = arith.mulf %inserted_491, %inserted_491 : tensor<1xf32> loc(#loc3)
    %extracted_492 = tensor.extract %83[%x] : tensor<1xf32> loc(#loc3)
    %inserted_493 = tensor.insert %extracted_492 into %0[%x] : tensor<1xf32> loc(#loc4)
    %reinterpret_cast_494 = memref.reinterpret_cast %out_ptr to offset: [82], sizes: [1], strides: [1] : memref<?xf32> to memref<1xf32, strided<[1], offset: 82>> loc(#loc4)
    bufferization.materialize_in_destination %inserted_493 in writable %reinterpret_cast_494 : (tensor<1xf32>, memref<1xf32, strided<[1], offset: 82>>) -> () loc(#loc4)
    %x_495 = memref.reinterpret_cast %x_ptr to offset: [83], sizes: [1], strides: [1] : memref<?xf32> to memref<1xf32, strided<[1], offset: 83>> loc(#loc8)
    %x_496 = memref.load %x_495[%x] : memref<1xf32, strided<[1], offset: 83>> loc(#loc7)
    %inserted_497 = tensor.insert %x_496 into %0[%x] : tensor<1xf32> loc(#loc3)
    %84 = arith.mulf %inserted_497, %inserted_497 : tensor<1xf32> loc(#loc3)
    %extracted_498 = tensor.extract %84[%x] : tensor<1xf32> loc(#loc3)
    %inserted_499 = tensor.insert %extracted_498 into %0[%x] : tensor<1xf32> loc(#loc4)
    %reinterpret_cast_500 = memref.reinterpret_cast %out_ptr to offset: [83], sizes: [1], strides: [1] : memref<?xf32> to memref<1xf32, strided<[1], offset: 83>> loc(#loc4)
    bufferization.materialize_in_destination %inserted_499 in writable %reinterpret_cast_500 : (tensor<1xf32>, memref<1xf32, strided<[1], offset: 83>>) -> () loc(#loc4)
    %x_501 = memref.reinterpret_cast %x_ptr to offset: [84], sizes: [1], strides: [1] : memref<?xf32> to memref<1xf32, strided<[1], offset: 84>> loc(#loc8)
    %x_502 = memref.load %x_501[%x] : memref<1xf32, strided<[1], offset: 84>> loc(#loc7)
    %inserted_503 = tensor.insert %x_502 into %0[%x] : tensor<1xf32> loc(#loc3)
    %85 = arith.mulf %inserted_503, %inserted_503 : tensor<1xf32> loc(#loc3)
    %extracted_504 = tensor.extract %85[%x] : tensor<1xf32> loc(#loc3)
    %inserted_505 = tensor.insert %extracted_504 into %0[%x] : tensor<1xf32> loc(#loc4)
    %reinterpret_cast_506 = memref.reinterpret_cast %out_ptr to offset: [84], sizes: [1], strides: [1] : memref<?xf32> to memref<1xf32, strided<[1], offset: 84>> loc(#loc4)
    bufferization.materialize_in_destination %inserted_505 in writable %reinterpret_cast_506 : (tensor<1xf32>, memref<1xf32, strided<[1], offset: 84>>) -> () loc(#loc4)
    %x_507 = memref.reinterpret_cast %x_ptr to offset: [85], sizes: [1], strides: [1] : memref<?xf32> to memref<1xf32, strided<[1], offset: 85>> loc(#loc8)
    %x_508 = memref.load %x_507[%x] : memref<1xf32, strided<[1], offset: 85>> loc(#loc7)
    %inserted_509 = tensor.insert %x_508 into %0[%x] : tensor<1xf32> loc(#loc3)
    %86 = arith.mulf %inserted_509, %inserted_509 : tensor<1xf32> loc(#loc3)
    %extracted_510 = tensor.extract %86[%x] : tensor<1xf32> loc(#loc3)
    %inserted_511 = tensor.insert %extracted_510 into %0[%x] : tensor<1xf32> loc(#loc4)
    %reinterpret_cast_512 = memref.reinterpret_cast %out_ptr to offset: [85], sizes: [1], strides: [1] : memref<?xf32> to memref<1xf32, strided<[1], offset: 85>> loc(#loc4)
    bufferization.materialize_in_destination %inserted_511 in writable %reinterpret_cast_512 : (tensor<1xf32>, memref<1xf32, strided<[1], offset: 85>>) -> () loc(#loc4)
    %x_513 = memref.reinterpret_cast %x_ptr to offset: [86], sizes: [1], strides: [1] : memref<?xf32> to memref<1xf32, strided<[1], offset: 86>> loc(#loc8)
    %x_514 = memref.load %x_513[%x] : memref<1xf32, strided<[1], offset: 86>> loc(#loc7)
    %inserted_515 = tensor.insert %x_514 into %0[%x] : tensor<1xf32> loc(#loc3)
    %87 = arith.mulf %inserted_515, %inserted_515 : tensor<1xf32> loc(#loc3)
    %extracted_516 = tensor.extract %87[%x] : tensor<1xf32> loc(#loc3)
    %inserted_517 = tensor.insert %extracted_516 into %0[%x] : tensor<1xf32> loc(#loc4)
    %reinterpret_cast_518 = memref.reinterpret_cast %out_ptr to offset: [86], sizes: [1], strides: [1] : memref<?xf32> to memref<1xf32, strided<[1], offset: 86>> loc(#loc4)
    bufferization.materialize_in_destination %inserted_517 in writable %reinterpret_cast_518 : (tensor<1xf32>, memref<1xf32, strided<[1], offset: 86>>) -> () loc(#loc4)
    %x_519 = memref.reinterpret_cast %x_ptr to offset: [87], sizes: [1], strides: [1] : memref<?xf32> to memref<1xf32, strided<[1], offset: 87>> loc(#loc8)
    %x_520 = memref.load %x_519[%x] : memref<1xf32, strided<[1], offset: 87>> loc(#loc7)
    %inserted_521 = tensor.insert %x_520 into %0[%x] : tensor<1xf32> loc(#loc3)
    %88 = arith.mulf %inserted_521, %inserted_521 : tensor<1xf32> loc(#loc3)
    %extracted_522 = tensor.extract %88[%x] : tensor<1xf32> loc(#loc3)
    %inserted_523 = tensor.insert %extracted_522 into %0[%x] : tensor<1xf32> loc(#loc4)
    %reinterpret_cast_524 = memref.reinterpret_cast %out_ptr to offset: [87], sizes: [1], strides: [1] : memref<?xf32> to memref<1xf32, strided<[1], offset: 87>> loc(#loc4)
    bufferization.materialize_in_destination %inserted_523 in writable %reinterpret_cast_524 : (tensor<1xf32>, memref<1xf32, strided<[1], offset: 87>>) -> () loc(#loc4)
    %x_525 = memref.reinterpret_cast %x_ptr to offset: [88], sizes: [1], strides: [1] : memref<?xf32> to memref<1xf32, strided<[1], offset: 88>> loc(#loc8)
    %x_526 = memref.load %x_525[%x] : memref<1xf32, strided<[1], offset: 88>> loc(#loc7)
    %inserted_527 = tensor.insert %x_526 into %0[%x] : tensor<1xf32> loc(#loc3)
    %89 = arith.mulf %inserted_527, %inserted_527 : tensor<1xf32> loc(#loc3)
    %extracted_528 = tensor.extract %89[%x] : tensor<1xf32> loc(#loc3)
    %inserted_529 = tensor.insert %extracted_528 into %0[%x] : tensor<1xf32> loc(#loc4)
    %reinterpret_cast_530 = memref.reinterpret_cast %out_ptr to offset: [88], sizes: [1], strides: [1] : memref<?xf32> to memref<1xf32, strided<[1], offset: 88>> loc(#loc4)
    bufferization.materialize_in_destination %inserted_529 in writable %reinterpret_cast_530 : (tensor<1xf32>, memref<1xf32, strided<[1], offset: 88>>) -> () loc(#loc4)
    %x_531 = memref.reinterpret_cast %x_ptr to offset: [89], sizes: [1], strides: [1] : memref<?xf32> to memref<1xf32, strided<[1], offset: 89>> loc(#loc8)
    %x_532 = memref.load %x_531[%x] : memref<1xf32, strided<[1], offset: 89>> loc(#loc7)
    %inserted_533 = tensor.insert %x_532 into %0[%x] : tensor<1xf32> loc(#loc3)
    %90 = arith.mulf %inserted_533, %inserted_533 : tensor<1xf32> loc(#loc3)
    %extracted_534 = tensor.extract %90[%x] : tensor<1xf32> loc(#loc3)
    %inserted_535 = tensor.insert %extracted_534 into %0[%x] : tensor<1xf32> loc(#loc4)
    %reinterpret_cast_536 = memref.reinterpret_cast %out_ptr to offset: [89], sizes: [1], strides: [1] : memref<?xf32> to memref<1xf32, strided<[1], offset: 89>> loc(#loc4)
    bufferization.materialize_in_destination %inserted_535 in writable %reinterpret_cast_536 : (tensor<1xf32>, memref<1xf32, strided<[1], offset: 89>>) -> () loc(#loc4)
    %x_537 = memref.reinterpret_cast %x_ptr to offset: [90], sizes: [1], strides: [1] : memref<?xf32> to memref<1xf32, strided<[1], offset: 90>> loc(#loc8)
    %x_538 = memref.load %x_537[%x] : memref<1xf32, strided<[1], offset: 90>> loc(#loc7)
    %inserted_539 = tensor.insert %x_538 into %0[%x] : tensor<1xf32> loc(#loc3)
    %91 = arith.mulf %inserted_539, %inserted_539 : tensor<1xf32> loc(#loc3)
    %extracted_540 = tensor.extract %91[%x] : tensor<1xf32> loc(#loc3)
    %inserted_541 = tensor.insert %extracted_540 into %0[%x] : tensor<1xf32> loc(#loc4)
    %reinterpret_cast_542 = memref.reinterpret_cast %out_ptr to offset: [90], sizes: [1], strides: [1] : memref<?xf32> to memref<1xf32, strided<[1], offset: 90>> loc(#loc4)
    bufferization.materialize_in_destination %inserted_541 in writable %reinterpret_cast_542 : (tensor<1xf32>, memref<1xf32, strided<[1], offset: 90>>) -> () loc(#loc4)
    %x_543 = memref.reinterpret_cast %x_ptr to offset: [91], sizes: [1], strides: [1] : memref<?xf32> to memref<1xf32, strided<[1], offset: 91>> loc(#loc8)
    %x_544 = memref.load %x_543[%x] : memref<1xf32, strided<[1], offset: 91>> loc(#loc7)
    %inserted_545 = tensor.insert %x_544 into %0[%x] : tensor<1xf32> loc(#loc3)
    %92 = arith.mulf %inserted_545, %inserted_545 : tensor<1xf32> loc(#loc3)
    %extracted_546 = tensor.extract %92[%x] : tensor<1xf32> loc(#loc3)
    %inserted_547 = tensor.insert %extracted_546 into %0[%x] : tensor<1xf32> loc(#loc4)
    %reinterpret_cast_548 = memref.reinterpret_cast %out_ptr to offset: [91], sizes: [1], strides: [1] : memref<?xf32> to memref<1xf32, strided<[1], offset: 91>> loc(#loc4)
    bufferization.materialize_in_destination %inserted_547 in writable %reinterpret_cast_548 : (tensor<1xf32>, memref<1xf32, strided<[1], offset: 91>>) -> () loc(#loc4)
    %x_549 = memref.reinterpret_cast %x_ptr to offset: [92], sizes: [1], strides: [1] : memref<?xf32> to memref<1xf32, strided<[1], offset: 92>> loc(#loc8)
    %x_550 = memref.load %x_549[%x] : memref<1xf32, strided<[1], offset: 92>> loc(#loc7)
    %inserted_551 = tensor.insert %x_550 into %0[%x] : tensor<1xf32> loc(#loc3)
    %93 = arith.mulf %inserted_551, %inserted_551 : tensor<1xf32> loc(#loc3)
    %extracted_552 = tensor.extract %93[%x] : tensor<1xf32> loc(#loc3)
    %inserted_553 = tensor.insert %extracted_552 into %0[%x] : tensor<1xf32> loc(#loc4)
    %reinterpret_cast_554 = memref.reinterpret_cast %out_ptr to offset: [92], sizes: [1], strides: [1] : memref<?xf32> to memref<1xf32, strided<[1], offset: 92>> loc(#loc4)
    bufferization.materialize_in_destination %inserted_553 in writable %reinterpret_cast_554 : (tensor<1xf32>, memref<1xf32, strided<[1], offset: 92>>) -> () loc(#loc4)
    %x_555 = memref.reinterpret_cast %x_ptr to offset: [93], sizes: [1], strides: [1] : memref<?xf32> to memref<1xf32, strided<[1], offset: 93>> loc(#loc8)
    %x_556 = memref.load %x_555[%x] : memref<1xf32, strided<[1], offset: 93>> loc(#loc7)
    %inserted_557 = tensor.insert %x_556 into %0[%x] : tensor<1xf32> loc(#loc3)
    %94 = arith.mulf %inserted_557, %inserted_557 : tensor<1xf32> loc(#loc3)
    %extracted_558 = tensor.extract %94[%x] : tensor<1xf32> loc(#loc3)
    %inserted_559 = tensor.insert %extracted_558 into %0[%x] : tensor<1xf32> loc(#loc4)
    %reinterpret_cast_560 = memref.reinterpret_cast %out_ptr to offset: [93], sizes: [1], strides: [1] : memref<?xf32> to memref<1xf32, strided<[1], offset: 93>> loc(#loc4)
    bufferization.materialize_in_destination %inserted_559 in writable %reinterpret_cast_560 : (tensor<1xf32>, memref<1xf32, strided<[1], offset: 93>>) -> () loc(#loc4)
    %x_561 = memref.reinterpret_cast %x_ptr to offset: [94], sizes: [1], strides: [1] : memref<?xf32> to memref<1xf32, strided<[1], offset: 94>> loc(#loc8)
    %x_562 = memref.load %x_561[%x] : memref<1xf32, strided<[1], offset: 94>> loc(#loc7)
    %inserted_563 = tensor.insert %x_562 into %0[%x] : tensor<1xf32> loc(#loc3)
    %95 = arith.mulf %inserted_563, %inserted_563 : tensor<1xf32> loc(#loc3)
    %extracted_564 = tensor.extract %95[%x] : tensor<1xf32> loc(#loc3)
    %inserted_565 = tensor.insert %extracted_564 into %0[%x] : tensor<1xf32> loc(#loc4)
    %reinterpret_cast_566 = memref.reinterpret_cast %out_ptr to offset: [94], sizes: [1], strides: [1] : memref<?xf32> to memref<1xf32, strided<[1], offset: 94>> loc(#loc4)
    bufferization.materialize_in_destination %inserted_565 in writable %reinterpret_cast_566 : (tensor<1xf32>, memref<1xf32, strided<[1], offset: 94>>) -> () loc(#loc4)
    %x_567 = memref.reinterpret_cast %x_ptr to offset: [95], sizes: [1], strides: [1] : memref<?xf32> to memref<1xf32, strided<[1], offset: 95>> loc(#loc8)
    %x_568 = memref.load %x_567[%x] : memref<1xf32, strided<[1], offset: 95>> loc(#loc7)
    %inserted_569 = tensor.insert %x_568 into %0[%x] : tensor<1xf32> loc(#loc3)
    %96 = arith.mulf %inserted_569, %inserted_569 : tensor<1xf32> loc(#loc3)
    %extracted_570 = tensor.extract %96[%x] : tensor<1xf32> loc(#loc3)
    %inserted_571 = tensor.insert %extracted_570 into %0[%x] : tensor<1xf32> loc(#loc4)
    %reinterpret_cast_572 = memref.reinterpret_cast %out_ptr to offset: [95], sizes: [1], strides: [1] : memref<?xf32> to memref<1xf32, strided<[1], offset: 95>> loc(#loc4)
    bufferization.materialize_in_destination %inserted_571 in writable %reinterpret_cast_572 : (tensor<1xf32>, memref<1xf32, strided<[1], offset: 95>>) -> () loc(#loc4)
    %x_573 = memref.reinterpret_cast %x_ptr to offset: [96], sizes: [1], strides: [1] : memref<?xf32> to memref<1xf32, strided<[1], offset: 96>> loc(#loc8)
    %x_574 = memref.load %x_573[%x] : memref<1xf32, strided<[1], offset: 96>> loc(#loc7)
    %inserted_575 = tensor.insert %x_574 into %0[%x] : tensor<1xf32> loc(#loc3)
    %97 = arith.mulf %inserted_575, %inserted_575 : tensor<1xf32> loc(#loc3)
    %extracted_576 = tensor.extract %97[%x] : tensor<1xf32> loc(#loc3)
    %inserted_577 = tensor.insert %extracted_576 into %0[%x] : tensor<1xf32> loc(#loc4)
    %reinterpret_cast_578 = memref.reinterpret_cast %out_ptr to offset: [96], sizes: [1], strides: [1] : memref<?xf32> to memref<1xf32, strided<[1], offset: 96>> loc(#loc4)
    bufferization.materialize_in_destination %inserted_577 in writable %reinterpret_cast_578 : (tensor<1xf32>, memref<1xf32, strided<[1], offset: 96>>) -> () loc(#loc4)
    %x_579 = memref.reinterpret_cast %x_ptr to offset: [97], sizes: [1], strides: [1] : memref<?xf32> to memref<1xf32, strided<[1], offset: 97>> loc(#loc8)
    %x_580 = memref.load %x_579[%x] : memref<1xf32, strided<[1], offset: 97>> loc(#loc7)
    %inserted_581 = tensor.insert %x_580 into %0[%x] : tensor<1xf32> loc(#loc3)
    %98 = arith.mulf %inserted_581, %inserted_581 : tensor<1xf32> loc(#loc3)
    %extracted_582 = tensor.extract %98[%x] : tensor<1xf32> loc(#loc3)
    %inserted_583 = tensor.insert %extracted_582 into %0[%x] : tensor<1xf32> loc(#loc4)
    %reinterpret_cast_584 = memref.reinterpret_cast %out_ptr to offset: [97], sizes: [1], strides: [1] : memref<?xf32> to memref<1xf32, strided<[1], offset: 97>> loc(#loc4)
    bufferization.materialize_in_destination %inserted_583 in writable %reinterpret_cast_584 : (tensor<1xf32>, memref<1xf32, strided<[1], offset: 97>>) -> () loc(#loc4)
    %x_585 = memref.reinterpret_cast %x_ptr to offset: [98], sizes: [1], strides: [1] : memref<?xf32> to memref<1xf32, strided<[1], offset: 98>> loc(#loc8)
    %x_586 = memref.load %x_585[%x] : memref<1xf32, strided<[1], offset: 98>> loc(#loc7)
    %inserted_587 = tensor.insert %x_586 into %0[%x] : tensor<1xf32> loc(#loc3)
    %99 = arith.mulf %inserted_587, %inserted_587 : tensor<1xf32> loc(#loc3)
    %extracted_588 = tensor.extract %99[%x] : tensor<1xf32> loc(#loc3)
    %inserted_589 = tensor.insert %extracted_588 into %0[%x] : tensor<1xf32> loc(#loc4)
    %reinterpret_cast_590 = memref.reinterpret_cast %out_ptr to offset: [98], sizes: [1], strides: [1] : memref<?xf32> to memref<1xf32, strided<[1], offset: 98>> loc(#loc4)
    bufferization.materialize_in_destination %inserted_589 in writable %reinterpret_cast_590 : (tensor<1xf32>, memref<1xf32, strided<[1], offset: 98>>) -> () loc(#loc4)
    %x_591 = memref.reinterpret_cast %x_ptr to offset: [99], sizes: [1], strides: [1] : memref<?xf32> to memref<1xf32, strided<[1], offset: 99>> loc(#loc8)
    %x_592 = memref.load %x_591[%x] : memref<1xf32, strided<[1], offset: 99>> loc(#loc7)
    %inserted_593 = tensor.insert %x_592 into %0[%x] : tensor<1xf32> loc(#loc3)
    %100 = arith.mulf %inserted_593, %inserted_593 : tensor<1xf32> loc(#loc3)
    %extracted_594 = tensor.extract %100[%x] : tensor<1xf32> loc(#loc3)
    %inserted_595 = tensor.insert %extracted_594 into %0[%x] : tensor<1xf32> loc(#loc4)
    %reinterpret_cast_596 = memref.reinterpret_cast %out_ptr to offset: [99], sizes: [1], strides: [1] : memref<?xf32> to memref<1xf32, strided<[1], offset: 99>> loc(#loc4)
    bufferization.materialize_in_destination %inserted_595 in writable %reinterpret_cast_596 : (tensor<1xf32>, memref<1xf32, strided<[1], offset: 99>>) -> () loc(#loc4)
    %x_597 = memref.reinterpret_cast %x_ptr to offset: [100], sizes: [1], strides: [1] : memref<?xf32> to memref<1xf32, strided<[1], offset: 100>> loc(#loc8)
    %x_598 = memref.load %x_597[%x] : memref<1xf32, strided<[1], offset: 100>> loc(#loc7)
    %inserted_599 = tensor.insert %x_598 into %0[%x] : tensor<1xf32> loc(#loc3)
    %101 = arith.mulf %inserted_599, %inserted_599 : tensor<1xf32> loc(#loc3)
    %extracted_600 = tensor.extract %101[%x] : tensor<1xf32> loc(#loc3)
    %inserted_601 = tensor.insert %extracted_600 into %0[%x] : tensor<1xf32> loc(#loc4)
    %reinterpret_cast_602 = memref.reinterpret_cast %out_ptr to offset: [100], sizes: [1], strides: [1] : memref<?xf32> to memref<1xf32, strided<[1], offset: 100>> loc(#loc4)
    bufferization.materialize_in_destination %inserted_601 in writable %reinterpret_cast_602 : (tensor<1xf32>, memref<1xf32, strided<[1], offset: 100>>) -> () loc(#loc4)
    %x_603 = memref.reinterpret_cast %x_ptr to offset: [101], sizes: [1], strides: [1] : memref<?xf32> to memref<1xf32, strided<[1], offset: 101>> loc(#loc8)
    %x_604 = memref.load %x_603[%x] : memref<1xf32, strided<[1], offset: 101>> loc(#loc7)
    %inserted_605 = tensor.insert %x_604 into %0[%x] : tensor<1xf32> loc(#loc3)
    %102 = arith.mulf %inserted_605, %inserted_605 : tensor<1xf32> loc(#loc3)
    %extracted_606 = tensor.extract %102[%x] : tensor<1xf32> loc(#loc3)
    %inserted_607 = tensor.insert %extracted_606 into %0[%x] : tensor<1xf32> loc(#loc4)
    %reinterpret_cast_608 = memref.reinterpret_cast %out_ptr to offset: [101], sizes: [1], strides: [1] : memref<?xf32> to memref<1xf32, strided<[1], offset: 101>> loc(#loc4)
    bufferization.materialize_in_destination %inserted_607 in writable %reinterpret_cast_608 : (tensor<1xf32>, memref<1xf32, strided<[1], offset: 101>>) -> () loc(#loc4)
    %x_609 = memref.reinterpret_cast %x_ptr to offset: [102], sizes: [1], strides: [1] : memref<?xf32> to memref<1xf32, strided<[1], offset: 102>> loc(#loc8)
    %x_610 = memref.load %x_609[%x] : memref<1xf32, strided<[1], offset: 102>> loc(#loc7)
    %inserted_611 = tensor.insert %x_610 into %0[%x] : tensor<1xf32> loc(#loc3)
    %103 = arith.mulf %inserted_611, %inserted_611 : tensor<1xf32> loc(#loc3)
    %extracted_612 = tensor.extract %103[%x] : tensor<1xf32> loc(#loc3)
    %inserted_613 = tensor.insert %extracted_612 into %0[%x] : tensor<1xf32> loc(#loc4)
    %reinterpret_cast_614 = memref.reinterpret_cast %out_ptr to offset: [102], sizes: [1], strides: [1] : memref<?xf32> to memref<1xf32, strided<[1], offset: 102>> loc(#loc4)
    bufferization.materialize_in_destination %inserted_613 in writable %reinterpret_cast_614 : (tensor<1xf32>, memref<1xf32, strided<[1], offset: 102>>) -> () loc(#loc4)
    %x_615 = memref.reinterpret_cast %x_ptr to offset: [103], sizes: [1], strides: [1] : memref<?xf32> to memref<1xf32, strided<[1], offset: 103>> loc(#loc8)
    %x_616 = memref.load %x_615[%x] : memref<1xf32, strided<[1], offset: 103>> loc(#loc7)
    %inserted_617 = tensor.insert %x_616 into %0[%x] : tensor<1xf32> loc(#loc3)
    %104 = arith.mulf %inserted_617, %inserted_617 : tensor<1xf32> loc(#loc3)
    %extracted_618 = tensor.extract %104[%x] : tensor<1xf32> loc(#loc3)
    %inserted_619 = tensor.insert %extracted_618 into %0[%x] : tensor<1xf32> loc(#loc4)
    %reinterpret_cast_620 = memref.reinterpret_cast %out_ptr to offset: [103], sizes: [1], strides: [1] : memref<?xf32> to memref<1xf32, strided<[1], offset: 103>> loc(#loc4)
    bufferization.materialize_in_destination %inserted_619 in writable %reinterpret_cast_620 : (tensor<1xf32>, memref<1xf32, strided<[1], offset: 103>>) -> () loc(#loc4)
    %x_621 = memref.reinterpret_cast %x_ptr to offset: [104], sizes: [1], strides: [1] : memref<?xf32> to memref<1xf32, strided<[1], offset: 104>> loc(#loc8)
    %x_622 = memref.load %x_621[%x] : memref<1xf32, strided<[1], offset: 104>> loc(#loc7)
    %inserted_623 = tensor.insert %x_622 into %0[%x] : tensor<1xf32> loc(#loc3)
    %105 = arith.mulf %inserted_623, %inserted_623 : tensor<1xf32> loc(#loc3)
    %extracted_624 = tensor.extract %105[%x] : tensor<1xf32> loc(#loc3)
    %inserted_625 = tensor.insert %extracted_624 into %0[%x] : tensor<1xf32> loc(#loc4)
    %reinterpret_cast_626 = memref.reinterpret_cast %out_ptr to offset: [104], sizes: [1], strides: [1] : memref<?xf32> to memref<1xf32, strided<[1], offset: 104>> loc(#loc4)
    bufferization.materialize_in_destination %inserted_625 in writable %reinterpret_cast_626 : (tensor<1xf32>, memref<1xf32, strided<[1], offset: 104>>) -> () loc(#loc4)
    %x_627 = memref.reinterpret_cast %x_ptr to offset: [105], sizes: [1], strides: [1] : memref<?xf32> to memref<1xf32, strided<[1], offset: 105>> loc(#loc8)
    %x_628 = memref.load %x_627[%x] : memref<1xf32, strided<[1], offset: 105>> loc(#loc7)
    %inserted_629 = tensor.insert %x_628 into %0[%x] : tensor<1xf32> loc(#loc3)
    %106 = arith.mulf %inserted_629, %inserted_629 : tensor<1xf32> loc(#loc3)
    %extracted_630 = tensor.extract %106[%x] : tensor<1xf32> loc(#loc3)
    %inserted_631 = tensor.insert %extracted_630 into %0[%x] : tensor<1xf32> loc(#loc4)
    %reinterpret_cast_632 = memref.reinterpret_cast %out_ptr to offset: [105], sizes: [1], strides: [1] : memref<?xf32> to memref<1xf32, strided<[1], offset: 105>> loc(#loc4)
    bufferization.materialize_in_destination %inserted_631 in writable %reinterpret_cast_632 : (tensor<1xf32>, memref<1xf32, strided<[1], offset: 105>>) -> () loc(#loc4)
    %x_633 = memref.reinterpret_cast %x_ptr to offset: [106], sizes: [1], strides: [1] : memref<?xf32> to memref<1xf32, strided<[1], offset: 106>> loc(#loc8)
    %x_634 = memref.load %x_633[%x] : memref<1xf32, strided<[1], offset: 106>> loc(#loc7)
    %inserted_635 = tensor.insert %x_634 into %0[%x] : tensor<1xf32> loc(#loc3)
    %107 = arith.mulf %inserted_635, %inserted_635 : tensor<1xf32> loc(#loc3)
    %extracted_636 = tensor.extract %107[%x] : tensor<1xf32> loc(#loc3)
    %inserted_637 = tensor.insert %extracted_636 into %0[%x] : tensor<1xf32> loc(#loc4)
    %reinterpret_cast_638 = memref.reinterpret_cast %out_ptr to offset: [106], sizes: [1], strides: [1] : memref<?xf32> to memref<1xf32, strided<[1], offset: 106>> loc(#loc4)
    bufferization.materialize_in_destination %inserted_637 in writable %reinterpret_cast_638 : (tensor<1xf32>, memref<1xf32, strided<[1], offset: 106>>) -> () loc(#loc4)
    %x_639 = memref.reinterpret_cast %x_ptr to offset: [107], sizes: [1], strides: [1] : memref<?xf32> to memref<1xf32, strided<[1], offset: 107>> loc(#loc8)
    %x_640 = memref.load %x_639[%x] : memref<1xf32, strided<[1], offset: 107>> loc(#loc7)
    %inserted_641 = tensor.insert %x_640 into %0[%x] : tensor<1xf32> loc(#loc3)
    %108 = arith.mulf %inserted_641, %inserted_641 : tensor<1xf32> loc(#loc3)
    %extracted_642 = tensor.extract %108[%x] : tensor<1xf32> loc(#loc3)
    %inserted_643 = tensor.insert %extracted_642 into %0[%x] : tensor<1xf32> loc(#loc4)
    %reinterpret_cast_644 = memref.reinterpret_cast %out_ptr to offset: [107], sizes: [1], strides: [1] : memref<?xf32> to memref<1xf32, strided<[1], offset: 107>> loc(#loc4)
    bufferization.materialize_in_destination %inserted_643 in writable %reinterpret_cast_644 : (tensor<1xf32>, memref<1xf32, strided<[1], offset: 107>>) -> () loc(#loc4)
    %x_645 = memref.reinterpret_cast %x_ptr to offset: [108], sizes: [1], strides: [1] : memref<?xf32> to memref<1xf32, strided<[1], offset: 108>> loc(#loc8)
    %x_646 = memref.load %x_645[%x] : memref<1xf32, strided<[1], offset: 108>> loc(#loc7)
    %inserted_647 = tensor.insert %x_646 into %0[%x] : tensor<1xf32> loc(#loc3)
    %109 = arith.mulf %inserted_647, %inserted_647 : tensor<1xf32> loc(#loc3)
    %extracted_648 = tensor.extract %109[%x] : tensor<1xf32> loc(#loc3)
    %inserted_649 = tensor.insert %extracted_648 into %0[%x] : tensor<1xf32> loc(#loc4)
    %reinterpret_cast_650 = memref.reinterpret_cast %out_ptr to offset: [108], sizes: [1], strides: [1] : memref<?xf32> to memref<1xf32, strided<[1], offset: 108>> loc(#loc4)
    bufferization.materialize_in_destination %inserted_649 in writable %reinterpret_cast_650 : (tensor<1xf32>, memref<1xf32, strided<[1], offset: 108>>) -> () loc(#loc4)
    %x_651 = memref.reinterpret_cast %x_ptr to offset: [109], sizes: [1], strides: [1] : memref<?xf32> to memref<1xf32, strided<[1], offset: 109>> loc(#loc8)
    %x_652 = memref.load %x_651[%x] : memref<1xf32, strided<[1], offset: 109>> loc(#loc7)
    %inserted_653 = tensor.insert %x_652 into %0[%x] : tensor<1xf32> loc(#loc3)
    %110 = arith.mulf %inserted_653, %inserted_653 : tensor<1xf32> loc(#loc3)
    %extracted_654 = tensor.extract %110[%x] : tensor<1xf32> loc(#loc3)
    %inserted_655 = tensor.insert %extracted_654 into %0[%x] : tensor<1xf32> loc(#loc4)
    %reinterpret_cast_656 = memref.reinterpret_cast %out_ptr to offset: [109], sizes: [1], strides: [1] : memref<?xf32> to memref<1xf32, strided<[1], offset: 109>> loc(#loc4)
    bufferization.materialize_in_destination %inserted_655 in writable %reinterpret_cast_656 : (tensor<1xf32>, memref<1xf32, strided<[1], offset: 109>>) -> () loc(#loc4)
    %x_657 = memref.reinterpret_cast %x_ptr to offset: [110], sizes: [1], strides: [1] : memref<?xf32> to memref<1xf32, strided<[1], offset: 110>> loc(#loc8)
    %x_658 = memref.load %x_657[%x] : memref<1xf32, strided<[1], offset: 110>> loc(#loc7)
    %inserted_659 = tensor.insert %x_658 into %0[%x] : tensor<1xf32> loc(#loc3)
    %111 = arith.mulf %inserted_659, %inserted_659 : tensor<1xf32> loc(#loc3)
    %extracted_660 = tensor.extract %111[%x] : tensor<1xf32> loc(#loc3)
    %inserted_661 = tensor.insert %extracted_660 into %0[%x] : tensor<1xf32> loc(#loc4)
    %reinterpret_cast_662 = memref.reinterpret_cast %out_ptr to offset: [110], sizes: [1], strides: [1] : memref<?xf32> to memref<1xf32, strided<[1], offset: 110>> loc(#loc4)
    bufferization.materialize_in_destination %inserted_661 in writable %reinterpret_cast_662 : (tensor<1xf32>, memref<1xf32, strided<[1], offset: 110>>) -> () loc(#loc4)
    %x_663 = memref.reinterpret_cast %x_ptr to offset: [111], sizes: [1], strides: [1] : memref<?xf32> to memref<1xf32, strided<[1], offset: 111>> loc(#loc8)
    %x_664 = memref.load %x_663[%x] : memref<1xf32, strided<[1], offset: 111>> loc(#loc7)
    %inserted_665 = tensor.insert %x_664 into %0[%x] : tensor<1xf32> loc(#loc3)
    %112 = arith.mulf %inserted_665, %inserted_665 : tensor<1xf32> loc(#loc3)
    %extracted_666 = tensor.extract %112[%x] : tensor<1xf32> loc(#loc3)
    %inserted_667 = tensor.insert %extracted_666 into %0[%x] : tensor<1xf32> loc(#loc4)
    %reinterpret_cast_668 = memref.reinterpret_cast %out_ptr to offset: [111], sizes: [1], strides: [1] : memref<?xf32> to memref<1xf32, strided<[1], offset: 111>> loc(#loc4)
    bufferization.materialize_in_destination %inserted_667 in writable %reinterpret_cast_668 : (tensor<1xf32>, memref<1xf32, strided<[1], offset: 111>>) -> () loc(#loc4)
    %x_669 = memref.reinterpret_cast %x_ptr to offset: [112], sizes: [1], strides: [1] : memref<?xf32> to memref<1xf32, strided<[1], offset: 112>> loc(#loc8)
    %x_670 = memref.load %x_669[%x] : memref<1xf32, strided<[1], offset: 112>> loc(#loc7)
    %inserted_671 = tensor.insert %x_670 into %0[%x] : tensor<1xf32> loc(#loc3)
    %113 = arith.mulf %inserted_671, %inserted_671 : tensor<1xf32> loc(#loc3)
    %extracted_672 = tensor.extract %113[%x] : tensor<1xf32> loc(#loc3)
    %inserted_673 = tensor.insert %extracted_672 into %0[%x] : tensor<1xf32> loc(#loc4)
    %reinterpret_cast_674 = memref.reinterpret_cast %out_ptr to offset: [112], sizes: [1], strides: [1] : memref<?xf32> to memref<1xf32, strided<[1], offset: 112>> loc(#loc4)
    bufferization.materialize_in_destination %inserted_673 in writable %reinterpret_cast_674 : (tensor<1xf32>, memref<1xf32, strided<[1], offset: 112>>) -> () loc(#loc4)
    %x_675 = memref.reinterpret_cast %x_ptr to offset: [113], sizes: [1], strides: [1] : memref<?xf32> to memref<1xf32, strided<[1], offset: 113>> loc(#loc8)
    %x_676 = memref.load %x_675[%x] : memref<1xf32, strided<[1], offset: 113>> loc(#loc7)
    %inserted_677 = tensor.insert %x_676 into %0[%x] : tensor<1xf32> loc(#loc3)
    %114 = arith.mulf %inserted_677, %inserted_677 : tensor<1xf32> loc(#loc3)
    %extracted_678 = tensor.extract %114[%x] : tensor<1xf32> loc(#loc3)
    %inserted_679 = tensor.insert %extracted_678 into %0[%x] : tensor<1xf32> loc(#loc4)
    %reinterpret_cast_680 = memref.reinterpret_cast %out_ptr to offset: [113], sizes: [1], strides: [1] : memref<?xf32> to memref<1xf32, strided<[1], offset: 113>> loc(#loc4)
    bufferization.materialize_in_destination %inserted_679 in writable %reinterpret_cast_680 : (tensor<1xf32>, memref<1xf32, strided<[1], offset: 113>>) -> () loc(#loc4)
    %x_681 = memref.reinterpret_cast %x_ptr to offset: [114], sizes: [1], strides: [1] : memref<?xf32> to memref<1xf32, strided<[1], offset: 114>> loc(#loc8)
    %x_682 = memref.load %x_681[%x] : memref<1xf32, strided<[1], offset: 114>> loc(#loc7)
    %inserted_683 = tensor.insert %x_682 into %0[%x] : tensor<1xf32> loc(#loc3)
    %115 = arith.mulf %inserted_683, %inserted_683 : tensor<1xf32> loc(#loc3)
    %extracted_684 = tensor.extract %115[%x] : tensor<1xf32> loc(#loc3)
    %inserted_685 = tensor.insert %extracted_684 into %0[%x] : tensor<1xf32> loc(#loc4)
    %reinterpret_cast_686 = memref.reinterpret_cast %out_ptr to offset: [114], sizes: [1], strides: [1] : memref<?xf32> to memref<1xf32, strided<[1], offset: 114>> loc(#loc4)
    bufferization.materialize_in_destination %inserted_685 in writable %reinterpret_cast_686 : (tensor<1xf32>, memref<1xf32, strided<[1], offset: 114>>) -> () loc(#loc4)
    %x_687 = memref.reinterpret_cast %x_ptr to offset: [115], sizes: [1], strides: [1] : memref<?xf32> to memref<1xf32, strided<[1], offset: 115>> loc(#loc8)
    %x_688 = memref.load %x_687[%x] : memref<1xf32, strided<[1], offset: 115>> loc(#loc7)
    %inserted_689 = tensor.insert %x_688 into %0[%x] : tensor<1xf32> loc(#loc3)
    %116 = arith.mulf %inserted_689, %inserted_689 : tensor<1xf32> loc(#loc3)
    %extracted_690 = tensor.extract %116[%x] : tensor<1xf32> loc(#loc3)
    %inserted_691 = tensor.insert %extracted_690 into %0[%x] : tensor<1xf32> loc(#loc4)
    %reinterpret_cast_692 = memref.reinterpret_cast %out_ptr to offset: [115], sizes: [1], strides: [1] : memref<?xf32> to memref<1xf32, strided<[1], offset: 115>> loc(#loc4)
    bufferization.materialize_in_destination %inserted_691 in writable %reinterpret_cast_692 : (tensor<1xf32>, memref<1xf32, strided<[1], offset: 115>>) -> () loc(#loc4)
    %x_693 = memref.reinterpret_cast %x_ptr to offset: [116], sizes: [1], strides: [1] : memref<?xf32> to memref<1xf32, strided<[1], offset: 116>> loc(#loc8)
    %x_694 = memref.load %x_693[%x] : memref<1xf32, strided<[1], offset: 116>> loc(#loc7)
    %inserted_695 = tensor.insert %x_694 into %0[%x] : tensor<1xf32> loc(#loc3)
    %117 = arith.mulf %inserted_695, %inserted_695 : tensor<1xf32> loc(#loc3)
    %extracted_696 = tensor.extract %117[%x] : tensor<1xf32> loc(#loc3)
    %inserted_697 = tensor.insert %extracted_696 into %0[%x] : tensor<1xf32> loc(#loc4)
    %reinterpret_cast_698 = memref.reinterpret_cast %out_ptr to offset: [116], sizes: [1], strides: [1] : memref<?xf32> to memref<1xf32, strided<[1], offset: 116>> loc(#loc4)
    bufferization.materialize_in_destination %inserted_697 in writable %reinterpret_cast_698 : (tensor<1xf32>, memref<1xf32, strided<[1], offset: 116>>) -> () loc(#loc4)
    %x_699 = memref.reinterpret_cast %x_ptr to offset: [117], sizes: [1], strides: [1] : memref<?xf32> to memref<1xf32, strided<[1], offset: 117>> loc(#loc8)
    %x_700 = memref.load %x_699[%x] : memref<1xf32, strided<[1], offset: 117>> loc(#loc7)
    %inserted_701 = tensor.insert %x_700 into %0[%x] : tensor<1xf32> loc(#loc3)
    %118 = arith.mulf %inserted_701, %inserted_701 : tensor<1xf32> loc(#loc3)
    %extracted_702 = tensor.extract %118[%x] : tensor<1xf32> loc(#loc3)
    %inserted_703 = tensor.insert %extracted_702 into %0[%x] : tensor<1xf32> loc(#loc4)
    %reinterpret_cast_704 = memref.reinterpret_cast %out_ptr to offset: [117], sizes: [1], strides: [1] : memref<?xf32> to memref<1xf32, strided<[1], offset: 117>> loc(#loc4)
    bufferization.materialize_in_destination %inserted_703 in writable %reinterpret_cast_704 : (tensor<1xf32>, memref<1xf32, strided<[1], offset: 117>>) -> () loc(#loc4)
    %x_705 = memref.reinterpret_cast %x_ptr to offset: [118], sizes: [1], strides: [1] : memref<?xf32> to memref<1xf32, strided<[1], offset: 118>> loc(#loc8)
    %x_706 = memref.load %x_705[%x] : memref<1xf32, strided<[1], offset: 118>> loc(#loc7)
    %inserted_707 = tensor.insert %x_706 into %0[%x] : tensor<1xf32> loc(#loc3)
    %119 = arith.mulf %inserted_707, %inserted_707 : tensor<1xf32> loc(#loc3)
    %extracted_708 = tensor.extract %119[%x] : tensor<1xf32> loc(#loc3)
    %inserted_709 = tensor.insert %extracted_708 into %0[%x] : tensor<1xf32> loc(#loc4)
    %reinterpret_cast_710 = memref.reinterpret_cast %out_ptr to offset: [118], sizes: [1], strides: [1] : memref<?xf32> to memref<1xf32, strided<[1], offset: 118>> loc(#loc4)
    bufferization.materialize_in_destination %inserted_709 in writable %reinterpret_cast_710 : (tensor<1xf32>, memref<1xf32, strided<[1], offset: 118>>) -> () loc(#loc4)
    %x_711 = memref.reinterpret_cast %x_ptr to offset: [119], sizes: [1], strides: [1] : memref<?xf32> to memref<1xf32, strided<[1], offset: 119>> loc(#loc8)
    %x_712 = memref.load %x_711[%x] : memref<1xf32, strided<[1], offset: 119>> loc(#loc7)
    %inserted_713 = tensor.insert %x_712 into %0[%x] : tensor<1xf32> loc(#loc3)
    %120 = arith.mulf %inserted_713, %inserted_713 : tensor<1xf32> loc(#loc3)
    %extracted_714 = tensor.extract %120[%x] : tensor<1xf32> loc(#loc3)
    %inserted_715 = tensor.insert %extracted_714 into %0[%x] : tensor<1xf32> loc(#loc4)
    %reinterpret_cast_716 = memref.reinterpret_cast %out_ptr to offset: [119], sizes: [1], strides: [1] : memref<?xf32> to memref<1xf32, strided<[1], offset: 119>> loc(#loc4)
    bufferization.materialize_in_destination %inserted_715 in writable %reinterpret_cast_716 : (tensor<1xf32>, memref<1xf32, strided<[1], offset: 119>>) -> () loc(#loc4)
    %x_717 = memref.reinterpret_cast %x_ptr to offset: [120], sizes: [1], strides: [1] : memref<?xf32> to memref<1xf32, strided<[1], offset: 120>> loc(#loc8)
    %x_718 = memref.load %x_717[%x] : memref<1xf32, strided<[1], offset: 120>> loc(#loc7)
    %inserted_719 = tensor.insert %x_718 into %0[%x] : tensor<1xf32> loc(#loc3)
    %121 = arith.mulf %inserted_719, %inserted_719 : tensor<1xf32> loc(#loc3)
    %extracted_720 = tensor.extract %121[%x] : tensor<1xf32> loc(#loc3)
    %inserted_721 = tensor.insert %extracted_720 into %0[%x] : tensor<1xf32> loc(#loc4)
    %reinterpret_cast_722 = memref.reinterpret_cast %out_ptr to offset: [120], sizes: [1], strides: [1] : memref<?xf32> to memref<1xf32, strided<[1], offset: 120>> loc(#loc4)
    bufferization.materialize_in_destination %inserted_721 in writable %reinterpret_cast_722 : (tensor<1xf32>, memref<1xf32, strided<[1], offset: 120>>) -> () loc(#loc4)
    %x_723 = memref.reinterpret_cast %x_ptr to offset: [121], sizes: [1], strides: [1] : memref<?xf32> to memref<1xf32, strided<[1], offset: 121>> loc(#loc8)
    %x_724 = memref.load %x_723[%x] : memref<1xf32, strided<[1], offset: 121>> loc(#loc7)
    %inserted_725 = tensor.insert %x_724 into %0[%x] : tensor<1xf32> loc(#loc3)
    %122 = arith.mulf %inserted_725, %inserted_725 : tensor<1xf32> loc(#loc3)
    %extracted_726 = tensor.extract %122[%x] : tensor<1xf32> loc(#loc3)
    %inserted_727 = tensor.insert %extracted_726 into %0[%x] : tensor<1xf32> loc(#loc4)
    %reinterpret_cast_728 = memref.reinterpret_cast %out_ptr to offset: [121], sizes: [1], strides: [1] : memref<?xf32> to memref<1xf32, strided<[1], offset: 121>> loc(#loc4)
    bufferization.materialize_in_destination %inserted_727 in writable %reinterpret_cast_728 : (tensor<1xf32>, memref<1xf32, strided<[1], offset: 121>>) -> () loc(#loc4)
    %x_729 = memref.reinterpret_cast %x_ptr to offset: [122], sizes: [1], strides: [1] : memref<?xf32> to memref<1xf32, strided<[1], offset: 122>> loc(#loc8)
    %x_730 = memref.load %x_729[%x] : memref<1xf32, strided<[1], offset: 122>> loc(#loc7)
    %inserted_731 = tensor.insert %x_730 into %0[%x] : tensor<1xf32> loc(#loc3)
    %123 = arith.mulf %inserted_731, %inserted_731 : tensor<1xf32> loc(#loc3)
    %extracted_732 = tensor.extract %123[%x] : tensor<1xf32> loc(#loc3)
    %inserted_733 = tensor.insert %extracted_732 into %0[%x] : tensor<1xf32> loc(#loc4)
    %reinterpret_cast_734 = memref.reinterpret_cast %out_ptr to offset: [122], sizes: [1], strides: [1] : memref<?xf32> to memref<1xf32, strided<[1], offset: 122>> loc(#loc4)
    bufferization.materialize_in_destination %inserted_733 in writable %reinterpret_cast_734 : (tensor<1xf32>, memref<1xf32, strided<[1], offset: 122>>) -> () loc(#loc4)
    %x_735 = memref.reinterpret_cast %x_ptr to offset: [123], sizes: [1], strides: [1] : memref<?xf32> to memref<1xf32, strided<[1], offset: 123>> loc(#loc8)
    %x_736 = memref.load %x_735[%x] : memref<1xf32, strided<[1], offset: 123>> loc(#loc7)
    %inserted_737 = tensor.insert %x_736 into %0[%x] : tensor<1xf32> loc(#loc3)
    %124 = arith.mulf %inserted_737, %inserted_737 : tensor<1xf32> loc(#loc3)
    %extracted_738 = tensor.extract %124[%x] : tensor<1xf32> loc(#loc3)
    %inserted_739 = tensor.insert %extracted_738 into %0[%x] : tensor<1xf32> loc(#loc4)
    %reinterpret_cast_740 = memref.reinterpret_cast %out_ptr to offset: [123], sizes: [1], strides: [1] : memref<?xf32> to memref<1xf32, strided<[1], offset: 123>> loc(#loc4)
    bufferization.materialize_in_destination %inserted_739 in writable %reinterpret_cast_740 : (tensor<1xf32>, memref<1xf32, strided<[1], offset: 123>>) -> () loc(#loc4)
    %x_741 = memref.reinterpret_cast %x_ptr to offset: [124], sizes: [1], strides: [1] : memref<?xf32> to memref<1xf32, strided<[1], offset: 124>> loc(#loc8)
    %x_742 = memref.load %x_741[%x] : memref<1xf32, strided<[1], offset: 124>> loc(#loc7)
    %inserted_743 = tensor.insert %x_742 into %0[%x] : tensor<1xf32> loc(#loc3)
    %125 = arith.mulf %inserted_743, %inserted_743 : tensor<1xf32> loc(#loc3)
    %extracted_744 = tensor.extract %125[%x] : tensor<1xf32> loc(#loc3)
    %inserted_745 = tensor.insert %extracted_744 into %0[%x] : tensor<1xf32> loc(#loc4)
    %reinterpret_cast_746 = memref.reinterpret_cast %out_ptr to offset: [124], sizes: [1], strides: [1] : memref<?xf32> to memref<1xf32, strided<[1], offset: 124>> loc(#loc4)
    bufferization.materialize_in_destination %inserted_745 in writable %reinterpret_cast_746 : (tensor<1xf32>, memref<1xf32, strided<[1], offset: 124>>) -> () loc(#loc4)
    %x_747 = memref.reinterpret_cast %x_ptr to offset: [125], sizes: [1], strides: [1] : memref<?xf32> to memref<1xf32, strided<[1], offset: 125>> loc(#loc8)
    %x_748 = memref.load %x_747[%x] : memref<1xf32, strided<[1], offset: 125>> loc(#loc7)
    %inserted_749 = tensor.insert %x_748 into %0[%x] : tensor<1xf32> loc(#loc3)
    %126 = arith.mulf %inserted_749, %inserted_749 : tensor<1xf32> loc(#loc3)
    %extracted_750 = tensor.extract %126[%x] : tensor<1xf32> loc(#loc3)
    %inserted_751 = tensor.insert %extracted_750 into %0[%x] : tensor<1xf32> loc(#loc4)
    %reinterpret_cast_752 = memref.reinterpret_cast %out_ptr to offset: [125], sizes: [1], strides: [1] : memref<?xf32> to memref<1xf32, strided<[1], offset: 125>> loc(#loc4)
    bufferization.materialize_in_destination %inserted_751 in writable %reinterpret_cast_752 : (tensor<1xf32>, memref<1xf32, strided<[1], offset: 125>>) -> () loc(#loc4)
    %x_753 = memref.reinterpret_cast %x_ptr to offset: [126], sizes: [1], strides: [1] : memref<?xf32> to memref<1xf32, strided<[1], offset: 126>> loc(#loc8)
    %x_754 = memref.load %x_753[%x] : memref<1xf32, strided<[1], offset: 126>> loc(#loc7)
    %inserted_755 = tensor.insert %x_754 into %0[%x] : tensor<1xf32> loc(#loc3)
    %127 = arith.mulf %inserted_755, %inserted_755 : tensor<1xf32> loc(#loc3)
    %extracted_756 = tensor.extract %127[%x] : tensor<1xf32> loc(#loc3)
    %inserted_757 = tensor.insert %extracted_756 into %0[%x] : tensor<1xf32> loc(#loc4)
    %reinterpret_cast_758 = memref.reinterpret_cast %out_ptr to offset: [126], sizes: [1], strides: [1] : memref<?xf32> to memref<1xf32, strided<[1], offset: 126>> loc(#loc4)
    bufferization.materialize_in_destination %inserted_757 in writable %reinterpret_cast_758 : (tensor<1xf32>, memref<1xf32, strided<[1], offset: 126>>) -> () loc(#loc4)
    %x_759 = memref.reinterpret_cast %x_ptr to offset: [127], sizes: [1], strides: [1] : memref<?xf32> to memref<1xf32, strided<[1], offset: 127>> loc(#loc8)
    %x_760 = memref.load %x_759[%x] : memref<1xf32, strided<[1], offset: 127>> loc(#loc7)
    %inserted_761 = tensor.insert %x_760 into %0[%x] : tensor<1xf32> loc(#loc3)
    %128 = arith.mulf %inserted_761, %inserted_761 : tensor<1xf32> loc(#loc3)
    %extracted_762 = tensor.extract %128[%x] : tensor<1xf32> loc(#loc3)
    %inserted_763 = tensor.insert %extracted_762 into %0[%x] : tensor<1xf32> loc(#loc4)
    %reinterpret_cast_764 = memref.reinterpret_cast %out_ptr to offset: [127], sizes: [1], strides: [1] : memref<?xf32> to memref<1xf32, strided<[1], offset: 127>> loc(#loc4)
    bufferization.materialize_in_destination %inserted_763 in writable %reinterpret_cast_764 : (tensor<1xf32>, memref<1xf32, strided<[1], offset: 127>>) -> () loc(#loc4)
    return loc(#loc)
  } loc(#loc)
} loc(#loc)
#loc1 = loc("/tmp/triton.language.static_range.P09kW9.py":14:20)
#loc2 = loc("/tmp/triton.language.static_range.P09kW9.py":14:28)
#loc3 = loc("/tmp/triton.language.static_range.P09kW9.py":15:34)
#loc4 = loc("/tmp/triton.language.static_range.P09kW9.py":15:30)
#loc7 = loc("x"(#loc1))
#loc8 = loc("x"(#loc2))
