#loc = loc("/tmp/claude-1000/-mnt-d-work-git-AscendNPU-IR/5f0b90d3-2b64-481e-ac0d-76ef25d43c22/scratchpad/drv_layernorm_2048.py":11:0)
#loc9 = loc("/tmp/claude-1000/-mnt-d-work-git-AscendNPU-IR/5f0b90d3-2b64-481e-ac0d-76ef25d43c22/scratchpad/drv_layernorm_2048.py":18:27)
#loc14 = loc("/mnt/d/work/git/triton-ascend/python/triton/language/standard.py":282:36)
#loc15 = loc("/tmp/claude-1000/-mnt-d-work-git-AscendNPU-IR/5f0b90d3-2b64-481e-ac0d-76ef25d43c22/scratchpad/drv_layernorm_2048.py":22:18)
#loc17 = loc("/tmp/claude-1000/-mnt-d-work-git-AscendNPU-IR/5f0b90d3-2b64-481e-ac0d-76ef25d43c22/scratchpad/drv_layernorm_2048.py":24:27)
#loc23 = loc("/tmp/claude-1000/-mnt-d-work-git-AscendNPU-IR/5f0b90d3-2b64-481e-ac0d-76ef25d43c22/scratchpad/drv_layernorm_2048.py":29:17)
#loc39 = loc(callsite(#loc14 at #loc15))
#loc40 = loc(callsite(#loc14 at #loc23))
module attributes {hacc.target = #hacc.target<"Ascend910_9382">} {
  func.func @_layer_norm_fwd_fused(%arg0: memref<?xi8> loc("/tmp/claude-1000/-mnt-d-work-git-AscendNPU-IR/5f0b90d3-2b64-481e-ac0d-76ef25d43c22/scratchpad/drv_layernorm_2048.py":11:0), %arg1: memref<?xi8> loc("/tmp/claude-1000/-mnt-d-work-git-AscendNPU-IR/5f0b90d3-2b64-481e-ac0d-76ef25d43c22/scratchpad/drv_layernorm_2048.py":11:0), %arg2: memref<?xf32> {tt.divisibility = 16 : i32, tt.tensor_kind = 0 : i32} loc("/tmp/claude-1000/-mnt-d-work-git-AscendNPU-IR/5f0b90d3-2b64-481e-ac0d-76ef25d43c22/scratchpad/drv_layernorm_2048.py":11:0), %arg3: memref<?xf32> {tt.divisibility = 16 : i32, tt.tensor_kind = 1 : i32} loc("/tmp/claude-1000/-mnt-d-work-git-AscendNPU-IR/5f0b90d3-2b64-481e-ac0d-76ef25d43c22/scratchpad/drv_layernorm_2048.py":11:0), %arg4: memref<?xf32> {tt.divisibility = 16 : i32, tt.tensor_kind = 0 : i32} loc("/tmp/claude-1000/-mnt-d-work-git-AscendNPU-IR/5f0b90d3-2b64-481e-ac0d-76ef25d43c22/scratchpad/drv_layernorm_2048.py":11:0), %arg5: memref<?xf32> {tt.divisibility = 16 : i32, tt.tensor_kind = 0 : i32} loc("/tmp/claude-1000/-mnt-d-work-git-AscendNPU-IR/5f0b90d3-2b64-481e-ac0d-76ef25d43c22/scratchpad/drv_layernorm_2048.py":11:0), %arg6: memref<?xf32> {tt.divisibility = 16 : i32, tt.tensor_kind = 1 : i32} loc("/tmp/claude-1000/-mnt-d-work-git-AscendNPU-IR/5f0b90d3-2b64-481e-ac0d-76ef25d43c22/scratchpad/drv_layernorm_2048.py":11:0), %arg7: memref<?xf32> {tt.divisibility = 16 : i32, tt.tensor_kind = 1 : i32} loc("/tmp/claude-1000/-mnt-d-work-git-AscendNPU-IR/5f0b90d3-2b64-481e-ac0d-76ef25d43c22/scratchpad/drv_layernorm_2048.py":11:0), %arg8: i32 {tt.divisibility = 16 : i32} loc("/tmp/claude-1000/-mnt-d-work-git-AscendNPU-IR/5f0b90d3-2b64-481e-ac0d-76ef25d43c22/scratchpad/drv_layernorm_2048.py":11:0), %arg9: i32 {tt.divisibility = 16 : i32} loc("/tmp/claude-1000/-mnt-d-work-git-AscendNPU-IR/5f0b90d3-2b64-481e-ac0d-76ef25d43c22/scratchpad/drv_layernorm_2048.py":11:0), %arg10: f32 loc("/tmp/claude-1000/-mnt-d-work-git-AscendNPU-IR/5f0b90d3-2b64-481e-ac0d-76ef25d43c22/scratchpad/drv_layernorm_2048.py":11:0), %arg11: i32 loc("/tmp/claude-1000/-mnt-d-work-git-AscendNPU-IR/5f0b90d3-2b64-481e-ac0d-76ef25d43c22/scratchpad/drv_layernorm_2048.py":11:0), %arg12: i32 loc("/tmp/claude-1000/-mnt-d-work-git-AscendNPU-IR/5f0b90d3-2b64-481e-ac0d-76ef25d43c22/scratchpad/drv_layernorm_2048.py":11:0), %arg13: i32 loc("/tmp/claude-1000/-mnt-d-work-git-AscendNPU-IR/5f0b90d3-2b64-481e-ac0d-76ef25d43c22/scratchpad/drv_layernorm_2048.py":11:0), %arg14: i32 loc("/tmp/claude-1000/-mnt-d-work-git-AscendNPU-IR/5f0b90d3-2b64-481e-ac0d-76ef25d43c22/scratchpad/drv_layernorm_2048.py":11:0), %arg15: i32 loc("/tmp/claude-1000/-mnt-d-work-git-AscendNPU-IR/5f0b90d3-2b64-481e-ac0d-76ef25d43c22/scratchpad/drv_layernorm_2048.py":11:0), %arg16: i32 loc("/tmp/claude-1000/-mnt-d-work-git-AscendNPU-IR/5f0b90d3-2b64-481e-ac0d-76ef25d43c22/scratchpad/drv_layernorm_2048.py":11:0)) attributes {SyncBlockLockArgIdx = 0 : i64, WorkspaceArgIdx = 1 : i64, global_kernel = "local", mix_mode = "aiv", parallel_mode = "simd"} {
    %c2048_i32 = arith.constant 2048 : i32 loc(#loc1)
    %c0_i32 = arith.constant 0 : i32 loc(#loc1)
    %cst = arith.constant 1.000000e+00 : f32 loc(#loc2)
    %c0 = arith.constant 0 : index loc(#loc3)
    %c2048 = arith.constant 2048 : index loc(#loc4)
    %cst_0 = arith.constant 0.000000e+00 : f32 loc(#loc5)
    %0 = tensor.empty() : tensor<2048xf32> loc(#loc6)
    %1 = linalg.fill ins(%cst_0 : f32) outs(%0 : tensor<2048xf32>) -> tensor<2048xf32> loc(#loc7)
    %2 = arith.muli %arg14, %arg8 : i32 loc(#loc8)
    %3 = scf.for %arg17 = %c0_i32 to %arg9 step %c2048_i32 iter_args(%arg18 = %1) -> (tensor<2048xf32>)  : i32 {
      %19 = arith.index_cast %2 : i32 to index loc(#loc8)
      %20 = arith.index_cast %arg17 : i32 to index loc(#loc9)
      %21 = arith.addi %19, %20 : index loc(#loc10)
      %reinterpret_cast_10 = memref.reinterpret_cast %arg2 to offset: [%21], sizes: [2048], strides: [1] : memref<?xf32> to memref<2048xf32, strided<[1], offset: ?>> loc(#loc10)
      %alloc = memref.alloc() : memref<2048xf32> loc(#loc11)
      %22 = arith.addi %20, %c2048 : index loc(#loc11)
      %23 = arith.index_cast %arg9 : i32 to index loc(#loc)
      %24 = arith.maxsi %20, %23 : index loc(#loc11)
      %25 = arith.minsi %22, %24 : index loc(#loc11)
      %26 = arith.subi %25, %20 : index loc(#loc11)
      %27 = arith.cmpi slt, %26, %c2048 : index loc(#loc11)
      scf.if %27 {
        linalg.fill ins(%cst_0 : f32) outs(%alloc : memref<2048xf32>) loc(#loc11)
      } {hivm.unlikely_condition} loc(#loc11)
      %subview = memref.subview %reinterpret_cast_10[0] [%26] [1] : memref<2048xf32, strided<[1], offset: ?>> to memref<?xf32, strided<[1], offset: ?>> loc(#loc11)
      %subview_11 = memref.subview %alloc[0] [%26] [1] : memref<2048xf32> to memref<?xf32, strided<[1]>> loc(#loc11)
      memref.copy %subview, %subview_11 : memref<?xf32, strided<[1], offset: ?>> to memref<?xf32, strided<[1]>> loc(#loc11)
      %28 = bufferization.to_tensor %alloc restrict writable : memref<2048xf32> loc(#loc11)
      %29 = arith.addf %arg18, %28 : tensor<2048xf32> loc(#loc12)
      scf.yield %29 : tensor<2048xf32> loc(#loc13)
    } loc(#loc9)
    %4 = bufferization.alloc_tensor() : tensor<f32> loc(#loc39)
    %5 = linalg.fill ins(%cst_0 : f32) outs(%4 : tensor<f32>) -> tensor<f32> loc(#loc39)
    %reduced = linalg.reduce ins(%3 : tensor<2048xf32>) outs(%5 : tensor<f32>) dimensions = [0] 
      (%in: f32 loc("/tmp/claude-1000/-mnt-d-work-git-AscendNPU-IR/5f0b90d3-2b64-481e-ac0d-76ef25d43c22/scratchpad/drv_layernorm_2048.py":18:27), %init: f32 loc(callsite(#loc14 at #loc15))) {
        %19 = arith.addf %in, %init : f32 loc(#loc39)
        linalg.yield %19 : f32 loc(#loc39)
      } loc(#loc39)
    %extracted = tensor.extract %reduced[] : tensor<f32> loc(#loc39)
    %6 = arith.sitofp %arg9 : i32 to f32 loc(#loc16)
    %7 = arith.divf %extracted, %6 : f32 loc(#loc16)
    %8 = linalg.fill ins(%7 : f32) outs(%0 : tensor<2048xf32>) -> tensor<2048xf32> loc(#loc6)
    %9 = scf.for %arg17 = %c0_i32 to %arg9 step %c2048_i32 iter_args(%arg18 = %1) -> (tensor<2048xf32>)  : i32 {
      %19 = arith.index_cast %2 : i32 to index loc(#loc8)
      %20 = arith.index_cast %arg17 : i32 to index loc(#loc17)
      %21 = arith.addi %19, %20 : index loc(#loc18)
      %reinterpret_cast_10 = memref.reinterpret_cast %arg2 to offset: [%21], sizes: [2048], strides: [1] : memref<?xf32> to memref<2048xf32, strided<[1], offset: ?>> loc(#loc18)
      %alloc = memref.alloc() : memref<2048xf32> loc(#loc19)
      %22 = arith.addi %20, %c2048 : index loc(#loc19)
      %23 = arith.index_cast %arg9 : i32 to index loc(#loc)
      %24 = arith.maxsi %20, %23 : index loc(#loc19)
      %25 = arith.minsi %22, %24 : index loc(#loc19)
      %26 = arith.subi %25, %20 : index loc(#loc19)
      %27 = arith.cmpi slt, %26, %c2048 : index loc(#loc19)
      scf.if %27 {
        linalg.fill ins(%cst_0 : f32) outs(%alloc : memref<2048xf32>) loc(#loc19)
      } {hivm.unlikely_condition} loc(#loc19)
      %subview = memref.subview %reinterpret_cast_10[0] [%26] [1] : memref<2048xf32, strided<[1], offset: ?>> to memref<?xf32, strided<[1], offset: ?>> loc(#loc19)
      %subview_11 = memref.subview %alloc[0] [%26] [1] : memref<2048xf32> to memref<?xf32, strided<[1]>> loc(#loc19)
      memref.copy %subview, %subview_11 : memref<?xf32, strided<[1], offset: ?>> to memref<?xf32, strided<[1]>> loc(#loc19)
      %28 = bufferization.to_tensor %alloc restrict writable : memref<2048xf32> loc(#loc19)
      %29 = arith.subf %28, %8 : tensor<2048xf32> loc(#loc6)
      %extracted_slice = tensor.extract_slice %29[0] [%26] [1] : tensor<2048xf32> to tensor<?xf32> loc(#loc7)
      %inserted_slice = tensor.insert_slice %extracted_slice into %1[0] [%26] [1] : tensor<?xf32> into tensor<2048xf32> loc(#loc7)
      %30 = arith.mulf %inserted_slice, %inserted_slice : tensor<2048xf32> loc(#loc20)
      %31 = arith.addf %arg18, %30 : tensor<2048xf32> loc(#loc21)
      scf.yield %31 : tensor<2048xf32> loc(#loc22)
    } loc(#loc17)
    %10 = bufferization.alloc_tensor() : tensor<f32> loc(#loc40)
    %11 = linalg.fill ins(%cst_0 : f32) outs(%10 : tensor<f32>) -> tensor<f32> loc(#loc40)
    %reduced_1 = linalg.reduce ins(%9 : tensor<2048xf32>) outs(%11 : tensor<f32>) dimensions = [0] 
      (%in: f32 loc("/tmp/claude-1000/-mnt-d-work-git-AscendNPU-IR/5f0b90d3-2b64-481e-ac0d-76ef25d43c22/scratchpad/drv_layernorm_2048.py":24:27), %init: f32 loc(callsite(#loc14 at #loc23))) {
        %19 = arith.addf %in, %init : f32 loc(#loc40)
        linalg.yield %19 : f32 loc(#loc40)
      } loc(#loc40)
    %extracted_2 = tensor.extract %reduced_1[] : tensor<f32> loc(#loc40)
    %12 = arith.divf %extracted_2, %6 : f32 loc(#loc24)
    %13 = tensor.empty() : tensor<1xf32> loc(#loc25)
    %inserted = tensor.insert %12 into %13[%c0] : tensor<1xf32> loc(#loc25)
    %inserted_3 = tensor.insert %arg10 into %13[%c0] : tensor<1xf32> loc(#loc25)
    %14 = arith.addf %inserted, %inserted_3 : tensor<1xf32> loc(#loc25)
    %extracted_4 = tensor.extract %14[%c0] : tensor<1xf32> loc(#loc25)
    %inserted_5 = tensor.insert %extracted_4 into %13[%c0] : tensor<1xf32> loc(#loc26)
    %15 = math.sqrt %inserted_5 : tensor<1xf32> loc(#loc26)
    %extracted_6 = tensor.extract %15[%c0] : tensor<1xf32> loc(#loc26)
    %16 = arith.divf %cst, %extracted_6 : f32 loc(#loc2)
    %inserted_7 = tensor.insert %7 into %13[%c0] : tensor<1xf32> loc(#loc27)
    %17 = arith.index_cast %arg14 : i32 to index loc(#loc28)
    %reinterpret_cast = memref.reinterpret_cast %arg6 to offset: [%17], sizes: [1], strides: [1] : memref<?xf32> to memref<1xf32, strided<[1], offset: ?>> loc(#loc27)
    bufferization.materialize_in_destination %inserted_7 in writable %reinterpret_cast : (tensor<1xf32>, memref<1xf32, strided<[1], offset: ?>>) -> () loc(#loc27)
    %inserted_8 = tensor.insert %16 into %13[%c0] : tensor<1xf32> loc(#loc3)
    %reinterpret_cast_9 = memref.reinterpret_cast %arg7 to offset: [%17], sizes: [1], strides: [1] : memref<?xf32> to memref<1xf32, strided<[1], offset: ?>> loc(#loc3)
    bufferization.materialize_in_destination %inserted_8 in writable %reinterpret_cast_9 : (tensor<1xf32>, memref<1xf32, strided<[1], offset: ?>>) -> () loc(#loc3)
    %18 = linalg.fill ins(%16 : f32) outs(%0 : tensor<2048xf32>) -> tensor<2048xf32> loc(#loc29)
    scf.for %arg17 = %c0_i32 to %arg9 step %c2048_i32  : i32 {
      %19 = arith.index_cast %arg17 : i32 to index loc(#loc1)
      %reinterpret_cast_10 = memref.reinterpret_cast %arg4 to offset: [%19], sizes: [2048], strides: [1] : memref<?xf32> to memref<2048xf32, strided<[1], offset: ?>> loc(#loc30)
      %alloc = memref.alloc() : memref<2048xf32> loc(#loc4)
      %20 = arith.addi %19, %c2048 : index loc(#loc4)
      %21 = arith.index_cast %arg9 : i32 to index loc(#loc)
      %22 = arith.maxsi %19, %21 : index loc(#loc4)
      %23 = arith.minsi %20, %22 : index loc(#loc4)
      %24 = arith.subi %23, %19 : index loc(#loc4)
      %25 = arith.cmpi slt, %24, %c2048 : index loc(#loc4)
      scf.if %25 {
        linalg.fill ins(%cst_0 : f32) outs(%alloc : memref<2048xf32>) loc(#loc4)
      } {hivm.unlikely_condition} loc(#loc4)
      %subview = memref.subview %reinterpret_cast_10[0] [%24] [1] : memref<2048xf32, strided<[1], offset: ?>> to memref<?xf32, strided<[1], offset: ?>> loc(#loc4)
      %subview_11 = memref.subview %alloc[0] [%24] [1] : memref<2048xf32> to memref<?xf32, strided<[1]>> loc(#loc4)
      memref.copy %subview, %subview_11 : memref<?xf32, strided<[1], offset: ?>> to memref<?xf32, strided<[1]>> loc(#loc4)
      %26 = bufferization.to_tensor %alloc restrict writable : memref<2048xf32> loc(#loc4)
      %reinterpret_cast_12 = memref.reinterpret_cast %arg5 to offset: [%19], sizes: [2048], strides: [1] : memref<?xf32> to memref<2048xf32, strided<[1], offset: ?>> loc(#loc31)
      %alloc_13 = memref.alloc() : memref<2048xf32> loc(#loc32)
      scf.if %25 {
        linalg.fill ins(%cst_0 : f32) outs(%alloc_13 : memref<2048xf32>) loc(#loc32)
      } {hivm.unlikely_condition} loc(#loc32)
      %subview_14 = memref.subview %reinterpret_cast_12[0] [%24] [1] : memref<2048xf32, strided<[1], offset: ?>> to memref<?xf32, strided<[1], offset: ?>> loc(#loc32)
      %subview_15 = memref.subview %alloc_13[0] [%24] [1] : memref<2048xf32> to memref<?xf32, strided<[1]>> loc(#loc32)
      memref.copy %subview_14, %subview_15 : memref<?xf32, strided<[1], offset: ?>> to memref<?xf32, strided<[1]>> loc(#loc32)
      %27 = bufferization.to_tensor %alloc_13 restrict writable : memref<2048xf32> loc(#loc32)
      %28 = arith.index_cast %2 : i32 to index loc(#loc8)
      %29 = arith.addi %28, %19 : index loc(#loc33)
      %reinterpret_cast_16 = memref.reinterpret_cast %arg2 to offset: [%29], sizes: [2048], strides: [1] : memref<?xf32> to memref<2048xf32, strided<[1], offset: ?>> loc(#loc33)
      %alloc_17 = memref.alloc() : memref<2048xf32> loc(#loc5)
      scf.if %25 {
        linalg.fill ins(%cst_0 : f32) outs(%alloc_17 : memref<2048xf32>) loc(#loc5)
      } {hivm.unlikely_condition} loc(#loc5)
      %subview_18 = memref.subview %reinterpret_cast_16[0] [%24] [1] : memref<2048xf32, strided<[1], offset: ?>> to memref<?xf32, strided<[1], offset: ?>> loc(#loc5)
      %subview_19 = memref.subview %alloc_17[0] [%24] [1] : memref<2048xf32> to memref<?xf32, strided<[1]>> loc(#loc5)
      memref.copy %subview_18, %subview_19 : memref<?xf32, strided<[1], offset: ?>> to memref<?xf32, strided<[1]>> loc(#loc5)
      %30 = bufferization.to_tensor %alloc_17 restrict writable : memref<2048xf32> loc(#loc5)
      %31 = arith.subf %30, %8 : tensor<2048xf32> loc(#loc34)
      %32 = arith.mulf %31, %18 : tensor<2048xf32> loc(#loc29)
      %33 = arith.mulf %32, %26 : tensor<2048xf32> loc(#loc35)
      %34 = arith.addf %33, %27 : tensor<2048xf32> loc(#loc36)
      %reinterpret_cast_20 = memref.reinterpret_cast %arg3 to offset: [%29], sizes: [2048], strides: [1] : memref<?xf32> to memref<2048xf32, strided<[1], offset: ?>> loc(#loc37)
      %extracted_slice = tensor.extract_slice %34[0] [%24] [1] : tensor<2048xf32> to tensor<?xf32> loc(#loc38)
      %subview_21 = memref.subview %reinterpret_cast_20[0] [%24] [1] : memref<2048xf32, strided<[1], offset: ?>> to memref<?xf32, strided<[1], offset: ?>> loc(#loc38)
      bufferization.materialize_in_destination %extracted_slice in writable %subview_21 : (tensor<?xf32>, memref<?xf32, strided<[1], offset: ?>>) -> () loc(#loc38)
    } loc(#loc1)
    return loc(#loc)
  } loc(#loc)
} loc(#loc)
#loc1 = loc("/tmp/claude-1000/-mnt-d-work-git-AscendNPU-IR/5f0b90d3-2b64-481e-ac0d-76ef25d43c22/scratchpad/drv_layernorm_2048.py":33:27)
#loc2 = loc("/tmp/claude-1000/-mnt-d-work-git-AscendNPU-IR/5f0b90d3-2b64-481e-ac0d-76ef25d43c22/scratchpad/drv_layernorm_2048.py":30:15)
#loc3 = loc("/tmp/claude-1000/-mnt-d-work-git-AscendNPU-IR/5f0b90d3-2b64-481e-ac0d-76ef25d43c22/scratchpad/drv_layernorm_2048.py":32:25)
#loc4 = loc("/tmp/claude-1000/-mnt-d-work-git-AscendNPU-IR/5f0b90d3-2b64-481e-ac0d-76ef25d43c22/scratchpad/drv_layernorm_2048.py":36:20)
#loc5 = loc("/tmp/claude-1000/-mnt-d-work-git-AscendNPU-IR/5f0b90d3-2b64-481e-ac0d-76ef25d43c22/scratchpad/drv_layernorm_2048.py":38:20)
#loc6 = loc("/tmp/claude-1000/-mnt-d-work-git-AscendNPU-IR/5f0b90d3-2b64-481e-ac0d-76ef25d43c22/scratchpad/drv_layernorm_2048.py":27:35)
#loc7 = loc("/tmp/claude-1000/-mnt-d-work-git-AscendNPU-IR/5f0b90d3-2b64-481e-ac0d-76ef25d43c22/scratchpad/drv_layernorm_2048.py":27:41)
#loc8 = loc("/tmp/claude-1000/-mnt-d-work-git-AscendNPU-IR/5f0b90d3-2b64-481e-ac0d-76ef25d43c22/scratchpad/drv_layernorm_2048.py":14:15)
#loc10 = loc("/tmp/claude-1000/-mnt-d-work-git-AscendNPU-IR/5f0b90d3-2b64-481e-ac0d-76ef25d43c22/scratchpad/drv_layernorm_2048.py":20:24)
#loc11 = loc("/tmp/claude-1000/-mnt-d-work-git-AscendNPU-IR/5f0b90d3-2b64-481e-ac0d-76ef25d43c22/scratchpad/drv_layernorm_2048.py":20:20)
#loc12 = loc("/tmp/claude-1000/-mnt-d-work-git-AscendNPU-IR/5f0b90d3-2b64-481e-ac0d-76ef25d43c22/scratchpad/drv_layernorm_2048.py":21:17)
#loc13 = loc("/tmp/claude-1000/-mnt-d-work-git-AscendNPU-IR/5f0b90d3-2b64-481e-ac0d-76ef25d43c22/scratchpad/drv_layernorm_2048.py":21:8)
#loc16 = loc("/tmp/claude-1000/-mnt-d-work-git-AscendNPU-IR/5f0b90d3-2b64-481e-ac0d-76ef25d43c22/scratchpad/drv_layernorm_2048.py":22:35)
#loc18 = loc("/tmp/claude-1000/-mnt-d-work-git-AscendNPU-IR/5f0b90d3-2b64-481e-ac0d-76ef25d43c22/scratchpad/drv_layernorm_2048.py":26:24)
#loc19 = loc("/tmp/claude-1000/-mnt-d-work-git-AscendNPU-IR/5f0b90d3-2b64-481e-ac0d-76ef25d43c22/scratchpad/drv_layernorm_2048.py":26:20)
#loc20 = loc("/tmp/claude-1000/-mnt-d-work-git-AscendNPU-IR/5f0b90d3-2b64-481e-ac0d-76ef25d43c22/scratchpad/drv_layernorm_2048.py":28:20)
#loc21 = loc("/tmp/claude-1000/-mnt-d-work-git-AscendNPU-IR/5f0b90d3-2b64-481e-ac0d-76ef25d43c22/scratchpad/drv_layernorm_2048.py":28:16)
#loc22 = loc("/tmp/claude-1000/-mnt-d-work-git-AscendNPU-IR/5f0b90d3-2b64-481e-ac0d-76ef25d43c22/scratchpad/drv_layernorm_2048.py":28:8)
#loc24 = loc("/tmp/claude-1000/-mnt-d-work-git-AscendNPU-IR/5f0b90d3-2b64-481e-ac0d-76ef25d43c22/scratchpad/drv_layernorm_2048.py":29:33)
#loc25 = loc("/tmp/claude-1000/-mnt-d-work-git-AscendNPU-IR/5f0b90d3-2b64-481e-ac0d-76ef25d43c22/scratchpad/drv_layernorm_2048.py":30:29)
#loc26 = loc("/tmp/claude-1000/-mnt-d-work-git-AscendNPU-IR/5f0b90d3-2b64-481e-ac0d-76ef25d43c22/scratchpad/drv_layernorm_2048.py":30:23)
#loc27 = loc("/tmp/claude-1000/-mnt-d-work-git-AscendNPU-IR/5f0b90d3-2b64-481e-ac0d-76ef25d43c22/scratchpad/drv_layernorm_2048.py":31:25)
#loc28 = loc("/tmp/claude-1000/-mnt-d-work-git-AscendNPU-IR/5f0b90d3-2b64-481e-ac0d-76ef25d43c22/scratchpad/drv_layernorm_2048.py":13:24)
#loc29 = loc("/tmp/claude-1000/-mnt-d-work-git-AscendNPU-IR/5f0b90d3-2b64-481e-ac0d-76ef25d43c22/scratchpad/drv_layernorm_2048.py":39:29)
#loc30 = loc("/tmp/claude-1000/-mnt-d-work-git-AscendNPU-IR/5f0b90d3-2b64-481e-ac0d-76ef25d43c22/scratchpad/drv_layernorm_2048.py":36:24)
#loc31 = loc("/tmp/claude-1000/-mnt-d-work-git-AscendNPU-IR/5f0b90d3-2b64-481e-ac0d-76ef25d43c22/scratchpad/drv_layernorm_2048.py":37:24)
#loc32 = loc("/tmp/claude-1000/-mnt-d-work-git-AscendNPU-IR/5f0b90d3-2b64-481e-ac0d-76ef25d43c22/scratchpad/drv_layernorm_2048.py":37:20)
#loc33 = loc("/tmp/claude-1000/-mnt-d-work-git-AscendNPU-IR/5f0b90d3-2b64-481e-ac0d-76ef25d43c22/scratchpad/drv_layernorm_2048.py":38:24)
#loc34 = loc("/tmp/claude-1000/-mnt-d-work-git-AscendNPU-IR/5f0b90d3-2b64-481e-ac0d-76ef25d43c22/scratchpad/drv_layernorm_2048.py":39:21)
#loc35 = loc("/tmp/claude-1000/-mnt-d-work-git-AscendNPU-IR/5f0b90d3-2b64-481e-ac0d-76ef25d43c22/scratchpad/drv_layernorm_2048.py":40:20)
#loc36 = loc("/tmp/claude-1000/-mnt-d-work-git-AscendNPU-IR/5f0b90d3-2b64-481e-ac0d-76ef25d43c22/scratchpad/drv_layernorm_2048.py":40:24)
#loc37 = loc("/tmp/claude-1000/-mnt-d-work-git-AscendNPU-IR/5f0b90d3-2b64-481e-ac0d-76ef25d43c22/scratchpad/drv_layernorm_2048.py":41:21)
#loc38 = loc("/tmp/claude-1000/-mnt-d-work-git-AscendNPU-IR/5f0b90d3-2b64-481e-ac0d-76ef25d43c22/scratchpad/drv_layernorm_2048.py":41:27)
