#loc = loc("/tmp/kernels_vllm__triton_rope.YAjIel.py":6:0)
#loc39 = loc("q_ptr"(#loc))
#loc40 = loc("q_row_stride"(#loc))
#loc41 = loc("k_ptr"(#loc))
#loc42 = loc("k_row_stride"(#loc))
#loc43 = loc("cos"(#loc))
#loc44 = loc("cos_row_stride"(#loc))
#loc45 = loc("sin"(#loc))
#loc46 = loc("sin_row_stride"(#loc))
#loc47 = loc("num_tokens"(#loc))
module attributes {hacc.target = #hacc.target<"Ascend910_9362">} {
  func.func @_triton_rope(%arg0: memref<?xi8> loc("/tmp/kernels_vllm__triton_rope.YAjIel.py":6:0), %arg1: memref<?xi8> loc("/tmp/kernels_vllm__triton_rope.YAjIel.py":6:0), %q_ptr: memref<?xbf16> {tt.divisibility = 16 : i32, tt.tensor_kind = 2 : i32} loc("q_ptr"(#loc)), %q_row_stride: i32 {tt.divisibility = 16 : i32} loc("q_row_stride"(#loc)), %k_ptr: memref<?xbf16> {tt.divisibility = 16 : i32, tt.tensor_kind = 2 : i32} loc("k_ptr"(#loc)), %k_row_stride: i32 {tt.divisibility = 16 : i32} loc("k_row_stride"(#loc)), %cos: memref<?xf32> {tt.divisibility = 16 : i32, tt.tensor_kind = 0 : i32} loc("cos"(#loc)), %cos_row_stride: i32 {tt.divisibility = 16 : i32} loc("cos_row_stride"(#loc)), %sin: memref<?xf32> {tt.divisibility = 16 : i32, tt.tensor_kind = 0 : i32} loc("sin"(#loc)), %sin_row_stride: i32 {tt.divisibility = 16 : i32} loc("sin_row_stride"(#loc)), %num_tokens: i32 {tt.divisibility = 16 : i32} loc("num_tokens"(#loc)), %arg11: i32 loc("/tmp/kernels_vllm__triton_rope.YAjIel.py":6:0), %arg12: i32 loc("/tmp/kernels_vllm__triton_rope.YAjIel.py":6:0), %arg13: i32 loc("/tmp/kernels_vllm__triton_rope.YAjIel.py":6:0), %arg14: i32 loc("/tmp/kernels_vllm__triton_rope.YAjIel.py":6:0), %arg15: i32 loc("/tmp/kernels_vllm__triton_rope.YAjIel.py":6:0), %arg16: i32 loc("/tmp/kernels_vllm__triton_rope.YAjIel.py":6:0)) attributes {SyncBlockLockArgIdx = 0 : i64, WorkspaceArgIdx = 1 : i64, global_kernel = "local", mix_mode = "aiv", parallel_mode = "simd"} {
    %k_tile_2 = arith.constant 32 : index loc(#loc48)
    %pid = arith.extsi %arg14 : i32 to i64 loc(#loc49)
    %0 = arith.extsi %num_tokens : i32 to i64 loc(#loc3)
    %1 = arith.extsi %arg11 : i32 to i64 loc(#loc3)
    %q_start_ptr = arith.extsi %q_row_stride : i32 to i64 loc(#loc50)
    %k_start_ptr = arith.extsi %k_row_stride : i32 to i64 loc(#loc51)
    %cos_start_ptr = arith.extsi %cos_row_stride : i32 to i64 loc(#loc52)
    %sin_start_ptr = arith.extsi %sin_row_stride : i32 to i64 loc(#loc53)
    scf.for %arg17 = %pid to %0 step %1  : i64 {
      %q_start_ptr_0 = arith.muli %arg17, %q_start_ptr : i64 loc(#loc50)
      %q_start_ptr_1 = arith.index_cast %q_start_ptr_0 : i64 to index loc(#loc50)
      %k_start_ptr_2 = arith.muli %arg17, %k_start_ptr : i64 loc(#loc51)
      %k_start_ptr_3 = arith.index_cast %k_start_ptr_2 : i64 to index loc(#loc51)
      %cos_start_ptr_4 = arith.muli %arg17, %cos_start_ptr : i64 loc(#loc52)
      %cos_start_ptr_5 = arith.index_cast %cos_start_ptr_4 : i64 to index loc(#loc52)
      %sin_start_ptr_6 = arith.muli %arg17, %sin_start_ptr : i64 loc(#loc53)
      %sin_start_ptr_7 = arith.index_cast %sin_start_ptr_6 : i64 to index loc(#loc53)
      %cos_row = memref.reinterpret_cast %cos to offset: [%cos_start_ptr_5], sizes: [32], strides: [1] : memref<?xf32> to memref<32xf32, strided<[1], offset: ?>> loc(#loc54)
      %cos_row_8 = memref.alloc() : memref<32xf32> loc(#loc55)
      memref.copy %cos_row, %cos_row_8 : memref<32xf32, strided<[1], offset: ?>> to memref<32xf32> loc(#loc55)
      %cos_row_9 = bufferization.to_tensor %cos_row_8 restrict writable : memref<32xf32> loc(#loc55)
      %sin_row = memref.reinterpret_cast %sin to offset: [%sin_start_ptr_7], sizes: [32], strides: [1] : memref<?xf32> to memref<32xf32, strided<[1], offset: ?>> loc(#loc56)
      %sin_row_10 = memref.alloc() : memref<32xf32> loc(#loc57)
      memref.copy %sin_row, %sin_row_10 : memref<32xf32, strided<[1], offset: ?>> to memref<32xf32> loc(#loc57)
      %sin_row_11 = bufferization.to_tensor %sin_row_10 restrict writable : memref<32xf32> loc(#loc57)
      %q_tile_1 = memref.reinterpret_cast %q_ptr to offset: [%q_start_ptr_1], sizes: [8, 32], strides: [128, 1] : memref<?xbf16> to memref<8x32xbf16, strided<[128, 1], offset: ?>> loc(#loc58)
      %q_tile_1_12 = memref.alloc() : memref<8x32xbf16> loc(#loc59)
      memref.copy %q_tile_1, %q_tile_1_12 : memref<8x32xbf16, strided<[128, 1], offset: ?>> to memref<8x32xbf16> loc(#loc59)
      %q_tile_1_13 = bufferization.to_tensor %q_tile_1_12 restrict writable : memref<8x32xbf16> loc(#loc59)
      %q_tile_1_14 = arith.extf %q_tile_1_13 : tensor<8x32xbf16> to tensor<8x32xf32> loc(#loc60)
      %k_tile_1 = memref.reinterpret_cast %k_ptr to offset: [%k_start_ptr_3], sizes: [1, 32], strides: [32, 1] : memref<?xbf16> to memref<1x32xbf16, strided<[32, 1], offset: ?>> loc(#loc61)
      %k_tile_1_15 = memref.alloc() : memref<1x32xbf16> loc(#loc62)
      memref.copy %k_tile_1, %k_tile_1_15 : memref<1x32xbf16, strided<[32, 1], offset: ?>> to memref<1x32xbf16> loc(#loc62)
      %k_tile_1_16 = bufferization.to_tensor %k_tile_1_15 restrict writable : memref<1x32xbf16> loc(#loc62)
      %k_tile_1_17 = arith.extf %k_tile_1_16 : tensor<1x32xbf16> to tensor<1x32xf32> loc(#loc63)
      %q_tile_2 = arith.addi %q_start_ptr_1, %k_tile_2 : index loc(#loc64)
      %q_tile_2_18 = memref.reinterpret_cast %q_ptr to offset: [%q_tile_2], sizes: [8, 32], strides: [128, 1] : memref<?xbf16> to memref<8x32xbf16, strided<[128, 1], offset: ?>> loc(#loc64)
      %q_tile_2_19 = memref.alloc() : memref<8x32xbf16> loc(#loc65)
      memref.copy %q_tile_2_18, %q_tile_2_19 : memref<8x32xbf16, strided<[128, 1], offset: ?>> to memref<8x32xbf16> loc(#loc65)
      %q_tile_2_20 = bufferization.to_tensor %q_tile_2_19 restrict writable : memref<8x32xbf16> loc(#loc65)
      %q_tile_2_21 = arith.extf %q_tile_2_20 : tensor<8x32xbf16> to tensor<8x32xf32> loc(#loc66)
      %k_tile_2_22 = arith.addi %k_start_ptr_3, %k_tile_2 : index loc(#loc48)
      %k_tile_2_23 = memref.reinterpret_cast %k_ptr to offset: [%k_tile_2_22], sizes: [1, 32], strides: [32, 1] : memref<?xbf16> to memref<1x32xbf16, strided<[32, 1], offset: ?>> loc(#loc48)
      %k_tile_2_24 = memref.alloc() : memref<1x32xbf16> loc(#loc67)
      memref.copy %k_tile_2_23, %k_tile_2_24 : memref<1x32xbf16, strided<[32, 1], offset: ?>> to memref<1x32xbf16> loc(#loc67)
      %k_tile_2_25 = bufferization.to_tensor %k_tile_2_24 restrict writable : memref<1x32xbf16> loc(#loc67)
      %k_tile_2_26 = arith.extf %k_tile_2_25 : tensor<1x32xbf16> to tensor<1x32xf32> loc(#loc68)
      %new_q_tile_1 = tensor.expand_shape %cos_row_9 [[0, 1]] output_shape [1, 32] : tensor<32xf32> into tensor<1x32xf32> loc(#loc69)
      %new_q_tile_1_27 = tensor.empty() : tensor<8x32xf32> loc(#loc69)
      %new_q_tile_1_28 = linalg.broadcast ins(%cos_row_9 : tensor<32xf32>) outs(%new_q_tile_1_27 : tensor<8x32xf32>) dimensions = [0]  loc(#loc69)
      %new_q_tile_1_29 = arith.mulf %q_tile_1_14, %new_q_tile_1_28 : tensor<8x32xf32> loc(#loc69)
      %new_q_tile_1_30 = tensor.expand_shape %sin_row_11 [[0, 1]] output_shape [1, 32] : tensor<32xf32> into tensor<1x32xf32> loc(#loc70)
      %new_q_tile_1_31 = linalg.broadcast ins(%sin_row_11 : tensor<32xf32>) outs(%new_q_tile_1_27 : tensor<8x32xf32>) dimensions = [0]  loc(#loc70)
      %new_q_tile_1_32 = arith.mulf %q_tile_2_21, %new_q_tile_1_31 : tensor<8x32xf32> loc(#loc70)
      %new_q_tile_1_33 = arith.subf %new_q_tile_1_29, %new_q_tile_1_32 : tensor<8x32xf32> loc(#loc71)
      %2 = arith.truncf %new_q_tile_1_33 : tensor<8x32xf32> to tensor<8x32xbf16> loc(#loc26)
      bufferization.materialize_in_destination %2 in writable %q_tile_1 : (tensor<8x32xbf16>, memref<8x32xbf16, strided<[128, 1], offset: ?>>) -> () loc(#loc26)
      %new_q_tile_2 = arith.mulf %q_tile_2_21, %new_q_tile_1_28 : tensor<8x32xf32> loc(#loc72)
      %new_q_tile_2_34 = arith.mulf %q_tile_1_14, %new_q_tile_1_31 : tensor<8x32xf32> loc(#loc73)
      %new_q_tile_2_35 = arith.addf %new_q_tile_2, %new_q_tile_2_34 : tensor<8x32xf32> loc(#loc74)
      %3 = arith.truncf %new_q_tile_2_35 : tensor<8x32xf32> to tensor<8x32xbf16> loc(#loc30)
      bufferization.materialize_in_destination %3 in writable %q_tile_2_18 : (tensor<8x32xbf16>, memref<8x32xbf16, strided<[128, 1], offset: ?>>) -> () loc(#loc30)
      %new_k_tile_1 = arith.mulf %k_tile_1_17, %new_q_tile_1 : tensor<1x32xf32> loc(#loc75)
      %new_k_tile_1_36 = arith.mulf %k_tile_2_26, %new_q_tile_1_30 : tensor<1x32xf32> loc(#loc76)
      %new_k_tile_1_37 = arith.subf %new_k_tile_1, %new_k_tile_1_36 : tensor<1x32xf32> loc(#loc77)
      %4 = arith.truncf %new_k_tile_1_37 : tensor<1x32xf32> to tensor<1x32xbf16> loc(#loc34)
      bufferization.materialize_in_destination %4 in writable %k_tile_1 : (tensor<1x32xbf16>, memref<1x32xbf16, strided<[32, 1], offset: ?>>) -> () loc(#loc34)
      %new_k_tile_2 = arith.mulf %k_tile_2_26, %new_q_tile_1 : tensor<1x32xf32> loc(#loc78)
      %new_k_tile_2_38 = arith.mulf %k_tile_1_17, %new_q_tile_1_30 : tensor<1x32xf32> loc(#loc79)
      %new_k_tile_2_39 = arith.addf %new_k_tile_2, %new_k_tile_2_38 : tensor<1x32xf32> loc(#loc80)
      %5 = arith.truncf %new_k_tile_2_39 : tensor<1x32xf32> to tensor<1x32xbf16> loc(#loc38)
      bufferization.materialize_in_destination %5 in writable %k_tile_2_23 : (tensor<1x32xbf16>, memref<1x32xbf16, strided<[32, 1], offset: ?>>) -> () loc(#loc38)
    } loc(#loc3)
    return loc(#loc)
  } loc(#loc)
} loc(#loc)
#loc1 = loc("/tmp/kernels_vllm__triton_rope.YAjIel.py":102:41)
#loc2 = loc("/tmp/kernels_vllm__triton_rope.YAjIel.py":54:30)
#loc3 = loc("/tmp/kernels_vllm__triton_rope.YAjIel.py":57:45)
#loc4 = loc("/tmp/kernels_vllm__triton_rope.YAjIel.py":58:40)
#loc5 = loc("/tmp/kernels_vllm__triton_rope.YAjIel.py":59:40)
#loc6 = loc("/tmp/kernels_vllm__triton_rope.YAjIel.py":65:40)
#loc7 = loc("/tmp/kernels_vllm__triton_rope.YAjIel.py":66:40)
#loc8 = loc("/tmp/kernels_vllm__triton_rope.YAjIel.py":70:42)
#loc9 = loc("/tmp/kernels_vllm__triton_rope.YAjIel.py":70:26)
#loc10 = loc("/tmp/kernels_vllm__triton_rope.YAjIel.py":71:42)
#loc11 = loc("/tmp/kernels_vllm__triton_rope.YAjIel.py":71:26)
#loc12 = loc("/tmp/kernels_vllm__triton_rope.YAjIel.py":89:41)
#loc13 = loc("/tmp/kernels_vllm__triton_rope.YAjIel.py":89:27)
#loc14 = loc("/tmp/kernels_vllm__triton_rope.YAjIel.py":89:94)
#loc15 = loc("/tmp/kernels_vllm__triton_rope.YAjIel.py":90:41)
#loc16 = loc("/tmp/kernels_vllm__triton_rope.YAjIel.py":90:27)
#loc17 = loc("/tmp/kernels_vllm__triton_rope.YAjIel.py":90:94)
#loc18 = loc("/tmp/kernels_vllm__triton_rope.YAjIel.py":101:41)
#loc19 = loc("/tmp/kernels_vllm__triton_rope.YAjIel.py":101:27)
#loc20 = loc("/tmp/kernels_vllm__triton_rope.YAjIel.py":101:96)
#loc21 = loc("/tmp/kernels_vllm__triton_rope.YAjIel.py":102:27)
#loc22 = loc("/tmp/kernels_vllm__triton_rope.YAjIel.py":102:96)
#loc23 = loc("/tmp/kernels_vllm__triton_rope.YAjIel.py":104:34)
#loc24 = loc("/tmp/kernels_vllm__triton_rope.YAjIel.py":104:55)
#loc25 = loc("/tmp/kernels_vllm__triton_rope.YAjIel.py":104:44)
#loc26 = loc("/tmp/kernels_vllm__triton_rope.YAjIel.py":105:53)
#loc27 = loc("/tmp/kernels_vllm__triton_rope.YAjIel.py":106:34)
#loc28 = loc("/tmp/kernels_vllm__triton_rope.YAjIel.py":106:55)
#loc29 = loc("/tmp/kernels_vllm__triton_rope.YAjIel.py":106:44)
#loc30 = loc("/tmp/kernels_vllm__triton_rope.YAjIel.py":107:54)
#loc31 = loc("/tmp/kernels_vllm__triton_rope.YAjIel.py":109:34)
#loc32 = loc("/tmp/kernels_vllm__triton_rope.YAjIel.py":109:55)
#loc33 = loc("/tmp/kernels_vllm__triton_rope.YAjIel.py":109:44)
#loc34 = loc("/tmp/kernels_vllm__triton_rope.YAjIel.py":110:53)
#loc35 = loc("/tmp/kernels_vllm__triton_rope.YAjIel.py":111:34)
#loc36 = loc("/tmp/kernels_vllm__triton_rope.YAjIel.py":111:55)
#loc37 = loc("/tmp/kernels_vllm__triton_rope.YAjIel.py":111:44)
#loc38 = loc("/tmp/kernels_vllm__triton_rope.YAjIel.py":112:54)
#loc48 = loc("k_tile_2"(#loc1))
#loc49 = loc("pid"(#loc2))
#loc50 = loc("q_start_ptr"(#loc4))
#loc51 = loc("k_start_ptr"(#loc5))
#loc52 = loc("cos_start_ptr"(#loc6))
#loc53 = loc("sin_start_ptr"(#loc7))
#loc54 = loc("cos_row"(#loc8))
#loc55 = loc("cos_row"(#loc9))
#loc56 = loc("sin_row"(#loc10))
#loc57 = loc("sin_row"(#loc11))
#loc58 = loc("q_tile_1"(#loc12))
#loc59 = loc("q_tile_1"(#loc13))
#loc60 = loc("q_tile_1"(#loc14))
#loc61 = loc("k_tile_1"(#loc15))
#loc62 = loc("k_tile_1"(#loc16))
#loc63 = loc("k_tile_1"(#loc17))
#loc64 = loc("q_tile_2"(#loc18))
#loc65 = loc("q_tile_2"(#loc19))
#loc66 = loc("q_tile_2"(#loc20))
#loc67 = loc("k_tile_2"(#loc21))
#loc68 = loc("k_tile_2"(#loc22))
#loc69 = loc("new_q_tile_1"(#loc23))
#loc70 = loc("new_q_tile_1"(#loc24))
#loc71 = loc("new_q_tile_1"(#loc25))
#loc72 = loc("new_q_tile_2"(#loc27))
#loc73 = loc("new_q_tile_2"(#loc28))
#loc74 = loc("new_q_tile_2"(#loc29))
#loc75 = loc("new_k_tile_1"(#loc31))
#loc76 = loc("new_k_tile_1"(#loc32))
#loc77 = loc("new_k_tile_1"(#loc33))
#loc78 = loc("new_k_tile_2"(#loc35))
#loc79 = loc("new_k_tile_2"(#loc36))
#loc80 = loc("new_k_tile_2"(#loc37))
