#loc = loc("/tmp/kernels_vllm_solve_tril_16x16_kernel.4GQMMd.py":8:0)
#loc11 = loc("/home/yuanye/AscendNPU-IR/.venv/lib/python3.9/site-packages/triton/language/standard.py":306:36)
#loc12 = loc("/tmp/kernels_vllm_solve_tril_16x16_kernel.4GQMMd.py":85:42)
#loc20 = loc("/tmp/kernels_vllm_solve_tril_16x16_kernel.4GQMMd.py":52:46)
#loc38 = loc("/tmp/kernels_vllm_solve_tril_16x16_kernel.4GQMMd.py":84:54)
#map = affine_map<(d0) -> (d0)>
#loc47 = loc("A"(#loc))
#loc48 = loc("Ad"(#loc))
#loc49 = loc("T"(#loc))
#loc59 = loc("dot_product"(#loc12))
#loc64 = loc("offs_rows_in_block"(#loc20))
#loc82 = loc("dot_tmp"(#loc38))
#loc87 = loc(callsite(#loc11 at #loc59))
module attributes {hacc.target = #hacc.target<"Ascend910_9362">} {
  func.func @solve_tril_16x16_kernel(%arg0: memref<?xi8> loc("/tmp/kernels_vllm_solve_tril_16x16_kernel.4GQMMd.py":8:0), %arg1: memref<?xi8> loc("/tmp/kernels_vllm_solve_tril_16x16_kernel.4GQMMd.py":8:0), %A: memref<?xbf16> {tt.divisibility = 16 : i32, tt.tensor_kind = 0 : i32} loc("A"(#loc)), %Ad: memref<?xbf16> {tt.divisibility = 16 : i32, tt.tensor_kind = 1 : i32} loc("Ad"(#loc)), %T: i32 loc("T"(#loc)), %arg5: i32 loc("/tmp/kernels_vllm_solve_tril_16x16_kernel.4GQMMd.py":8:0), %arg6: i32 loc("/tmp/kernels_vllm_solve_tril_16x16_kernel.4GQMMd.py":8:0), %arg7: i32 loc("/tmp/kernels_vllm_solve_tril_16x16_kernel.4GQMMd.py":8:0), %arg8: i32 loc("/tmp/kernels_vllm_solve_tril_16x16_kernel.4GQMMd.py":8:0), %arg9: i32 loc("/tmp/kernels_vllm_solve_tril_16x16_kernel.4GQMMd.py":8:0), %arg10: i32 loc("/tmp/kernels_vllm_solve_tril_16x16_kernel.4GQMMd.py":8:0)) attributes {SyncBlockLockArgIdx = 0 : i64, WorkspaceArgIdx = 1 : i64, global_kernel = "local", mix_mode = "aiv", parallel_mode = "simd"} {
    %b_A = arith.constant dense<16> : tensor<2xi64> loc(#loc50)
    %b_A_subrec16 = arith.constant 0.000000e+00 : bf16 loc(#loc51)
    %b_A_subrec16_0 = arith.constant 16 : index loc(#loc51)
    %ptr_A_subrec16 = arith.constant 64 : i32 loc(#loc52)
    %b_A_1 = arith.constant 1 : i32 loc(#loc53)
    %c2_i32 = arith.constant 2 : i32 loc(#loc5)
    %b_A_2 = arith.constant 1.000000e+00 : f32 loc(#loc54)
    %A_3 = arith.constant 4 : i32 loc(#loc55)
    %base_t = arith.constant 16 : i32 loc(#loc56)
    %base_t_4 = arith.constant 32 : i32 loc(#loc57)
    %base_t_5 = arith.constant 0 : i32 loc(#loc58)
    %dot_product = arith.constant 0.000000e+00 : f32 loc(#loc88)
    %dot_tmp = tensor.empty() : tensor<1x16x16xf32> loc(#loc60)
    %b_A_6 = linalg.fill ins(%dot_product : f32) outs(%dot_tmp : tensor<1x16x16xf32>) -> tensor<1x16x16xf32> loc(#loc61)
    %dot_product_7 = tensor.empty() : tensor<1x16xf32> loc(#loc87)
    %dot_product_8 = linalg.fill ins(%dot_product : f32) outs(%dot_product_7 : tensor<1x16xf32>) -> tensor<1x16xf32> loc(#loc87)
    %b_A_9 = linalg.fill ins(%b_A_2 : f32) outs(%dot_tmp : tensor<1x16x16xf32>) -> tensor<1x16x16xf32> loc(#loc54)
    %0 = arith.divsi %arg9, %A_3 : i32 loc(#loc15)
    %1 = arith.remsi %arg9, %A_3 : i32 loc(#loc16)
    %2 = arith.muli %0, %T : i32 loc(#loc17)
    %A_10 = arith.muli %2, %A_3 : i32 loc(#loc55)
    %A_11 = arith.addi %A_10, %1 : i32 loc(#loc62)
    %A_12 = arith.muli %A_11, %base_t : i32 loc(#loc63)
    %A_13 = arith.index_cast %A_12 : i32 to index loc(#loc63)
    %base_t_14 = arith.muli %arg8, %base_t_4 : i32 loc(#loc57)
    %offs_rows_in_block = tensor.empty() : tensor<16xi32> loc(#loc64)
    %offs_rows_in_block_15 = linalg.generic {indexing_maps = [#map], iterator_types = ["parallel"]} outs(%offs_rows_in_block : tensor<16xi32>) attrs =  {tt.from_make_range, tt.make_range_offset = 0 : index, tt.make_range_size = 16 : index} {
    ^bb0(%offs_rows_in_block_23: i32 loc("offs_rows_in_block"(#loc20))):
      %offs_rows_in_block_24 = linalg.index 0 : index loc(#loc64)
      %offs_rows_in_block_25 = arith.index_cast %offs_rows_in_block_24 : index to i32 loc(#loc64)
      linalg.yield %offs_rows_in_block_25 : i32 loc(#loc64)
    } -> tensor<16xi32> loc(#loc64)
    %tmp = arith.sitofp %offs_rows_in_block_15 : tensor<16xi32> to tensor<16xf32> loc(#loc65)
    %is_lower = tensor.empty() : tensor<16x16xf32> loc(#loc66)
    %is_lower_16 = linalg.broadcast ins(%tmp : tensor<16xf32>) outs(%is_lower : tensor<16x16xf32>) dimensions = [1]  loc(#loc66)
    %is_lower_17 = linalg.broadcast ins(%tmp : tensor<16xf32>) outs(%is_lower : tensor<16x16xf32>) dimensions = [0]  loc(#loc66)
    %is_lower_18 = arith.cmpf ogt, %is_lower_16, %is_lower_17 : tensor<16x16xf32> loc(#loc66)
    %is_lower_19 = arith.uitofp %is_lower_18 : tensor<16x16xi1> to tensor<16x16xf32> loc(#loc67)
    %b_A_20 = tensor.expand_shape %is_lower_19 [[0, 1], [2]] output_shape [1, 16, 16] : tensor<16x16xf32> into tensor<1x16x16xf32> loc(#loc68)
    %on_diagonal = arith.cmpf oeq, %is_lower_16, %is_lower_17 : tensor<16x16xf32> loc(#loc69)
    %b_A_21 = tensor.expand_shape %on_diagonal [[0, 1], [2]] output_shape [1, 16, 16] : tensor<16x16xi1> into tensor<1x16x16xi1> loc(#loc70)
    %base_t_22 = scf.for %base_t_23 = %base_t_5 to %c2_i32 step %b_A_1 iter_args(%base_t_24 = %base_t_14) -> (i32)  : i32 {
      %base_t_25 = arith.muli %base_t_23, %base_t : i32 loc(#loc56)
      %base_t_26 = arith.addi %base_t_24, %base_t_25 : i32 loc(#loc71)
      %col_start_o = arith.remsi %base_t_26, %base_t : i32 loc(#loc72)
      %ptr_A_subrec16_27 = arith.muli %base_t_26, %ptr_A_subrec16 : i32 loc(#loc52)
      %ptr_A_subrec16_28 = arith.index_cast %ptr_A_subrec16_27 : i32 to index loc(#loc52)
      %ptr_A_subrec16_29 = arith.addi %A_13, %ptr_A_subrec16_28 : index loc(#loc73)
      %col_start_o_30 = arith.index_cast %col_start_o : i32 to index loc(#loc72)
      %ptr_A_subrec16_31 = arith.addi %ptr_A_subrec16_29, %col_start_o_30 : index loc(#loc74)
      %ptr_A_subrec16_32 = memref.reinterpret_cast %A to offset: [%ptr_A_subrec16_31], sizes: [16, 16], strides: [64, 1] : memref<?xbf16> to memref<16x16xbf16, strided<[64, 1], offset: ?>> loc(#loc75)
      %b_A_subrec16_33 = memref.alloc() : memref<16x16xbf16> loc(#loc51)
      %base_t_34 = arith.index_cast %base_t_26 : i32 to index loc(#loc71)
      %b_A_subrec16_35 = arith.addi %base_t_34, %b_A_subrec16_0 : index loc(#loc51)
      %T_36 = arith.index_cast %T : i32 to index loc(#loc49)
      %b_A_subrec16_37 = arith.maxsi %base_t_34, %T_36 : index loc(#loc51)
      %b_A_subrec16_38 = arith.minsi %b_A_subrec16_35, %b_A_subrec16_37 : index loc(#loc51)
      %b_A_subrec16_39 = arith.subi %b_A_subrec16_38, %base_t_34 : index loc(#loc51)
      %b_A_subrec16_40 = arith.addi %col_start_o_30, %b_A_subrec16_0 : index loc(#loc51)
      %b_A_subrec16_41 = arith.maxsi %col_start_o_30, %b_A_subrec16_0 : index loc(#loc51)
      %b_A_subrec16_42 = arith.minsi %b_A_subrec16_40, %b_A_subrec16_41 : index loc(#loc51)
      %b_A_subrec16_43 = arith.subi %b_A_subrec16_42, %col_start_o_30 : index loc(#loc51)
      %b_A_subrec16_44 = arith.minsi %b_A_subrec16_39, %b_A_subrec16_0 : index loc(#loc51)
      %b_A_subrec16_45 = arith.minsi %b_A_subrec16_43, %b_A_subrec16_0 : index loc(#loc51)
      %b_A_subrec16_46 = arith.cmpi slt, %b_A_subrec16_44, %b_A_subrec16_0 : index loc(#loc51)
      %b_A_subrec16_47 = arith.cmpi slt, %b_A_subrec16_45, %b_A_subrec16_0 : index loc(#loc51)
      %b_A_subrec16_48 = arith.ori %b_A_subrec16_46, %b_A_subrec16_47 : i1 loc(#loc51)
      scf.if %b_A_subrec16_48 {
        linalg.fill ins(%b_A_subrec16 : bf16) outs(%b_A_subrec16_33 : memref<16x16xbf16>) loc(#loc51)
      } {hivm.unlikely_condition} loc(#loc51)
      %b_A_subrec16_49 = memref.subview %ptr_A_subrec16_32[0, 0] [%b_A_subrec16_44, %b_A_subrec16_45] [1, 1] : memref<16x16xbf16, strided<[64, 1], offset: ?>> to memref<?x?xbf16, strided<[64, 1], offset: ?>> loc(#loc51)
      %b_A_subrec16_50 = memref.subview %b_A_subrec16_33[0, 0] [%b_A_subrec16_44, %b_A_subrec16_45] [1, 1] : memref<16x16xbf16> to memref<?x?xbf16, strided<[16, 1]>> loc(#loc51)
      memref.copy %b_A_subrec16_49, %b_A_subrec16_50 : memref<?x?xbf16, strided<[64, 1], offset: ?>> to memref<?x?xbf16, strided<[16, 1]>> loc(#loc51)
      %b_A_subrec16_51 = bufferization.to_tensor %b_A_subrec16_33 restrict writable : memref<16x16xbf16> loc(#loc51)
      %b_A_subrec16_52 = arith.extf %b_A_subrec16_51 : tensor<16x16xbf16> to tensor<16x16xf32> loc(#loc76)
      %b_A_53 = tensor.expand_shape %b_A_subrec16_52 [[0, 1], [2]] output_shape [1, 16, 16] : tensor<16x16xf32> into tensor<1x16x16xf32> loc(#loc77)
      %local_ori_A = tensor.empty() : tensor<16x1x16xf32> loc(#loc78)
      %local_ori_A_54 = linalg.transpose ins(%b_A_53 : tensor<1x16x16xf32>) outs(%local_ori_A : tensor<16x1x16xf32>) permutation = [1, 0, 2]  loc(#loc78)
      %local_ori_A_55 = tensor.reshape %local_ori_A_54(%b_A) : (tensor<16x1x16xf32>, tensor<2xi64>) -> tensor<16x16xf32> loc(#loc79)
      %b_A_56 = arith.subf %b_A_6, %b_A_53 : tensor<1x16x16xf32> loc(#loc61)
      %b_A_57 = arith.mulf %b_A_56, %b_A_20 : tensor<1x16x16xf32> loc(#loc68)
      %b_A_58 = scf.for %b_A_62 = %b_A_1 to %base_t step %b_A_1 iter_args(%b_A_63 = %b_A_57) -> (tensor<1x16x16xf32>)  : i32 {
        %nblks_vec16 = arith.index_cast %b_A_62 : i32 to index loc(#loc80)
        %nblks_vec16_64 = tensor.extract_slice %local_ori_A_55[%nblks_vec16, 0] [1, 16] [16, 1] : tensor<16x16xf32> to tensor<1x16xf32> loc(#loc80)
        %nblks_vec16_65 = arith.subf %dot_product_8, %nblks_vec16_64 : tensor<1x16xf32> loc(#loc81)
        %dot_tmp_66 = linalg.broadcast ins(%nblks_vec16_65 : tensor<1x16xf32>) outs(%dot_tmp : tensor<1x16x16xf32>) dimensions = [2]  loc(#loc60)
        %dot_tmp_67 = arith.mulf %dot_tmp_66, %b_A_63 : tensor<1x16x16xf32> loc(#loc60)
        %dot_tmp_68 = linalg.transpose ins(%dot_tmp_67 : tensor<1x16x16xf32>) outs(%local_ori_A : tensor<16x1x16xf32>) permutation = [1, 0, 2]  loc(#loc82)
        %dot_product_69 = linalg.reduce ins(%dot_tmp_68 : tensor<16x1x16xf32>) outs(%dot_product_8 : tensor<1x16xf32>) dimensions = [0] 
          (%dot_tmp_71: f32 loc("dot_tmp"(#loc38)), %dot_product_72: f32 loc(callsite(#loc11 at #loc59))) {
            %dot_product_73 = arith.addf %dot_tmp_71, %dot_product_72 : f32 loc(#loc87)
            linalg.yield %dot_product_73 : f32 loc(#loc87)
          } loc(#loc87)
        %b_a = arith.addf %nblks_vec16_65, %dot_product_69 : tensor<1x16xf32> loc(#loc83)
        %b_a_new_expanded = tensor.expand_shape %b_a [[0], [1, 2]] output_shape [1, 1, 16] : tensor<1x16xf32> into tensor<1x1x16xf32> loc(#loc84)
        %b_A_70 = tensor.insert_slice %b_a_new_expanded into %b_A_63[0, %nblks_vec16, 0] [1, 1, 16] [1, 1, 1] : tensor<1x1x16xf32> into tensor<1x16x16xf32> loc(#loc85)
        scf.yield %b_A_70 : tensor<1x16x16xf32> loc(#loc42)
      } loc(#loc53)
      %b_A_59 = arith.addf %b_A_58, %b_A_9 : tensor<1x16x16xf32> loc(#loc54)
      %b_A_60 = arith.select %b_A_21, %b_A_59, %b_A_58 : tensor<1x16x16xi1>, tensor<1x16x16xf32> loc(#loc70)
      %b_A_61 = tensor.reshape %b_A_60(%b_A) : (tensor<1x16x16xf32>, tensor<2xi64>) -> tensor<16x16xf32> loc(#loc50)
      %p_Ai = memref.reinterpret_cast %Ad to offset: [%ptr_A_subrec16_29], sizes: [16, 16], strides: [64, 1] : memref<?xbf16> to memref<16x16xbf16, strided<[64, 1], offset: ?>> loc(#loc86)
      %3 = arith.truncf %b_A_61 : tensor<16x16xf32> to tensor<16x16xbf16> loc(#loc44)
      %extracted_slice = tensor.extract_slice %3[0, 0] [%b_A_subrec16_39, 16] [1, 1] : tensor<16x16xbf16> to tensor<?x16xbf16> loc(#loc45)
      %subview = memref.subview %p_Ai[0, 0] [%b_A_subrec16_39, 16] [1, 1] : memref<16x16xbf16, strided<[64, 1], offset: ?>> to memref<?x16xbf16, strided<[64, 1], offset: ?>> loc(#loc45)
      bufferization.materialize_in_destination %extracted_slice in writable %subview : (tensor<?x16xbf16>, memref<?x16xbf16, strided<[64, 1], offset: ?>>) -> () loc(#loc45)
      scf.yield %base_t_26 : i32 loc(#loc46)
    } loc(#loc58)
    return loc(#loc)
  } loc(#loc)
} loc(#loc)
#loc1 = loc("/tmp/kernels_vllm_solve_tril_16x16_kernel.4GQMMd.py":95:30)
#loc2 = loc("/tmp/kernels_vllm_solve_tril_16x16_kernel.4GQMMd.py":65:35)
#loc3 = loc("/tmp/kernels_vllm_solve_tril_16x16_kernel.4GQMMd.py":56:52)
#loc4 = loc("/tmp/kernels_vllm_solve_tril_16x16_kernel.4GQMMd.py":80:26)
#loc5 = loc("/tmp/kernels_vllm_solve_tril_16x16_kernel.4GQMMd.py":42:27)
#loc6 = loc("/tmp/kernels_vllm_solve_tril_16x16_kernel.4GQMMd.py":93:42)
#loc7 = loc("/tmp/kernels_vllm_solve_tril_16x16_kernel.4GQMMd.py":34:19)
#loc8 = loc("/tmp/kernels_vllm_solve_tril_16x16_kernel.4GQMMd.py":43:28)
#loc9 = loc("/tmp/kernels_vllm_solve_tril_16x16_kernel.4GQMMd.py":37:19)
#loc10 = loc("/home/yuanye/AscendNPU-IR/.venv/lib/python3.9/site-packages/triton/language/standard.py":275:15)
#loc13 = loc("/tmp/kernels_vllm_solve_tril_16x16_kernel.4GQMMd.py":84:49)
#loc14 = loc("/tmp/kernels_vllm_solve_tril_16x16_kernel.4GQMMd.py":77:15)
#loc15 = loc("/tmp/kernels_vllm_solve_tril_16x16_kernel.4GQMMd.py":20:23)
#loc16 = loc("/tmp/kernels_vllm_solve_tril_16x16_kernel.4GQMMd.py":20:33)
#loc17 = loc("/tmp/kernels_vllm_solve_tril_16x16_kernel.4GQMMd.py":32:25)
#loc18 = loc("/tmp/kernels_vllm_solve_tril_16x16_kernel.4GQMMd.py":34:23)
#loc19 = loc("/tmp/kernels_vllm_solve_tril_16x16_kernel.4GQMMd.py":34:30)
#loc21 = loc("/tmp/kernels_vllm_solve_tril_16x16_kernel.4GQMMd.py":73:34)
#loc22 = loc("/tmp/kernels_vllm_solve_tril_16x16_kernel.4GQMMd.py":76:27)
#loc23 = loc("/tmp/kernels_vllm_solve_tril_16x16_kernel.4GQMMd.py":76:36)
#loc24 = loc("/tmp/kernels_vllm_solve_tril_16x16_kernel.4GQMMd.py":77:21)
#loc25 = loc("/tmp/kernels_vllm_solve_tril_16x16_kernel.4GQMMd.py":92:31)
#loc26 = loc("/tmp/kernels_vllm_solve_tril_16x16_kernel.4GQMMd.py":93:47)
#loc27 = loc("/tmp/kernels_vllm_solve_tril_16x16_kernel.4GQMMd.py":43:18)
#loc28 = loc("/tmp/kernels_vllm_solve_tril_16x16_kernel.4GQMMd.py":49:40)
#loc29 = loc("/tmp/kernels_vllm_solve_tril_16x16_kernel.4GQMMd.py":56:34)
#loc30 = loc("/tmp/kernels_vllm_solve_tril_16x16_kernel.4GQMMd.py":56:57)
#loc31 = loc("/tmp/kernels_vllm_solve_tril_16x16_kernel.4GQMMd.py":57:30)
#loc32 = loc("/tmp/kernels_vllm_solve_tril_16x16_kernel.4GQMMd.py":65:81)
#loc33 = loc("/tmp/kernels_vllm_solve_tril_16x16_kernel.4GQMMd.py":66:67)
#loc34 = loc("/tmp/kernels_vllm_solve_tril_16x16_kernel.4GQMMd.py":69:36)
#loc35 = loc("/tmp/kernels_vllm_solve_tril_16x16_kernel.4GQMMd.py":70:46)
#loc36 = loc("/tmp/kernels_vllm_solve_tril_16x16_kernel.4GQMMd.py":81:92)
#loc37 = loc("/tmp/kernels_vllm_solve_tril_16x16_kernel.4GQMMd.py":81:27)
#loc39 = loc("/tmp/kernels_vllm_solve_tril_16x16_kernel.4GQMMd.py":86:24)
#loc40 = loc("/tmp/kernels_vllm_solve_tril_16x16_kernel.4GQMMd.py":88:35)
#loc41 = loc("/tmp/kernels_vllm_solve_tril_16x16_kernel.4GQMMd.py":90:41)
#loc42 = loc("/tmp/kernels_vllm_solve_tril_16x16_kernel.4GQMMd.py":89:12)
#loc43 = loc("/tmp/kernels_vllm_solve_tril_16x16_kernel.4GQMMd.py":103:82)
#loc44 = loc("/tmp/kernels_vllm_solve_tril_16x16_kernel.4GQMMd.py":108:30)
#loc45 = loc("/tmp/kernels_vllm_solve_tril_16x16_kernel.4GQMMd.py":108:23)
#loc46 = loc("/tmp/kernels_vllm_solve_tril_16x16_kernel.4GQMMd.py":108:8)
#loc50 = loc("b_A"(#loc1))
#loc51 = loc("b_A_subrec16"(#loc2))
#loc52 = loc("ptr_A_subrec16"(#loc3))
#loc53 = loc("b_A"(#loc4))
#loc54 = loc("b_A"(#loc6))
#loc55 = loc("A"(#loc7))
#loc56 = loc("base_t"(#loc8))
#loc57 = loc("base_t"(#loc9))
#loc58 = loc("base_t"(#loc5))
#loc60 = loc("dot_tmp"(#loc13))
#loc61 = loc("b_A"(#loc14))
#loc62 = loc("A"(#loc18))
#loc63 = loc("A"(#loc19))
#loc65 = loc("tmp"(#loc21))
#loc66 = loc("is_lower"(#loc22))
#loc67 = loc("is_lower"(#loc23))
#loc68 = loc("b_A"(#loc24))
#loc69 = loc("on_diagonal"(#loc25))
#loc70 = loc("b_A"(#loc26))
#loc71 = loc("base_t"(#loc27))
#loc72 = loc("col_start_o"(#loc28))
#loc73 = loc("ptr_A_subrec16"(#loc29))
#loc74 = loc("ptr_A_subrec16"(#loc30))
#loc75 = loc("ptr_A_subrec16"(#loc31))
#loc76 = loc("b_A_subrec16"(#loc32))
#loc77 = loc("b_A"(#loc33))
#loc78 = loc("local_ori_A"(#loc34))
#loc79 = loc("local_ori_A"(#loc35))
#loc80 = loc("nblks_vec16"(#loc36))
#loc81 = loc("nblks_vec16"(#loc37))
#loc83 = loc("b_a"(#loc39))
#loc84 = loc("b_a_new_expanded"(#loc40))
#loc85 = loc("b_A"(#loc41))
#loc86 = loc("p_Ai"(#loc43))
#loc88 = loc(callsite(#loc10 at #loc87))
