#loc = loc("/tmp/kernels_vllm_chunk_scaled_dot_kkt_fwd_kernel.oLO15P.py":15:0)
#loc12 = loc("/tmp/kernels_vllm_chunk_scaled_dot_kkt_fwd_kernel.oLO15P.py":45:27)
#map = affine_map<(d0) -> (d0)>
#loc27 = loc("k"(#loc))
#loc28 = loc("beta"(#loc))
#loc29 = loc("A"(#loc))
#loc30 = loc("T"(#loc))
#loc40 = loc("o_t"(#loc12))
module attributes {hacc.target = #hacc.target<"Ascend910_9362">} {
  func.func @chunk_scaled_dot_kkt_fwd_kernel(%arg0: memref<?xi8> loc("/tmp/kernels_vllm_chunk_scaled_dot_kkt_fwd_kernel.oLO15P.py":15:0), %arg1: memref<?xi8> loc("/tmp/kernels_vllm_chunk_scaled_dot_kkt_fwd_kernel.oLO15P.py":15:0), %k: memref<?xbf16> {tt.divisibility = 16 : i32, tt.tensor_kind = 0 : i32} loc("k"(#loc)), %beta: memref<?xbf16> {tt.divisibility = 16 : i32, tt.tensor_kind = 0 : i32} loc("beta"(#loc)), %A: memref<?xbf16> {tt.divisibility = 16 : i32, tt.tensor_kind = 1 : i32} loc("A"(#loc)), %T: i32 loc("T"(#loc)), %arg6: i32 loc("/tmp/kernels_vllm_chunk_scaled_dot_kkt_fwd_kernel.oLO15P.py":15:0), %arg7: i32 loc("/tmp/kernels_vllm_chunk_scaled_dot_kkt_fwd_kernel.oLO15P.py":15:0), %arg8: i32 loc("/tmp/kernels_vllm_chunk_scaled_dot_kkt_fwd_kernel.oLO15P.py":15:0), %arg9: i32 loc("/tmp/kernels_vllm_chunk_scaled_dot_kkt_fwd_kernel.oLO15P.py":15:0), %arg10: i32 loc("/tmp/kernels_vllm_chunk_scaled_dot_kkt_fwd_kernel.oLO15P.py":15:0), %arg11: i32 loc("/tmp/kernels_vllm_chunk_scaled_dot_kkt_fwd_kernel.oLO15P.py":15:0)) attributes {SyncBlockLockArgIdx = 0 : i64, WorkspaceArgIdx = 1 : i64, global_kernel = "local", mix_mode = "mix", parallel_mode = "simd"} {
    %p_A = arith.constant 64 : index loc(#loc31)
    %p_k = arith.constant 256 : index loc(#loc32)
    %b_k = arith.constant 0.000000e+00 : bf16 loc(#loc33)
    %c16 = arith.constant 16 : index loc(#loc4)
    %c0 = arith.constant 0 : index loc(#loc4)
    %c1_i32 = arith.constant 1 : i32 loc(#loc5)
    %p_beta = arith.constant 0 : i32 loc(#loc34)
    %p_k_0 = arith.constant 4 : i32 loc(#loc35)
    %p_A_1 = arith.constant 16 : i32 loc(#loc36)
    %p_k_2 = arith.constant 64 : i32 loc(#loc37)
    %b_A = arith.constant 0.000000e+00 : f32 loc(#loc38)
    %b_A_3 = tensor.empty() : tensor<16x16xf32> loc(#loc39)
    %b_A_4 = linalg.fill ins(%b_A : f32) outs(%b_A_3 : tensor<16x16xf32>) -> tensor<16x16xf32> loc(#loc38)
    %o_t = tensor.empty() : tensor<16xi32> loc(#loc40)
    %o_t_5 = linalg.generic {indexing_maps = [#map], iterator_types = ["parallel"]} outs(%o_t : tensor<16xi32>) attrs =  {tt.from_make_range, tt.make_range_offset = 0 : index, tt.make_range_size = 16 : index} {
    ^bb0(%o_t_10: i32 loc("o_t"(#loc12))):
      %o_t_11 = linalg.index 0 : index loc(#loc40)
      %o_t_12 = arith.index_cast %o_t_11 : index to i32 loc(#loc40)
      linalg.yield %o_t_12 : i32 loc(#loc40)
    } -> tensor<16xi32> loc(#loc40)
    %o_t_fp32 = arith.sitofp %o_t_5 : tensor<16xi32> to tensor<16xf32> loc(#loc41)
    %p_beta_6 = arith.muli %arg9, %p_A_1 : i32 loc(#loc42)
    %b_A_7 = linalg.broadcast ins(%o_t_fp32 : tensor<16xf32>) outs(%b_A_3 : tensor<16x16xf32>) dimensions = [1]  loc(#loc39)
    %b_A_8 = linalg.broadcast ins(%o_t_fp32 : tensor<16xf32>) outs(%b_A_3 : tensor<16x16xf32>) dimensions = [0]  loc(#loc39)
    %b_A_9 = arith.cmpf ogt, %b_A_7, %b_A_8 : tensor<16x16xf32> loc(#loc39)
    scf.for %arg12 = %p_beta to %p_k_0 step %c1_i32  : i32 {
      %0 = arith.divsi %arg12, %p_k_0 : i32 loc(#loc15)
      %1 = arith.remsi %arg12, %p_k_0 : i32 loc(#loc16)
      %2 = arith.muli %0, %T : i32 loc(#loc17)
      %p_beta_10 = arith.muli %1, %T : i32 loc(#loc43)
      %p_beta_11 = arith.index_cast %p_beta_10 : i32 to index loc(#loc43)
      %3 = arith.index_cast %2 : i32 to index loc(#loc17)
      %p_beta_12 = arith.addi %p_beta_11, %3 : index loc(#loc44)
      %p_beta_13 = arith.maxsi %p_beta_6, %p_beta : i32 loc(#loc34)
      %p_beta_14 = arith.index_cast %p_beta_13 : i32 to index loc(#loc34)
      %p_beta_15 = arith.addi %p_beta_14, %p_beta_12 : index loc(#loc34)
      %p_beta_16 = arith.index_cast %T : i32 to index loc(#loc34)
      %p_beta_17 = memref.reinterpret_cast %beta to offset: [%p_beta_15], sizes: [16], strides: [1] : memref<?xbf16> to memref<16xbf16, strided<[1], offset: ?>> loc(#loc34)
      %b_beta = memref.alloc() : memref<16xbf16> loc(#loc45)
      %b_beta_18 = arith.subi %p_beta_16, %p_beta_14 : index loc(#loc45)
      %b_beta_19 = arith.maxsi %b_beta_18, %c0 : index loc(#loc45)
      %b_beta_20 = arith.minsi %b_beta_19, %c16 : index loc(#loc45)
      %b_beta_21 = arith.subi %p_beta, %p_beta_6 : i32 loc(#loc45)
      %b_beta_22 = arith.maxsi %b_beta_21, %p_beta : i32 loc(#loc45)
      %b_beta_23 = arith.index_cast %b_beta_22 : i32 to index loc(#loc45)
      %b_beta_24 = arith.minsi %b_beta_23, %b_beta_20 : index loc(#loc45)
      %b_beta_25 = arith.subi %b_beta_20, %b_beta_24 : index loc(#loc45)
      %b_beta_26 = arith.cmpi slt, %b_beta_25, %c16 : index loc(#loc45)
      scf.if %b_beta_26 {
        linalg.fill ins(%b_k : bf16) outs(%b_beta : memref<16xbf16>) loc(#loc45)
      } {hivm.unlikely_condition} loc(#loc45)
      %b_beta_27 = memref.subview %p_beta_17[0] [%b_beta_25] [1] : memref<16xbf16, strided<[1], offset: ?>> to memref<?xbf16, strided<[1], offset: ?>> loc(#loc45)
      %b_beta_28 = memref.subview %b_beta[%b_beta_24] [%b_beta_25] [1] : memref<16xbf16> to memref<?xbf16, strided<[1], offset: ?>> loc(#loc45)
      memref.copy %b_beta_27, %b_beta_28 : memref<?xbf16, strided<[1], offset: ?>> to memref<?xbf16, strided<[1], offset: ?>> loc(#loc45)
      %b_beta_29 = bufferization.to_tensor %b_beta restrict writable : memref<16xbf16> loc(#loc45)
      %p_k_30 = arith.muli %2, %p_k_0 : i32 loc(#loc35)
      %p_k_31 = arith.addi %p_k_30, %1 : i32 loc(#loc46)
      %p_k_32 = arith.muli %p_k_31, %p_k_2 : i32 loc(#loc37)
      %p_k_33 = arith.index_cast %p_k_32 : i32 to index loc(#loc37)
      %p_k_34 = arith.muli %p_beta_14, %p_k : index loc(#loc32)
      %p_k_35 = arith.addi %p_k_34, %p_k_33 : index loc(#loc32)
      %p_k_36 = memref.reinterpret_cast %k to offset: [%p_k_35], sizes: [16, 64], strides: [256, 1] : memref<?xbf16> to memref<16x64xbf16, strided<[256, 1], offset: ?>> loc(#loc32)
      %b_k_37 = memref.alloc() : memref<16x64xbf16> loc(#loc33)
      %b_k_38 = arith.divsi %p_k_34, %p_k : index loc(#loc33)
      %b_k_39 = arith.subi %p_beta_16, %b_k_38 : index loc(#loc33)
      %b_k_40 = arith.maxsi %b_k_39, %c0 : index loc(#loc33)
      %b_k_41 = arith.minsi %b_k_40, %c16 : index loc(#loc33)
      %b_k_42 = arith.remsi %p_k_34, %p_k : index loc(#loc33)
      %b_k_43 = arith.subi %p_A, %b_k_42 : index loc(#loc33)
      %b_k_44 = arith.maxsi %b_k_43, %c0 : index loc(#loc33)
      %b_k_45 = arith.minsi %b_k_44, %p_A : index loc(#loc33)
      %b_k_46 = arith.minsi %b_beta_23, %b_k_41 : index loc(#loc33)
      %b_k_47 = arith.subi %b_k_41, %b_k_46 : index loc(#loc33)
      %b_k_48 = arith.minsi %b_k_45, %c0 : index loc(#loc33)
      %b_k_49 = arith.subi %b_k_45, %b_k_48 : index loc(#loc33)
      %b_k_50 = arith.cmpi slt, %b_k_47, %c16 : index loc(#loc33)
      %b_k_51 = arith.cmpi slt, %b_k_49, %p_A : index loc(#loc33)
      %b_k_52 = arith.ori %b_k_50, %b_k_51 : i1 loc(#loc33)
      scf.if %b_k_52 {
        linalg.fill ins(%b_k : bf16) outs(%b_k_37 : memref<16x64xbf16>) loc(#loc33)
      } {hivm.unlikely_condition} loc(#loc33)
      %b_k_53 = memref.subview %p_k_36[0, 0] [%b_k_47, %b_k_49] [1, 1] : memref<16x64xbf16, strided<[256, 1], offset: ?>> to memref<?x?xbf16, strided<[256, 1], offset: ?>> loc(#loc33)
      %b_k_54 = memref.subview %b_k_37[%b_k_46, %b_k_48] [%b_k_47, %b_k_49] [1, 1] : memref<16x64xbf16> to memref<?x?xbf16, strided<[64, 1], offset: ?>> loc(#loc33)
      memref.copy %b_k_53, %b_k_54 : memref<?x?xbf16, strided<[256, 1], offset: ?>> to memref<?x?xbf16, strided<[64, 1], offset: ?>> loc(#loc33)
      %b_k_55 = bufferization.to_tensor %b_k_37 restrict writable : memref<16x64xbf16> loc(#loc33)
      %b_A_56 = tensor.empty() : tensor<64x16xbf16> loc(#loc47)
      %b_A_57 = linalg.transpose ins(%b_k_55 : tensor<16x64xbf16>) outs(%b_A_56 : tensor<64x16xbf16>) permutation = [1, 0]  loc(#loc47)
      %b_A_58 = linalg.matmul {input_precision = "ieee"} ins(%b_k_55, %b_A_57 : tensor<16x64xbf16>, tensor<64x16xbf16>) outs(%b_A_4 : tensor<16x16xf32>) -> tensor<16x16xf32> loc(#loc48)
      %b_A_59 = tensor.expand_shape %b_beta_29 [[0, 1]] output_shape [16, 1] : tensor<16xbf16> into tensor<16x1xbf16> loc(#loc49)
      %b_A_60 = arith.extf %b_A_59 : tensor<16x1xbf16> to tensor<16x1xf32> loc(#loc50)
      %b_A_61 = tensor.collapse_shape %b_A_60 [[0, 1]] : tensor<16x1xf32> into tensor<16xf32> loc(#loc50)
      %b_A_62 = linalg.broadcast ins(%b_A_61 : tensor<16xf32>) outs(%b_A_3 : tensor<16x16xf32>) dimensions = [1]  loc(#loc50)
      %b_A_63 = arith.mulf %b_A_58, %b_A_62 : tensor<16x16xf32> loc(#loc50)
      %b_A_64 = arith.select %b_A_9, %b_A_63, %b_A_4 : tensor<16x16xi1>, tensor<16x16xf32> loc(#loc38)
      %p_A_65 = arith.muli %p_k_31, %p_A_1 : i32 loc(#loc36)
      %p_A_66 = arith.index_cast %p_A_65 : i32 to index loc(#loc36)
      %p_A_67 = arith.muli %p_beta_14, %p_A : index loc(#loc31)
      %p_A_68 = arith.addi %p_A_67, %p_A_66 : index loc(#loc31)
      %p_A_69 = memref.reinterpret_cast %A to offset: [%p_A_68], sizes: [16, 16], strides: [64, 1] : memref<?xbf16> to memref<16x16xbf16, strided<[64, 1], offset: ?>> loc(#loc31)
      %4 = arith.truncf %b_A_64 : tensor<16x16xf32> to tensor<16x16xbf16> loc(#loc26)
      %5 = arith.divsi %p_A_67, %p_A : index loc(#loc4)
      %6 = arith.subi %p_beta_16, %5 : index loc(#loc4)
      %7 = arith.maxsi %6, %c0 : index loc(#loc4)
      %8 = arith.minsi %7, %c16 : index loc(#loc4)
      %9 = arith.remsi %p_A_67, %p_A : index loc(#loc4)
      %10 = arith.subi %c16, %9 : index loc(#loc4)
      %11 = arith.maxsi %10, %c0 : index loc(#loc4)
      %12 = arith.minsi %11, %c16 : index loc(#loc4)
      %13 = arith.minsi %b_beta_23, %8 : index loc(#loc4)
      %14 = arith.subi %8, %13 : index loc(#loc4)
      %15 = arith.minsi %12, %c0 : index loc(#loc4)
      %16 = arith.subi %12, %15 : index loc(#loc4)
      %extracted_slice = tensor.extract_slice %4[%13, %15] [%14, %16] [1, 1] : tensor<16x16xbf16> to tensor<?x?xbf16> loc(#loc4)
      %subview = memref.subview %p_A_69[0, 0] [%14, %16] [1, 1] : memref<16x16xbf16, strided<[64, 1], offset: ?>> to memref<?x?xbf16, strided<[64, 1], offset: ?>> loc(#loc4)
      bufferization.materialize_in_destination %extracted_slice in writable %subview : (tensor<?x?xbf16>, memref<?x?xbf16, strided<[64, 1], offset: ?>>) -> () loc(#loc4)
    } loc(#loc5)
    return loc(#loc)
  } loc(#loc)
} loc(#loc)
#loc1 = loc("/tmp/kernels_vllm_chunk_scaled_dot_kkt_fwd_kernel.oLO15P.py":66:105)
#loc2 = loc("/tmp/kernels_vllm_chunk_scaled_dot_kkt_fwd_kernel.oLO15P.py":54:46)
#loc3 = loc("/tmp/kernels_vllm_chunk_scaled_dot_kkt_fwd_kernel.oLO15P.py":55:26)
#loc4 = loc("/tmp/kernels_vllm_chunk_scaled_dot_kkt_fwd_kernel.oLO15P.py":67:22)
#loc5 = loc("/tmp/kernels_vllm_chunk_scaled_dot_kkt_fwd_kernel.oLO15P.py":35:22)
#loc6 = loc("/tmp/kernels_vllm_chunk_scaled_dot_kkt_fwd_kernel.oLO15P.py":48:101)
#loc7 = loc("/tmp/kernels_vllm_chunk_scaled_dot_kkt_fwd_kernel.oLO15P.py":53:47)
#loc8 = loc("/tmp/kernels_vllm_chunk_scaled_dot_kkt_fwd_kernel.oLO15P.py":66:54)
#loc9 = loc("/tmp/kernels_vllm_chunk_scaled_dot_kkt_fwd_kernel.oLO15P.py":53:72)
#loc10 = loc("/tmp/kernels_vllm_chunk_scaled_dot_kkt_fwd_kernel.oLO15P.py":65:67)
#loc11 = loc("/tmp/kernels_vllm_chunk_scaled_dot_kkt_fwd_kernel.oLO15P.py":65:43)
#loc13 = loc("/tmp/kernels_vllm_chunk_scaled_dot_kkt_fwd_kernel.oLO15P.py":46:26)
#loc14 = loc("/tmp/kernels_vllm_chunk_scaled_dot_kkt_fwd_kernel.oLO15P.py":48:86)
#loc15 = loc("/tmp/kernels_vllm_chunk_scaled_dot_kkt_fwd_kernel.oLO15P.py":36:27)
#loc16 = loc("/tmp/kernels_vllm_chunk_scaled_dot_kkt_fwd_kernel.oLO15P.py":36:37)
#loc17 = loc("/tmp/kernels_vllm_chunk_scaled_dot_kkt_fwd_kernel.oLO15P.py":43:29)
#loc18 = loc("/tmp/kernels_vllm_chunk_scaled_dot_kkt_fwd_kernel.oLO15P.py":48:48)
#loc19 = loc("/tmp/kernels_vllm_chunk_scaled_dot_kkt_fwd_kernel.oLO15P.py":48:60)
#loc20 = loc("/tmp/kernels_vllm_chunk_scaled_dot_kkt_fwd_kernel.oLO15P.py":49:25)
#loc21 = loc("/tmp/kernels_vllm_chunk_scaled_dot_kkt_fwd_kernel.oLO15P.py":53:52)
#loc22 = loc("/tmp/kernels_vllm_chunk_scaled_dot_kkt_fwd_kernel.oLO15P.py":56:40)
#loc23 = loc("/tmp/kernels_vllm_chunk_scaled_dot_kkt_fwd_kernel.oLO15P.py":56:31)
#loc24 = loc("/tmp/kernels_vllm_chunk_scaled_dot_kkt_fwd_kernel.oLO15P.py":64:22)
#loc25 = loc("/tmp/kernels_vllm_chunk_scaled_dot_kkt_fwd_kernel.oLO15P.py":64:15)
#loc26 = loc("/tmp/kernels_vllm_chunk_scaled_dot_kkt_fwd_kernel.oLO15P.py":67:29)
#loc31 = loc("p_A"(#loc1))
#loc32 = loc("p_k"(#loc2))
#loc33 = loc("b_k"(#loc3))
#loc34 = loc("p_beta"(#loc6))
#loc35 = loc("p_k"(#loc7))
#loc36 = loc("p_A"(#loc8))
#loc37 = loc("p_k"(#loc9))
#loc38 = loc("b_A"(#loc10))
#loc39 = loc("b_A"(#loc11))
#loc41 = loc("o_t_fp32"(#loc13))
#loc42 = loc("p_beta"(#loc14))
#loc43 = loc("p_beta"(#loc18))
#loc44 = loc("p_beta"(#loc19))
#loc45 = loc("b_beta"(#loc20))
#loc46 = loc("p_k"(#loc21))
#loc47 = loc("b_A"(#loc22))
#loc48 = loc("b_A"(#loc23))
#loc49 = loc("b_A"(#loc24))
#loc50 = loc("b_A"(#loc25))
