#loc = loc("/tmp/kernels_vllm_sample_recovered_tokens_kernel.z3349e.py":7:0)
#loc1 = loc("/home/yuanye/AscendNPU-IR/.venv/lib/python3.9/site-packages/triton/language/standard.py":182:58)
#loc2 = loc("/home/yuanye/AscendNPU-IR/.venv/lib/python3.9/site-packages/triton/language/standard.py":206:26)
#loc3 = loc("/tmp/kernels_vllm_sample_recovered_tokens_kernel.z3349e.py":47:37)
#loc28 = loc("/tmp/kernels_vllm_sample_recovered_tokens_kernel.z3349e.py":41:54)
#loc33 = loc("/tmp/kernels_vllm_sample_recovered_tokens_kernel.z3349e.py":46:27)
#map = affine_map<(d0) -> (d0)>
#loc49 = loc("output_token_ids_ptr"(#loc))
#loc50 = loc("cu_num_draft_tokens_ptr"(#loc))
#loc51 = loc("draft_token_ids_ptr"(#loc))
#loc52 = loc("target_probs_ptr"(#loc))
#loc53 = loc("q_ptr"(#loc))
#loc54 = loc("vocab_size"(#loc))
#loc55 = loc("recovered_id"(#loc3))
#loc77 = loc("vocab_offset"(#loc28))
#loc82 = loc("new_p"(#loc33))
#loc92 = loc(callsite(#loc2 at #loc55))
#loc96 = loc(callsite(#loc1 at #loc92))
module attributes {hacc.target = #hacc.target<"Ascend910_9362">} {
  func.func @sample_recovered_tokens_kernel(%arg0: memref<?xi8> loc("/tmp/kernels_vllm_sample_recovered_tokens_kernel.z3349e.py":7:0), %arg1: memref<?xi8> loc("/tmp/kernels_vllm_sample_recovered_tokens_kernel.z3349e.py":7:0), %output_token_ids_ptr: memref<?xi32> {tt.divisibility = 16 : i32, tt.tensor_kind = 1 : i32} loc("output_token_ids_ptr"(#loc)), %cu_num_draft_tokens_ptr: memref<?xi32> {tt.divisibility = 16 : i32, tt.tensor_kind = 0 : i32} loc("cu_num_draft_tokens_ptr"(#loc)), %draft_token_ids_ptr: memref<?xi32> {tt.divisibility = 16 : i32, tt.tensor_kind = 0 : i32} loc("draft_token_ids_ptr"(#loc)), %target_probs_ptr: memref<?xf32> {tt.divisibility = 16 : i32, tt.tensor_kind = 2 : i32} loc("target_probs_ptr"(#loc)), %q_ptr: memref<?xf32> {tt.divisibility = 16 : i32, tt.tensor_kind = 0 : i32} loc("q_ptr"(#loc)), %vocab_size: i32 {tt.divisibility = 16 : i32} loc("vocab_size"(#loc)), %arg8: i32 loc("/tmp/kernels_vllm_sample_recovered_tokens_kernel.z3349e.py":7:0), %arg9: i32 loc("/tmp/kernels_vllm_sample_recovered_tokens_kernel.z3349e.py":7:0), %arg10: i32 loc("/tmp/kernels_vllm_sample_recovered_tokens_kernel.z3349e.py":7:0), %arg11: i32 loc("/tmp/kernels_vllm_sample_recovered_tokens_kernel.z3349e.py":7:0), %arg12: i32 loc("/tmp/kernels_vllm_sample_recovered_tokens_kernel.z3349e.py":7:0), %arg13: i32 loc("/tmp/kernels_vllm_sample_recovered_tokens_kernel.z3349e.py":7:0)) attributes {SyncBlockLockArgIdx = 0 : i64, WorkspaceArgIdx = 1 : i64, global_kernel = "local", mix_mode = "aiv", parallel_mode = "simd"} {
    %recovered_id = arith.constant 2147483647 : i32 loc(#loc96)
    %recovered_id_0 = arith.constant 0xFF800000 : f32 loc(#loc96)
    %prob = arith.constant 16 : index loc(#loc56)
    %end_idx = arith.constant 0 : index loc(#loc57)
    %start_idx = arith.constant -1 : index loc(#loc58)
    %global_max_p = arith.constant 1 : i32 loc(#loc93)
    %loop = arith.constant 15 : i32 loc(#loc60)
    %global_max_p_1 = arith.constant -1.000000e+00 : f32 loc(#loc93)
    %global_max_p_2 = arith.constant -1 : i32 loc(#loc93)
    %vocab_start = arith.constant 16 : i32 loc(#loc61)
    %global_max_p_3 = arith.constant 0 : i32 loc(#loc93)
    %prob_4 = arith.constant 0.000000e+00 : f32 loc(#loc56)
    %0 = tensor.empty() : tensor<1xf32> loc(#loc10)
    %1 = linalg.fill ins(%prob_4 : f32) outs(%0 : tensor<1xf32>) -> tensor<1xf32> loc(#loc11)
    %start_idx_5 = arith.cmpi eq, %arg11, %global_max_p_3 : i32 loc(#loc62)
    %start_idx_6 = scf.if %start_idx_5 -> (i32) {
      scf.yield %global_max_p_3 : i32 loc(#loc64)
    } else {
      %req_idx_9 = arith.index_cast %arg11 : i32 to index loc(#loc65)
      %start_idx_10 = arith.addi %req_idx_9, %start_idx : index loc(#loc58)
      %start_idx_11 = memref.reinterpret_cast %cu_num_draft_tokens_ptr to offset: [%start_idx_10], sizes: [1], strides: [1] : memref<?xi32> to memref<1xi32, strided<[1], offset: ?>> loc(#loc58)
      %start_idx_12 = memref.load %start_idx_11[%end_idx] : memref<1xi32, strided<[1], offset: ?>> loc(#loc66)
      scf.yield %start_idx_12 : i32 loc(#loc66)
    } loc(#loc63)
    %req_idx = arith.index_cast %arg11 : i32 to index loc(#loc65)
    %end_idx_7 = memref.reinterpret_cast %cu_num_draft_tokens_ptr to offset: [%req_idx], sizes: [1], strides: [1] : memref<?xi32> to memref<1xi32, strided<[1], offset: ?>> loc(#loc67)
    %end_idx_8 = memref.load %end_idx_7[%end_idx] : memref<1xi32, strided<[1], offset: ?>> loc(#loc57)
    %num_draft_tokens = arith.subi %end_idx_8, %start_idx_6 : i32 loc(#loc68)
    %2 = arith.cmpi sge, %arg12, %num_draft_tokens : i32 loc(#loc19)
    scf.if %2 {
    } else {
      %loop_9 = arith.addi %vocab_size, %loop : i32 loc(#loc60)
      %loop_10 = arith.divsi %loop_9, %vocab_start : i32 loc(#loc69)
      %start_idx_11 = arith.index_cast %start_idx_6 : i32 to index loc(#loc63)
      %pos = arith.index_cast %arg12 : i32 to index loc(#loc70)
      %draft_token_id = arith.addi %start_idx_11, %pos : index loc(#loc71)
      %draft_token_id_12 = memref.reinterpret_cast %draft_token_ids_ptr to offset: [%draft_token_id], sizes: [1], strides: [1] : memref<?xi32> to memref<1xi32, strided<[1], offset: ?>> loc(#loc71)
      %draft_token_id_13 = memref.load %draft_token_id_12[%end_idx] : memref<1xi32, strided<[1], offset: ?>> loc(#loc72)
      %orig_prob = arith.addi %start_idx_6, %arg12 : i32 loc(#loc73)
      %orig_prob_14 = arith.muli %orig_prob, %vocab_size : i32 loc(#loc74)
      %orig_prob_15 = arith.index_cast %orig_prob_14 : i32 to index loc(#loc74)
      %draft_token_id_16 = arith.index_cast %draft_token_id_13 : i32 to index loc(#loc72)
      %orig_prob_17 = arith.addi %orig_prob_15, %draft_token_id_16 : index loc(#loc75)
      %orig_prob_18 = memref.reinterpret_cast %target_probs_ptr to offset: [%orig_prob_17], sizes: [1], strides: [1] : memref<?xf32> to memref<1xf32, strided<[1], offset: ?>> loc(#loc75)
      %orig_prob_19 = memref.load %orig_prob_18[%end_idx] : memref<1xf32, strided<[1], offset: ?>> loc(#loc76)
      bufferization.materialize_in_destination %1 in writable %orig_prob_18 : (tensor<1xf32>, memref<1xf32, strided<[1], offset: ?>>) -> () loc(#loc11)
      %vocab_offset = tensor.empty() : tensor<16xi32> loc(#loc77)
      %vocab_offset_20 = linalg.generic {indexing_maps = [#map], iterator_types = ["parallel"]} outs(%vocab_offset : tensor<16xi32>) attrs =  {tt.from_make_range, tt.make_range_offset = 0 : index, tt.make_range_size = 16 : index} {
      ^bb0(%vocab_offset_24: i32 loc("vocab_offset"(#loc28))):
        %vocab_offset_25 = linalg.index 0 : index loc(#loc77)
        %vocab_offset_26 = arith.index_cast %vocab_offset_25 : index to i32 loc(#loc77)
        linalg.yield %vocab_offset_26 : i32 loc(#loc77)
      } -> tensor<16xi32> loc(#loc77)
      %q = arith.muli %arg11, %vocab_size : i32 loc(#loc78)
      %q_21 = arith.index_cast %q : i32 to index loc(#loc78)
      %global_max_p_22:2 = scf.for %global_max_p_24 = %global_max_p_3 to %loop_10 step %global_max_p iter_args(%arg15 = %global_max_p_2, %arg16 = %global_max_p_1) -> (i32, f32)  : i32 {
        %vocab_start_25 = arith.muli %global_max_p_24, %vocab_start : i32 loc(#loc61)
        %vocab_start_26 = arith.index_cast %vocab_start_25 : i32 to index loc(#loc61)
        %prob_27 = arith.addi %orig_prob_15, %vocab_start_26 : index loc(#loc79)
        %prob_28 = memref.reinterpret_cast %target_probs_ptr to offset: [%prob_27], sizes: [16], strides: [1] : memref<?xf32> to memref<16xf32, strided<[1], offset: ?>> loc(#loc79)
        %prob_29 = memref.alloc() : memref<16xf32> loc(#loc56)
        %prob_30 = arith.addi %vocab_start_26, %prob : index loc(#loc56)
        %vocab_size_31 = arith.index_cast %vocab_size : i32 to index loc(#loc54)
        %prob_32 = arith.maxsi %vocab_start_26, %vocab_size_31 : index loc(#loc56)
        %prob_33 = arith.minsi %prob_30, %prob_32 : index loc(#loc56)
        %prob_34 = arith.subi %prob_33, %vocab_start_26 : index loc(#loc56)
        %prob_35 = arith.cmpi slt, %prob_34, %prob : index loc(#loc56)
        scf.if %prob_35 {
          linalg.fill ins(%prob_4 : f32) outs(%prob_29 : memref<16xf32>) loc(#loc56)
        } {hivm.unlikely_condition} loc(#loc56)
        %prob_36 = memref.subview %prob_28[0] [%prob_34] [1] : memref<16xf32, strided<[1], offset: ?>> to memref<?xf32, strided<[1], offset: ?>> loc(#loc56)
        %prob_37 = memref.subview %prob_29[0] [%prob_34] [1] : memref<16xf32> to memref<?xf32, strided<[1]>> loc(#loc56)
        memref.copy %prob_36, %prob_37 : memref<?xf32, strided<[1], offset: ?>> to memref<?xf32, strided<[1]>> loc(#loc56)
        %prob_38 = bufferization.to_tensor %prob_29 restrict writable : memref<16xf32> loc(#loc56)
        %q_39 = arith.addi %q_21, %vocab_start_26 : index loc(#loc80)
        %q_40 = memref.reinterpret_cast %q_ptr to offset: [%q_39], sizes: [16], strides: [1] : memref<?xf32> to memref<16xf32, strided<[1], offset: ?>> loc(#loc80)
        %q_41 = memref.alloc() : memref<16xf32> loc(#loc81)
        scf.if %prob_35 {
          linalg.fill ins(%recovered_id_0 : f32) outs(%q_41 : memref<16xf32>) loc(#loc81)
        } {hivm.unlikely_condition} loc(#loc81)
        %q_42 = memref.subview %q_40[0] [%prob_34] [1] : memref<16xf32, strided<[1], offset: ?>> to memref<?xf32, strided<[1], offset: ?>> loc(#loc81)
        %q_43 = memref.subview %q_41[0] [%prob_34] [1] : memref<16xf32> to memref<?xf32, strided<[1]>> loc(#loc81)
        memref.copy %q_42, %q_43 : memref<?xf32, strided<[1], offset: ?>> to memref<?xf32, strided<[1]>> loc(#loc81)
        %q_44 = bufferization.to_tensor %q_41 restrict writable : memref<16xf32> loc(#loc81)
        %new_p = arith.divf %prob_38, %q_44 : tensor<16xf32> loc(#loc82)
        %recovered_id_45 = tensor.empty() : tensor<f32> loc(#loc96)
        %recovered_id_46 = linalg.fill ins(%recovered_id_0 : f32) outs(%recovered_id_45 : tensor<f32>) -> tensor<f32> loc(#loc96)
        %recovered_id_47 = tensor.empty() : tensor<i32> loc(#loc96)
        %recovered_id_48 = linalg.fill ins(%recovered_id : i32) outs(%recovered_id_47 : tensor<i32>) -> tensor<i32> loc(#loc96)
        %recovered_id_49:2 = linalg.reduce ins(%new_p, %vocab_offset_20 : tensor<16xf32>, tensor<16xi32>) outs(%recovered_id_46, %recovered_id_48 : tensor<f32>, tensor<i32>) dimensions = [0]  {reduce_mode = "max_with_index", tie_break_left = "true", unsigned_src = "false"}
          (%new_p_54: f32 loc("new_p"(#loc33)), %vocab_offset_55: i32 loc("vocab_offset"(#loc28)), %recovered_id_56: f32 loc(callsite(#loc1 at #loc92)), %recovered_id_57: i32 loc(callsite(#loc1 at #loc92))) {
            %gt = arith.cmpf ogt, %new_p_54, %recovered_id_56 : f32 loc(#loc98)
            %tie = arith.cmpf oeq, %new_p_54, %recovered_id_56 : f32 loc(#loc99)
            %tie_58 = arith.cmpi slt, %vocab_offset_55, %recovered_id_57 : i32 loc(#loc100)
            %tie_59 = arith.andi %tie, %tie_58 : i1 loc(#loc101)
            %gt_60 = arith.ori %gt, %tie_59 : i1 loc(#loc102)
            %v_ret = arith.select %gt_60, %new_p_54, %recovered_id_56 : f32 loc(#loc103)
            %i_ret = arith.select %gt_60, %vocab_offset_55, %recovered_id_57 : i32 loc(#loc104)
            linalg.yield %v_ret, %i_ret : f32, i32 loc(#loc96)
          } loc(#loc96)
        %recovered_id_50 = tensor.extract %recovered_id_49#1[] : tensor<i32> loc(#loc96)
        %max_p = arith.index_cast %recovered_id_50 : i32 to index loc(#loc90)
        %global_max_p_51 = tensor.extract %prob_38[%max_p] {DiscreteMemAccess} : tensor<16xf32> loc(#loc94)
        %global_max_p_52 = tensor.extract %q_44[%max_p] {DiscreteMemAccess} : tensor<16xf32> loc(#loc94)
        %global_max_p_53 = arith.divf %global_max_p_51, %global_max_p_52 : f32 loc(#loc94)
        %4 = arith.cmpf ogt, %global_max_p_53, %arg16 : f32 loc(#loc43)
        %5 = arith.select %4, %global_max_p_53, %arg16 : f32 loc(#loc44)
        %6 = scf.if %4 -> (i32) {
          %global_recovered_id = arith.addi %vocab_start_25, %recovered_id_50 : i32 loc(#loc95)
          scf.yield %global_recovered_id : i32 loc(#loc95)
        } else {
          scf.yield %arg15 : i32 loc(#loc46)
        } loc(#loc44)
        scf.yield %6, %5 : i32, f32 loc(#loc47)
      } loc(#loc93)
      %3 = tensor.empty() : tensor<1xi32> loc(#loc48)
      %inserted = tensor.insert %global_max_p_22#0 into %3[%end_idx] : tensor<1xi32> loc(#loc48)
      %reinterpret_cast = memref.reinterpret_cast %output_token_ids_ptr to offset: [%draft_token_id], sizes: [1], strides: [1] : memref<?xi32> to memref<1xi32, strided<[1], offset: ?>> loc(#loc48)
      bufferization.materialize_in_destination %inserted in writable %reinterpret_cast : (tensor<1xi32>, memref<1xi32, strided<[1], offset: ?>>) -> () loc(#loc48)
      %inserted_23 = tensor.insert %orig_prob_19 into %0[%end_idx] : tensor<1xf32> loc(#loc10)
      bufferization.materialize_in_destination %inserted_23 in writable %orig_prob_18 : (tensor<1xf32>, memref<1xf32, strided<[1], offset: ?>>) -> () loc(#loc10)
    } loc(#loc19)
    return loc(#loc)
  } loc(#loc)
} loc(#loc)
#loc4 = loc("/tmp/kernels_vllm_sample_recovered_tokens_kernel.z3349e.py":42:27)
#loc5 = loc("/tmp/kernels_vllm_sample_recovered_tokens_kernel.z3349e.py":21:22)
#loc6 = loc("/tmp/kernels_vllm_sample_recovered_tokens_kernel.z3349e.py":20:83)
#loc7 = loc("/tmp/kernels_vllm_sample_recovered_tokens_kernel.z3349e.py":39:28)
#loc8 = loc("/tmp/kernels_vllm_sample_recovered_tokens_kernel.z3349e.py":29:37)
#loc9 = loc("/tmp/kernels_vllm_sample_recovered_tokens_kernel.z3349e.py":40:35)
#loc10 = loc("/tmp/kernels_vllm_sample_recovered_tokens_kernel.z3349e.py":77:85)
#loc11 = loc("/tmp/kernels_vllm_sample_recovered_tokens_kernel.z3349e.py":38:85)
#loc12 = loc("/tmp/kernels_vllm_sample_recovered_tokens_kernel.z3349e.py":20:32)
#loc13 = loc("/tmp/kernels_vllm_sample_recovered_tokens_kernel.z3349e.py":20:21)
#loc14 = loc("/tmp/kernels_vllm_sample_recovered_tokens_kernel.z3349e.py":20:16)
#loc15 = loc("/tmp/kernels_vllm_sample_recovered_tokens_kernel.z3349e.py":19:28)
#loc16 = loc("/tmp/kernels_vllm_sample_recovered_tokens_kernel.z3349e.py":20:47)
#loc17 = loc("/tmp/kernels_vllm_sample_recovered_tokens_kernel.z3349e.py":21:48)
#loc18 = loc("/tmp/kernels_vllm_sample_recovered_tokens_kernel.z3349e.py":22:33)
#loc19 = loc("/tmp/kernels_vllm_sample_recovered_tokens_kernel.z3349e.py":26:14)
#loc20 = loc("/tmp/kernels_vllm_sample_recovered_tokens_kernel.z3349e.py":29:43)
#loc21 = loc("/tmp/kernels_vllm_sample_recovered_tokens_kernel.z3349e.py":25:24)
#loc22 = loc("/tmp/kernels_vllm_sample_recovered_tokens_kernel.z3349e.py":33:67)
#loc23 = loc("/tmp/kernels_vllm_sample_recovered_tokens_kernel.z3349e.py":33:33)
#loc24 = loc("/tmp/kernels_vllm_sample_recovered_tokens_kernel.z3349e.py":34:60)
#loc25 = loc("/tmp/kernels_vllm_sample_recovered_tokens_kernel.z3349e.py":34:67)
#loc26 = loc("/tmp/kernels_vllm_sample_recovered_tokens_kernel.z3349e.py":34:80)
#loc27 = loc("/tmp/kernels_vllm_sample_recovered_tokens_kernel.z3349e.py":34:28)
#loc29 = loc("/tmp/kernels_vllm_sample_recovered_tokens_kernel.z3349e.py":44:42)
#loc30 = loc("/tmp/kernels_vllm_sample_recovered_tokens_kernel.z3349e.py":42:79)
#loc31 = loc("/tmp/kernels_vllm_sample_recovered_tokens_kernel.z3349e.py":44:55)
#loc32 = loc("/tmp/kernels_vllm_sample_recovered_tokens_kernel.z3349e.py":44:24)
#loc34 = loc("/home/yuanye/AscendNPU-IR/.venv/lib/python3.9/site-packages/triton/language/standard.py":150:18)
#loc35 = loc("/home/yuanye/AscendNPU-IR/.venv/lib/python3.9/site-packages/triton/language/standard.py":158:59)
#loc36 = loc("/home/yuanye/AscendNPU-IR/.venv/lib/python3.9/site-packages/triton/language/standard.py":147:24)
#loc37 = loc("/home/yuanye/AscendNPU-IR/.venv/lib/python3.9/site-packages/triton/language/standard.py":147:44)
#loc38 = loc("/home/yuanye/AscendNPU-IR/.venv/lib/python3.9/site-packages/triton/language/standard.py":147:35)
#loc39 = loc("/home/yuanye/AscendNPU-IR/.venv/lib/python3.9/site-packages/triton/language/standard.py":150:28)
#loc40 = loc("/home/yuanye/AscendNPU-IR/.venv/lib/python3.9/site-packages/triton/language/standard.py":151:35)
#loc41 = loc("/home/yuanye/AscendNPU-IR/.venv/lib/python3.9/site-packages/triton/language/standard.py":152:35)
#loc42 = loc("/tmp/kernels_vllm_sample_recovered_tokens_kernel.z3349e.py":48:49)
#loc43 = loc("/tmp/kernels_vllm_sample_recovered_tokens_kernel.z3349e.py":49:23)
#loc44 = loc("/tmp/kernels_vllm_sample_recovered_tokens_kernel.z3349e.py":49:15)
#loc45 = loc("/tmp/kernels_vllm_sample_recovered_tokens_kernel.z3349e.py":51:52)
#loc46 = loc(unknown)
#loc47 = loc("/tmp/kernels_vllm_sample_recovered_tokens_kernel.z3349e.py":49:12)
#loc48 = loc("/tmp/kernels_vllm_sample_recovered_tokens_kernel.z3349e.py":73:53)
#loc56 = loc("prob"(#loc4))
#loc57 = loc("end_idx"(#loc5))
#loc58 = loc("start_idx"(#loc6))
#loc59 = loc("global_recovered_id"(#loc7))
#loc60 = loc("loop"(#loc8))
#loc61 = loc("vocab_start"(#loc9))
#loc62 = loc("start_idx"(#loc12))
#loc63 = loc("start_idx"(#loc13))
#loc64 = loc("start_idx"(#loc14))
#loc65 = loc("req_idx"(#loc15))
#loc66 = loc("start_idx"(#loc16))
#loc67 = loc("end_idx"(#loc17))
#loc68 = loc("num_draft_tokens"(#loc18))
#loc69 = loc("loop"(#loc20))
#loc70 = loc("pos"(#loc21))
#loc71 = loc("draft_token_id"(#loc22))
#loc72 = loc("draft_token_id"(#loc23))
#loc73 = loc("orig_prob"(#loc24))
#loc74 = loc("orig_prob"(#loc25))
#loc75 = loc("orig_prob"(#loc26))
#loc76 = loc("orig_prob"(#loc27))
#loc78 = loc("q"(#loc29))
#loc79 = loc("prob"(#loc30))
#loc80 = loc("q"(#loc31))
#loc81 = loc("q"(#loc32))
#loc83 = loc("gt"(#loc34))
#loc84 = loc("tie"(#loc36))
#loc85 = loc("tie"(#loc37))
#loc86 = loc("tie"(#loc38))
#loc87 = loc("gt"(#loc39))
#loc88 = loc("v_ret"(#loc40))
#loc89 = loc("i_ret"(#loc41))
#loc90 = loc("max_p"(#loc42))
#loc91 = loc("global_recovered_id"(#loc45))
#loc93 = loc("global_max_p"(#loc59))
#loc94 = loc("global_max_p"(#loc90))
#loc95 = loc("global_recovered_id"(#loc91))
#loc97 = loc(callsite(#loc35 at #loc96))
#loc98 = loc(callsite(#loc83 at #loc97))
#loc99 = loc(callsite(#loc84 at #loc97))
#loc100 = loc(callsite(#loc85 at #loc97))
#loc101 = loc(callsite(#loc86 at #loc97))
#loc102 = loc(callsite(#loc87 at #loc97))
#loc103 = loc(callsite(#loc88 at #loc97))
#loc104 = loc(callsite(#loc89 at #loc97))
