#loc = loc("/tmp/kernels_vllm_rejection_greedy_sample_spec_len_1_triton.YfzaLZ.py":17:0)
#loc20 = loc("output_token_ids_ptr"(#loc))
#loc21 = loc("draft_token_ids_ptr"(#loc))
#loc22 = loc("target_argmax_ptr"(#loc))
#loc23 = loc("bonus_token_ids_ptr"(#loc))
#loc24 = loc("vec_len"(#loc))
module attributes {hacc.target = #hacc.target<"Ascend910_9362">} {
  func.func @rejection_greedy_sample_spec_len_1_triton(%arg0: memref<?xi8> loc("/tmp/kernels_vllm_rejection_greedy_sample_spec_len_1_triton.YfzaLZ.py":17:0), %arg1: memref<?xi8> loc("/tmp/kernels_vllm_rejection_greedy_sample_spec_len_1_triton.YfzaLZ.py":17:0), %output_token_ids_ptr: memref<?xi32> {tt.divisibility = 16 : i32, tt.tensor_kind = 1 : i32} loc("output_token_ids_ptr"(#loc)), %draft_token_ids_ptr: memref<?xi32> {tt.divisibility = 16 : i32, tt.tensor_kind = 0 : i32} loc("draft_token_ids_ptr"(#loc)), %target_argmax_ptr: memref<?xi32> {tt.divisibility = 16 : i32, tt.tensor_kind = 0 : i32} loc("target_argmax_ptr"(#loc)), %bonus_token_ids_ptr: memref<?xi32> {tt.divisibility = 16 : i32, tt.tensor_kind = 0 : i32} loc("bonus_token_ids_ptr"(#loc)), %vec_len: i32 {tt.divisibility = 16 : i32} loc("vec_len"(#loc)), %arg7: i32 loc("/tmp/kernels_vllm_rejection_greedy_sample_spec_len_1_triton.YfzaLZ.py":17:0), %arg8: i32 loc("/tmp/kernels_vllm_rejection_greedy_sample_spec_len_1_triton.YfzaLZ.py":17:0), %arg9: i32 loc("/tmp/kernels_vllm_rejection_greedy_sample_spec_len_1_triton.YfzaLZ.py":17:0), %arg10: i32 loc("/tmp/kernels_vllm_rejection_greedy_sample_spec_len_1_triton.YfzaLZ.py":17:0), %arg11: i32 loc("/tmp/kernels_vllm_rejection_greedy_sample_spec_len_1_triton.YfzaLZ.py":17:0), %arg12: i32 loc("/tmp/kernels_vllm_rejection_greedy_sample_spec_len_1_triton.YfzaLZ.py":17:0)) attributes {SyncBlockLockArgIdx = 0 : i64, WorkspaceArgIdx = 1 : i64, global_kernel = "local", mix_mode = "aiv", parallel_mode = "simd"} {
    %c1 = arith.constant 1 : index loc(#loc25)
    %c0 = arith.constant 0 : index loc(#loc26)
    %c2 = arith.constant 2 : index loc(#loc4)
    %draft_token_id = arith.constant 16 : index loc(#loc27)
    %offset = arith.constant 16 : i32 loc(#loc28)
    %c0_i32 = arith.constant 0 : i32 loc(#loc7)
    %c1_i32 = arith.constant 1 : i32 loc(#loc7)
    %c2_i32 = arith.constant 2 : i32 loc(#loc29)
    %offset_0 = arith.muli %arg10, %offset : i32 loc(#loc28)
    %offset_1 = arith.index_cast %offset_0 : i32 to index loc(#loc28)
    %draft_token_id_2 = memref.reinterpret_cast %draft_token_ids_ptr to offset: [%offset_1], sizes: [16], strides: [1] : memref<?xi32> to memref<16xi32, strided<[1], offset: ?>> loc(#loc30)
    %draft_token_id_3 = memref.alloc() : memref<16xi32> loc(#loc27)
    %draft_token_id_4 = arith.addi %offset_1, %draft_token_id : index loc(#loc27)
    %vec_len_5 = arith.index_cast %vec_len : i32 to index loc(#loc24)
    %draft_token_id_6 = arith.maxsi %offset_1, %vec_len_5 : index loc(#loc27)
    %draft_token_id_7 = arith.minsi %draft_token_id_4, %draft_token_id_6 : index loc(#loc27)
    %draft_token_id_8 = arith.subi %draft_token_id_7, %offset_1 : index loc(#loc27)
    %draft_token_id_9 = arith.cmpi slt, %draft_token_id_8, %draft_token_id : index loc(#loc27)
    scf.if %draft_token_id_9 {
      linalg.fill ins(%c0_i32 : i32) outs(%draft_token_id_3 : memref<16xi32>) loc(#loc27)
    } {hivm.unlikely_condition} loc(#loc27)
    %draft_token_id_10 = memref.subview %draft_token_id_2[0] [%draft_token_id_8] [1] : memref<16xi32, strided<[1], offset: ?>> to memref<?xi32, strided<[1], offset: ?>> loc(#loc27)
    %draft_token_id_11 = memref.subview %draft_token_id_3[0] [%draft_token_id_8] [1] : memref<16xi32> to memref<?xi32, strided<[1]>> loc(#loc27)
    memref.copy %draft_token_id_10, %draft_token_id_11 : memref<?xi32, strided<[1], offset: ?>> to memref<?xi32, strided<[1]>> loc(#loc27)
    %draft_token_id_12 = bufferization.to_tensor %draft_token_id_3 restrict writable : memref<16xi32> loc(#loc27)
    %target_argmax_id = memref.reinterpret_cast %target_argmax_ptr to offset: [%offset_1], sizes: [16], strides: [1] : memref<?xi32> to memref<16xi32, strided<[1], offset: ?>> loc(#loc31)
    %target_argmax_id_13 = memref.alloc() : memref<16xi32> loc(#loc32)
    scf.if %draft_token_id_9 {
      linalg.fill ins(%c0_i32 : i32) outs(%target_argmax_id_13 : memref<16xi32>) loc(#loc32)
    } {hivm.unlikely_condition} loc(#loc32)
    %target_argmax_id_14 = memref.subview %target_argmax_id[0] [%draft_token_id_8] [1] : memref<16xi32, strided<[1], offset: ?>> to memref<?xi32, strided<[1], offset: ?>> loc(#loc32)
    %target_argmax_id_15 = memref.subview %target_argmax_id_13[0] [%draft_token_id_8] [1] : memref<16xi32> to memref<?xi32, strided<[1]>> loc(#loc32)
    memref.copy %target_argmax_id_14, %target_argmax_id_15 : memref<?xi32, strided<[1], offset: ?>> to memref<?xi32, strided<[1]>> loc(#loc32)
    %target_argmax_id_16 = bufferization.to_tensor %target_argmax_id_13 restrict writable : memref<16xi32> loc(#loc32)
    %0 = arith.muli %offset_1, %c2 : index loc(#loc4)
    %reinterpret_cast = memref.reinterpret_cast %output_token_ids_ptr to offset: [%0], sizes: [16], strides: [2] : memref<?xi32> to memref<16xi32, strided<[2], offset: ?>> loc(#loc4)
    %extracted_slice = tensor.extract_slice %target_argmax_id_16[0] [%draft_token_id_8] [1] : tensor<16xi32> to tensor<?xi32> loc(#loc12)
    %subview = memref.subview %reinterpret_cast[0] [%draft_token_id_8] [1] : memref<16xi32, strided<[2], offset: ?>> to memref<?xi32, strided<[2], offset: ?>> loc(#loc12)
    bufferization.materialize_in_destination %extracted_slice in writable %subview : (tensor<?xi32>, memref<?xi32, strided<[2], offset: ?>>) -> () loc(#loc12)
    scf.for %arg13 = %c0_i32 to %offset step %c1_i32  : i32 {
      %draft_token_id1 = arith.index_cast %arg13 : i32 to index loc(#loc33)
      %draft_token_id1_17 = tensor.extract %draft_token_id_12[%draft_token_id1] : tensor<16xi32> loc(#loc33)
      %target_argmax1 = tensor.extract %target_argmax_id_16[%draft_token_id1] : tensor<16xi32> loc(#loc34)
      %position = arith.addi %offset_0, %arg13 : i32 loc(#loc35)
      %1 = arith.cmpi eq, %draft_token_id1_17, %target_argmax1 : i32 loc(#loc16)
      scf.if %1 {
        %position_18 = arith.index_cast %position : i32 to index loc(#loc35)
        %bonus_token_id = memref.reinterpret_cast %bonus_token_ids_ptr to offset: [%position_18], sizes: [1], strides: [1] : memref<?xi32> to memref<1xi32, strided<[1], offset: ?>> loc(#loc38)
        %bonus_token_id_19 = memref.load %bonus_token_id[%c0] : memref<1xi32, strided<[1], offset: ?>> loc(#loc39)
        %2 = arith.muli %position, %c2_i32 : i32 loc(#loc29)
        %3 = arith.index_cast %2 : i32 to index loc(#loc29)
        %4 = arith.addi %3, %c1 : index loc(#loc25)
        %5 = tensor.empty() : tensor<1xi32> loc(#loc26)
        %inserted = tensor.insert %bonus_token_id_19 into %5[%c0] : tensor<1xi32> loc(#loc26)
        %reinterpret_cast_20 = memref.reinterpret_cast %output_token_ids_ptr to offset: [%4], sizes: [1], strides: [1] : memref<?xi32> to memref<1xi32, strided<[1], offset: ?>> loc(#loc26)
        bufferization.materialize_in_destination %inserted in writable %reinterpret_cast_20 : (tensor<1xi32>, memref<1xi32, strided<[1], offset: ?>>) -> () loc(#loc26)
      } loc(#loc17)
    } loc(#loc7)
    return loc(#loc)
  } loc(#loc)
} loc(#loc)
#loc1 = loc("/tmp/kernels_vllm_rejection_greedy_sample_spec_len_1_triton.YfzaLZ.py":13:51)
#loc2 = loc("/tmp/kernels_vllm_rejection_greedy_sample_spec_len_1_triton.YfzaLZ.py":41:16)
#loc3 = loc("/tmp/kernels_vllm_rejection_greedy_sample_spec_len_1_triton.YfzaLZ.py":13:54)
#loc4 = loc("/tmp/kernels_vllm_rejection_greedy_sample_spec_len_1_triton.YfzaLZ.py":31:36)
#loc5 = loc("/tmp/kernels_vllm_rejection_greedy_sample_spec_len_1_triton.YfzaLZ.py":29:59)
#loc6 = loc("/tmp/kernels_vllm_rejection_greedy_sample_spec_len_1_triton.YfzaLZ.py":26:25)
#loc7 = loc("/tmp/kernels_vllm_rejection_greedy_sample_spec_len_1_triton.YfzaLZ.py":33:27)
#loc8 = loc("/tmp/kernels_vllm_rejection_greedy_sample_spec_len_1_triton.YfzaLZ.py":13:47)
#loc9 = loc("/tmp/kernels_vllm_rejection_greedy_sample_spec_len_1_triton.YfzaLZ.py":29:51)
#loc10 = loc("/tmp/kernels_vllm_rejection_greedy_sample_spec_len_1_triton.YfzaLZ.py":30:51)
#loc11 = loc("/tmp/kernels_vllm_rejection_greedy_sample_spec_len_1_triton.YfzaLZ.py":30:59)
#loc12 = loc("/tmp/kernels_vllm_rejection_greedy_sample_spec_len_1_triton.YfzaLZ.py":31:66)
#loc13 = loc("/tmp/kernels_vllm_rejection_greedy_sample_spec_len_1_triton.YfzaLZ.py":34:64)
#loc14 = loc("/tmp/kernels_vllm_rejection_greedy_sample_spec_len_1_triton.YfzaLZ.py":35:65)
#loc15 = loc("/tmp/kernels_vllm_rejection_greedy_sample_spec_len_1_triton.YfzaLZ.py":36:44)
#loc16 = loc("/tmp/kernels_vllm_rejection_greedy_sample_spec_len_1_triton.YfzaLZ.py":37:30)
#loc17 = loc("/tmp/kernels_vllm_rejection_greedy_sample_spec_len_1_triton.YfzaLZ.py":37:11)
#loc18 = loc("/tmp/kernels_vllm_rejection_greedy_sample_spec_len_1_triton.YfzaLZ.py":12:51)
#loc19 = loc("/tmp/kernels_vllm_rejection_greedy_sample_spec_len_1_triton.YfzaLZ.py":12:29)
#loc25 = loc(callsite(#loc1 at #loc2))
#loc26 = loc(callsite(#loc3 at #loc2))
#loc27 = loc("draft_token_id"(#loc5))
#loc28 = loc("offset"(#loc6))
#loc29 = loc(callsite(#loc8 at #loc2))
#loc30 = loc("draft_token_id"(#loc9))
#loc31 = loc("target_argmax_id"(#loc10))
#loc32 = loc("target_argmax_id"(#loc11))
#loc33 = loc("draft_token_id1"(#loc13))
#loc34 = loc("target_argmax1"(#loc14))
#loc35 = loc("position"(#loc15))
#loc36 = loc("bonus_token_id"(#loc18))
#loc37 = loc("bonus_token_id"(#loc19))
#loc38 = loc(callsite(#loc36 at #loc2))
#loc39 = loc(callsite(#loc37 at #loc2))
