#loc = loc("/tmp/claude-1000/-mnt-d-work-git-AscendNPU-IR/5f0b90d3-2b64-481e-ac0d-76ef25d43c22/scratchpad/drv_softmax.py":8:0)
#loc1 = loc("/mnt/d/work/git/triton-ascend/python/triton/language/standard.py":282:36)
#loc2 = loc("/tmp/claude-1000/-mnt-d-work-git-AscendNPU-IR/5f0b90d3-2b64-481e-ac0d-76ef25d43c22/scratchpad/drv_softmax.py":21:29)
#loc3 = loc("/mnt/d/work/git/triton-ascend/python/triton/language/standard.py":193:44)
#loc4 = loc("/tmp/claude-1000/-mnt-d-work-git-AscendNPU-IR/5f0b90d3-2b64-481e-ac0d-76ef25d43c22/scratchpad/drv_softmax.py":19:37)
#loc5 = loc("/tmp/claude-1000/-mnt-d-work-git-AscendNPU-IR/5f0b90d3-2b64-481e-ac0d-76ef25d43c22/scratchpad/drv_softmax.py":18:22)
#loc10 = loc("/tmp/claude-1000/-mnt-d-work-git-AscendNPU-IR/5f0b90d3-2b64-481e-ac0d-76ef25d43c22/scratchpad/drv_softmax.py":20:27)
#loc15 = loc(callsite(#loc1 at #loc2))
#loc16 = loc(callsite(#loc3 at #loc4))
module attributes {hacc.target = #hacc.target<"Ascend910_9382">} {
  func.func @softmax_kernel(%arg0: memref<?xi8> loc("/tmp/claude-1000/-mnt-d-work-git-AscendNPU-IR/5f0b90d3-2b64-481e-ac0d-76ef25d43c22/scratchpad/drv_softmax.py":8:0), %arg1: memref<?xi8> loc("/tmp/claude-1000/-mnt-d-work-git-AscendNPU-IR/5f0b90d3-2b64-481e-ac0d-76ef25d43c22/scratchpad/drv_softmax.py":8:0), %arg2: memref<?xf32> {tt.divisibility = 16 : i32, tt.tensor_kind = 1 : i32} loc("/tmp/claude-1000/-mnt-d-work-git-AscendNPU-IR/5f0b90d3-2b64-481e-ac0d-76ef25d43c22/scratchpad/drv_softmax.py":8:0), %arg3: memref<?xf32> {tt.divisibility = 16 : i32, tt.tensor_kind = 0 : i32} loc("/tmp/claude-1000/-mnt-d-work-git-AscendNPU-IR/5f0b90d3-2b64-481e-ac0d-76ef25d43c22/scratchpad/drv_softmax.py":8:0), %arg4: i32 {tt.divisibility = 16 : i32} loc("/tmp/claude-1000/-mnt-d-work-git-AscendNPU-IR/5f0b90d3-2b64-481e-ac0d-76ef25d43c22/scratchpad/drv_softmax.py":8:0), %arg5: i32 {tt.divisibility = 16 : i32} loc("/tmp/claude-1000/-mnt-d-work-git-AscendNPU-IR/5f0b90d3-2b64-481e-ac0d-76ef25d43c22/scratchpad/drv_softmax.py":8:0), %arg6: i32 {tt.divisibility = 16 : i32} loc("/tmp/claude-1000/-mnt-d-work-git-AscendNPU-IR/5f0b90d3-2b64-481e-ac0d-76ef25d43c22/scratchpad/drv_softmax.py":8:0), %arg7: i32 {tt.divisibility = 16 : i32} loc("/tmp/claude-1000/-mnt-d-work-git-AscendNPU-IR/5f0b90d3-2b64-481e-ac0d-76ef25d43c22/scratchpad/drv_softmax.py":8:0), %arg8: i32 loc("/tmp/claude-1000/-mnt-d-work-git-AscendNPU-IR/5f0b90d3-2b64-481e-ac0d-76ef25d43c22/scratchpad/drv_softmax.py":8:0), %arg9: i32 loc("/tmp/claude-1000/-mnt-d-work-git-AscendNPU-IR/5f0b90d3-2b64-481e-ac0d-76ef25d43c22/scratchpad/drv_softmax.py":8:0), %arg10: i32 loc("/tmp/claude-1000/-mnt-d-work-git-AscendNPU-IR/5f0b90d3-2b64-481e-ac0d-76ef25d43c22/scratchpad/drv_softmax.py":8:0), %arg11: i32 loc("/tmp/claude-1000/-mnt-d-work-git-AscendNPU-IR/5f0b90d3-2b64-481e-ac0d-76ef25d43c22/scratchpad/drv_softmax.py":8:0), %arg12: i32 loc("/tmp/claude-1000/-mnt-d-work-git-AscendNPU-IR/5f0b90d3-2b64-481e-ac0d-76ef25d43c22/scratchpad/drv_softmax.py":8:0), %arg13: i32 loc("/tmp/claude-1000/-mnt-d-work-git-AscendNPU-IR/5f0b90d3-2b64-481e-ac0d-76ef25d43c22/scratchpad/drv_softmax.py":8:0)) attributes {SyncBlockLockArgIdx = 0 : i64, WorkspaceArgIdx = 1 : i64, global_kernel = "local", mix_mode = "aiv", parallel_mode = "simd"} {
    %cst = arith.constant 0.000000e+00 : f32 loc(#loc15)
    %cst_0 = arith.constant 0xFF800000 : f32 loc(#loc16)
    %c8192 = arith.constant 8192 : index loc(#loc5)
    %c0 = arith.constant 0 : index loc(#loc5)
    scf.for %arg14 = %arg11 to %arg6 step %arg8  : i32 {
      %0 = arith.muli %arg14, %arg4 : i32 loc(#loc7)
      %1 = arith.index_cast %0 : i32 to index loc(#loc7)
      %reinterpret_cast = memref.reinterpret_cast %arg3 to offset: [%1], sizes: [8192], strides: [1] : memref<?xf32> to memref<8192xf32, strided<[1], offset: ?>> loc(#loc8)
      %alloc = memref.alloc() : memref<8192xf32> loc(#loc5)
      %2 = arith.index_cast %arg7 : i32 to index loc(#loc)
      %3 = arith.maxsi %2, %c0 : index loc(#loc5)
      %4 = arith.minsi %3, %c8192 : index loc(#loc5)
      %5 = arith.cmpi slt, %4, %c8192 : index loc(#loc5)
      scf.if %5 {
        linalg.fill ins(%cst_0 : f32) outs(%alloc : memref<8192xf32>) loc(#loc5)
      } {hivm.unlikely_condition} loc(#loc5)
      %subview = memref.subview %reinterpret_cast[0] [%4] [1] : memref<8192xf32, strided<[1], offset: ?>> to memref<?xf32, strided<[1], offset: ?>> loc(#loc5)
      %subview_1 = memref.subview %alloc[0] [%4] [1] : memref<8192xf32> to memref<?xf32, strided<[1]>> loc(#loc5)
      memref.copy %subview, %subview_1 : memref<?xf32, strided<[1], offset: ?>> to memref<?xf32, strided<[1]>> loc(#loc5)
      %6 = bufferization.to_tensor %alloc restrict writable : memref<8192xf32> loc(#loc5)
      %7 = bufferization.alloc_tensor() : tensor<f32> loc(#loc16)
      %8 = linalg.fill ins(%cst_0 : f32) outs(%7 : tensor<f32>) -> tensor<f32> loc(#loc16)
      %reduced = linalg.reduce ins(%6 : tensor<8192xf32>) outs(%8 : tensor<f32>) dimensions = [0] 
        (%in: f32 loc("/tmp/claude-1000/-mnt-d-work-git-AscendNPU-IR/5f0b90d3-2b64-481e-ac0d-76ef25d43c22/scratchpad/drv_softmax.py":18:22), %init: f32 loc(callsite(#loc3 at #loc4))) {
          %19 = arith.maxnumf %in, %init : f32 loc(#loc16)
          linalg.yield %19 : f32 loc(#loc16)
        } loc(#loc16)
      %extracted = tensor.extract %reduced[] : tensor<f32> loc(#loc16)
      %9 = tensor.empty() : tensor<8192xf32> loc(#loc9)
      %10 = linalg.fill ins(%extracted : f32) outs(%9 : tensor<8192xf32>) -> tensor<8192xf32> loc(#loc9)
      %11 = arith.subf %6, %10 : tensor<8192xf32> loc(#loc9)
      %12 = math.exp %11 : tensor<8192xf32> loc(#loc10)
      %13 = bufferization.alloc_tensor() : tensor<f32> loc(#loc15)
      %14 = linalg.fill ins(%cst : f32) outs(%13 : tensor<f32>) -> tensor<f32> loc(#loc15)
      %reduced_2 = linalg.reduce ins(%12 : tensor<8192xf32>) outs(%14 : tensor<f32>) dimensions = [0] 
        (%in: f32 loc("/tmp/claude-1000/-mnt-d-work-git-AscendNPU-IR/5f0b90d3-2b64-481e-ac0d-76ef25d43c22/scratchpad/drv_softmax.py":20:27), %init: f32 loc(callsite(#loc1 at #loc2))) {
          %19 = arith.addf %in, %init : f32 loc(#loc15)
          linalg.yield %19 : f32 loc(#loc15)
        } loc(#loc15)
      %extracted_3 = tensor.extract %reduced_2[] : tensor<f32> loc(#loc15)
      %15 = linalg.fill ins(%extracted_3 : f32) outs(%9 : tensor<8192xf32>) -> tensor<8192xf32> loc(#loc11)
      %16 = arith.divf %12, %15 : tensor<8192xf32> loc(#loc11)
      %17 = arith.muli %arg14, %arg5 : i32 loc(#loc12)
      %18 = arith.index_cast %17 : i32 to index loc(#loc12)
      %reinterpret_cast_4 = memref.reinterpret_cast %arg2 to offset: [%18], sizes: [8192], strides: [1] : memref<?xf32> to memref<8192xf32, strided<[1], offset: ?>> loc(#loc13)
      %extracted_slice = tensor.extract_slice %16[0] [%4] [1] : tensor<8192xf32> to tensor<?xf32> loc(#loc14)
      %subview_5 = memref.subview %reinterpret_cast_4[0] [%4] [1] : memref<8192xf32, strided<[1], offset: ?>> to memref<?xf32, strided<[1], offset: ?>> loc(#loc14)
      bufferization.materialize_in_destination %extracted_slice in writable %subview_5 : (tensor<?xf32>, memref<?xf32, strided<[1], offset: ?>>) -> () loc(#loc14)
    } {tt.num_stages = 2 : i32} loc(#loc6)
    return loc(#loc)
  } loc(#loc)
} loc(#loc)
#loc6 = loc("/tmp/claude-1000/-mnt-d-work-git-AscendNPU-IR/5f0b90d3-2b64-481e-ac0d-76ef25d43c22/scratchpad/drv_softmax.py":13:57)
#loc7 = loc("/tmp/claude-1000/-mnt-d-work-git-AscendNPU-IR/5f0b90d3-2b64-481e-ac0d-76ef25d43c22/scratchpad/drv_softmax.py":14:46)
#loc8 = loc("/tmp/claude-1000/-mnt-d-work-git-AscendNPU-IR/5f0b90d3-2b64-481e-ac0d-76ef25d43c22/scratchpad/drv_softmax.py":16:37)
#loc9 = loc("/tmp/claude-1000/-mnt-d-work-git-AscendNPU-IR/5f0b90d3-2b64-481e-ac0d-76ef25d43c22/scratchpad/drv_softmax.py":19:30)
#loc11 = loc("/tmp/claude-1000/-mnt-d-work-git-AscendNPU-IR/5f0b90d3-2b64-481e-ac0d-76ef25d43c22/scratchpad/drv_softmax.py":22:37)
#loc12 = loc("/tmp/claude-1000/-mnt-d-work-git-AscendNPU-IR/5f0b90d3-2b64-481e-ac0d-76ef25d43c22/scratchpad/drv_softmax.py":23:54)
#loc13 = loc("/tmp/claude-1000/-mnt-d-work-git-AscendNPU-IR/5f0b90d3-2b64-481e-ac0d-76ef25d43c22/scratchpad/drv_softmax.py":24:45)
#loc14 = loc("/tmp/claude-1000/-mnt-d-work-git-AscendNPU-IR/5f0b90d3-2b64-481e-ac0d-76ef25d43c22/scratchpad/drv_softmax.py":25:30)
