#loc = loc("/tmp/claude-1000/-mnt-d-work-git-AscendNPU-IR/5f0b90d3-2b64-481e-ac0d-76ef25d43c22/scratchpad/drv_vector_add.py":12:0)
module attributes {hacc.target = #hacc.target<"Ascend910_9382">} {
  func.func @add_kernel(%arg0: memref<?xi8> loc("/tmp/claude-1000/-mnt-d-work-git-AscendNPU-IR/5f0b90d3-2b64-481e-ac0d-76ef25d43c22/scratchpad/drv_vector_add.py":12:0), %arg1: memref<?xi8> loc("/tmp/claude-1000/-mnt-d-work-git-AscendNPU-IR/5f0b90d3-2b64-481e-ac0d-76ef25d43c22/scratchpad/drv_vector_add.py":12:0), %arg2: memref<?xf32> {tt.divisibility = 16 : i32, tt.tensor_kind = 0 : i32} loc("/tmp/claude-1000/-mnt-d-work-git-AscendNPU-IR/5f0b90d3-2b64-481e-ac0d-76ef25d43c22/scratchpad/drv_vector_add.py":12:0), %arg3: memref<?xf32> {tt.divisibility = 16 : i32, tt.tensor_kind = 0 : i32} loc("/tmp/claude-1000/-mnt-d-work-git-AscendNPU-IR/5f0b90d3-2b64-481e-ac0d-76ef25d43c22/scratchpad/drv_vector_add.py":12:0), %arg4: memref<?xf32> {tt.divisibility = 16 : i32, tt.tensor_kind = 1 : i32} loc("/tmp/claude-1000/-mnt-d-work-git-AscendNPU-IR/5f0b90d3-2b64-481e-ac0d-76ef25d43c22/scratchpad/drv_vector_add.py":12:0), %arg5: i32 {tt.divisibility = 16 : i32} loc("/tmp/claude-1000/-mnt-d-work-git-AscendNPU-IR/5f0b90d3-2b64-481e-ac0d-76ef25d43c22/scratchpad/drv_vector_add.py":12:0), %arg6: i32 loc("/tmp/claude-1000/-mnt-d-work-git-AscendNPU-IR/5f0b90d3-2b64-481e-ac0d-76ef25d43c22/scratchpad/drv_vector_add.py":12:0), %arg7: i32 loc("/tmp/claude-1000/-mnt-d-work-git-AscendNPU-IR/5f0b90d3-2b64-481e-ac0d-76ef25d43c22/scratchpad/drv_vector_add.py":12:0), %arg8: i32 loc("/tmp/claude-1000/-mnt-d-work-git-AscendNPU-IR/5f0b90d3-2b64-481e-ac0d-76ef25d43c22/scratchpad/drv_vector_add.py":12:0), %arg9: i32 loc("/tmp/claude-1000/-mnt-d-work-git-AscendNPU-IR/5f0b90d3-2b64-481e-ac0d-76ef25d43c22/scratchpad/drv_vector_add.py":12:0), %arg10: i32 loc("/tmp/claude-1000/-mnt-d-work-git-AscendNPU-IR/5f0b90d3-2b64-481e-ac0d-76ef25d43c22/scratchpad/drv_vector_add.py":12:0), %arg11: i32 loc("/tmp/claude-1000/-mnt-d-work-git-AscendNPU-IR/5f0b90d3-2b64-481e-ac0d-76ef25d43c22/scratchpad/drv_vector_add.py":12:0)) attributes {SyncBlockLockArgIdx = 0 : i64, WorkspaceArgIdx = 1 : i64, global_kernel = "local", mix_mode = "aiv", parallel_mode = "simd"} {
    %cst = arith.constant 0.000000e+00 : f32 loc(#loc1)
    %c8192 = arith.constant 8192 : index loc(#loc2)
    %c8192_i32 = arith.constant 8192 : i32 loc(#loc3)
    %0 = arith.muli %arg9, %c8192_i32 : i32 loc(#loc3)
    %1 = arith.index_cast %0 : i32 to index loc(#loc3)
    %reinterpret_cast = memref.reinterpret_cast %arg2 to offset: [%1], sizes: [8192], strides: [1] : memref<?xf32> to memref<8192xf32, strided<[1], offset: ?>> loc(#loc4)
    %alloc = memref.alloc() : memref<8192xf32> loc(#loc2)
    %2 = arith.addi %1, %c8192 : index loc(#loc2)
    %3 = arith.index_cast %arg5 : i32 to index loc(#loc)
    %4 = arith.maxsi %1, %3 : index loc(#loc2)
    %5 = arith.minsi %2, %4 : index loc(#loc2)
    %6 = arith.subi %5, %1 : index loc(#loc2)
    %7 = arith.cmpi slt, %6, %c8192 : index loc(#loc2)
    scf.if %7 {
      linalg.fill ins(%cst : f32) outs(%alloc : memref<8192xf32>) loc(#loc2)
    } {hivm.unlikely_condition} loc(#loc2)
    %subview = memref.subview %reinterpret_cast[0] [%6] [1] : memref<8192xf32, strided<[1], offset: ?>> to memref<?xf32, strided<[1], offset: ?>> loc(#loc2)
    %subview_0 = memref.subview %alloc[0] [%6] [1] : memref<8192xf32> to memref<?xf32, strided<[1]>> loc(#loc2)
    memref.copy %subview, %subview_0 : memref<?xf32, strided<[1], offset: ?>> to memref<?xf32, strided<[1]>> loc(#loc2)
    %8 = bufferization.to_tensor %alloc restrict writable : memref<8192xf32> loc(#loc2)
    %reinterpret_cast_1 = memref.reinterpret_cast %arg3 to offset: [%1], sizes: [8192], strides: [1] : memref<?xf32> to memref<8192xf32, strided<[1], offset: ?>> loc(#loc5)
    %alloc_2 = memref.alloc() : memref<8192xf32> loc(#loc1)
    scf.if %7 {
      linalg.fill ins(%cst : f32) outs(%alloc_2 : memref<8192xf32>) loc(#loc1)
    } {hivm.unlikely_condition} loc(#loc1)
    %subview_3 = memref.subview %reinterpret_cast_1[0] [%6] [1] : memref<8192xf32, strided<[1], offset: ?>> to memref<?xf32, strided<[1], offset: ?>> loc(#loc1)
    %subview_4 = memref.subview %alloc_2[0] [%6] [1] : memref<8192xf32> to memref<?xf32, strided<[1]>> loc(#loc1)
    memref.copy %subview_3, %subview_4 : memref<?xf32, strided<[1], offset: ?>> to memref<?xf32, strided<[1]>> loc(#loc1)
    %9 = bufferization.to_tensor %alloc_2 restrict writable : memref<8192xf32> loc(#loc1)
    %10 = arith.addf %8, %9 : tensor<8192xf32> loc(#loc6)
    %reinterpret_cast_5 = memref.reinterpret_cast %arg4 to offset: [%1], sizes: [8192], strides: [1] : memref<?xf32> to memref<8192xf32, strided<[1], offset: ?>> loc(#loc7)
    %extracted_slice = tensor.extract_slice %10[0] [%6] [1] : tensor<8192xf32> to tensor<?xf32> loc(#loc8)
    %subview_6 = memref.subview %reinterpret_cast_5[0] [%6] [1] : memref<8192xf32, strided<[1], offset: ?>> to memref<?xf32, strided<[1], offset: ?>> loc(#loc8)
    bufferization.materialize_in_destination %extracted_slice in writable %subview_6 : (tensor<?xf32>, memref<?xf32, strided<[1], offset: ?>>) -> () loc(#loc8)
    return loc(#loc)
  } loc(#loc)
} loc(#loc)
#loc1 = loc("/tmp/claude-1000/-mnt-d-work-git-AscendNPU-IR/5f0b90d3-2b64-481e-ac0d-76ef25d43c22/scratchpad/drv_vector_add.py":19:16)
#loc2 = loc("/tmp/claude-1000/-mnt-d-work-git-AscendNPU-IR/5f0b90d3-2b64-481e-ac0d-76ef25d43c22/scratchpad/drv_vector_add.py":18:16)
#loc3 = loc("/tmp/claude-1000/-mnt-d-work-git-AscendNPU-IR/5f0b90d3-2b64-481e-ac0d-76ef25d43c22/scratchpad/drv_vector_add.py":15:24)
#loc4 = loc("/tmp/claude-1000/-mnt-d-work-git-AscendNPU-IR/5f0b90d3-2b64-481e-ac0d-76ef25d43c22/scratchpad/drv_vector_add.py":18:24)
#loc5 = loc("/tmp/claude-1000/-mnt-d-work-git-AscendNPU-IR/5f0b90d3-2b64-481e-ac0d-76ef25d43c22/scratchpad/drv_vector_add.py":19:24)
#loc6 = loc("/tmp/claude-1000/-mnt-d-work-git-AscendNPU-IR/5f0b90d3-2b64-481e-ac0d-76ef25d43c22/scratchpad/drv_vector_add.py":20:17)
#loc7 = loc("/tmp/claude-1000/-mnt-d-work-git-AscendNPU-IR/5f0b90d3-2b64-481e-ac0d-76ef25d43c22/scratchpad/drv_vector_add.py":21:26)
#loc8 = loc("/tmp/claude-1000/-mnt-d-work-git-AscendNPU-IR/5f0b90d3-2b64-481e-ac0d-76ef25d43c22/scratchpad/drv_vector_add.py":21:35)
