#loc = loc("/tmp/kernels_vllm_fused_qkvzba_split_reshape_cat_kernel.TihAYd.py":6:0)
#loc43 = loc("mixed_qkv"(#loc))
#loc44 = loc("z"(#loc))
#loc45 = loc("b"(#loc))
#loc46 = loc("a"(#loc))
#loc47 = loc("mixed_qkvz"(#loc))
#loc48 = loc("mixed_ba"(#loc))
module attributes {hacc.target = #hacc.target<"Ascend910_9362">} {
  func.func @fused_qkvzba_split_reshape_cat_kernel(%arg0: memref<?xi8> loc("/tmp/kernels_vllm_fused_qkvzba_split_reshape_cat_kernel.TihAYd.py":6:0), %arg1: memref<?xi8> loc("/tmp/kernels_vllm_fused_qkvzba_split_reshape_cat_kernel.TihAYd.py":6:0), %mixed_qkv: memref<?xbf16> {tt.divisibility = 16 : i32, tt.tensor_kind = 1 : i32} loc("mixed_qkv"(#loc)), %z: memref<?xbf16> {tt.divisibility = 16 : i32, tt.tensor_kind = 1 : i32} loc("z"(#loc)), %b: memref<?xbf16> {tt.divisibility = 16 : i32, tt.tensor_kind = 1 : i32} loc("b"(#loc)), %a: memref<?xbf16> {tt.divisibility = 16 : i32, tt.tensor_kind = 1 : i32} loc("a"(#loc)), %mixed_qkvz: memref<?xbf16> {tt.divisibility = 16 : i32, tt.tensor_kind = 0 : i32} loc("mixed_qkvz"(#loc)), %mixed_ba: memref<?xbf16> {tt.divisibility = 16 : i32, tt.tensor_kind = 0 : i32} loc("mixed_ba"(#loc)), %arg8: i32 loc("/tmp/kernels_vllm_fused_qkvzba_split_reshape_cat_kernel.TihAYd.py":6:0), %arg9: i32 loc("/tmp/kernels_vllm_fused_qkvzba_split_reshape_cat_kernel.TihAYd.py":6:0), %arg10: i32 loc("/tmp/kernels_vllm_fused_qkvzba_split_reshape_cat_kernel.TihAYd.py":6:0), %arg11: i32 loc("/tmp/kernels_vllm_fused_qkvzba_split_reshape_cat_kernel.TihAYd.py":6:0), %arg12: i32 loc("/tmp/kernels_vllm_fused_qkvzba_split_reshape_cat_kernel.TihAYd.py":6:0), %arg13: i32 loc("/tmp/kernels_vllm_fused_qkvzba_split_reshape_cat_kernel.TihAYd.py":6:0)) attributes {SyncBlockLockArgIdx = 0 : i64, WorkspaceArgIdx = 1 : i64, global_kernel = "local", mix_mode = "aiv", parallel_mode = "simd"} {
    %blk_a_ptr = arith.constant 1 : index loc(#loc49)
    %c0 = arith.constant 0 : index loc(#loc2)
    %blk_v_st_ptr = arith.constant 512 : index loc(#loc50)
    %blk_k_st_ptr = arith.constant 256 : index loc(#loc51)
    %blk_z_ptr = arith.constant 192 : index loc(#loc52)
    %blk_v_ptr = arith.constant 128 : index loc(#loc53)
    %blk_k_ptr = arith.constant 64 : index loc(#loc54)
    %blk_b_st_ptr = arith.constant 4 : i32 loc(#loc55)
    %blk_z_st_ptr = arith.constant 256 : i32 loc(#loc56)
    %blk_q_st_ptr = arith.constant 64 : i32 loc(#loc57)
    %blk_b_ptr = arith.constant 2 : i32 loc(#loc58)
    %blk_q_ptr = arith.constant 1024 : i32 loc(#loc59)
    %blk_q_st_ptr_0 = arith.constant 768 : i32 loc(#loc60)
    %blk_b_ptr_1 = arith.constant 8 : i32 loc(#loc61)
    %blk_q_ptr_2 = arith.muli %arg11, %blk_q_ptr : i32 loc(#loc59)
    %blk_q_ptr_3 = arith.index_cast %blk_q_ptr_2 : i32 to index loc(#loc59)
    %blk_q_ptr_4 = arith.muli %arg12, %blk_z_st_ptr : i32 loc(#loc62)
    %blk_q_ptr_5 = arith.index_cast %blk_q_ptr_4 : i32 to index loc(#loc62)
    %blk_q_ptr_6 = arith.addi %blk_q_ptr_3, %blk_q_ptr_5 : index loc(#loc63)
    %blk_q_ptr_7 = memref.reinterpret_cast %mixed_qkvz to offset: [%blk_q_ptr_6], sizes: [64], strides: [1] : memref<?xbf16> to memref<64xbf16, strided<[1], offset: ?>> loc(#loc64)
    %blk_k_ptr_8 = arith.addi %blk_q_ptr_6, %blk_k_ptr : index loc(#loc54)
    %blk_k_ptr_9 = memref.reinterpret_cast %mixed_qkvz to offset: [%blk_k_ptr_8], sizes: [64], strides: [1] : memref<?xbf16> to memref<64xbf16, strided<[1], offset: ?>> loc(#loc54)
    %blk_v_ptr_10 = arith.addi %blk_q_ptr_6, %blk_v_ptr : index loc(#loc53)
    %blk_v_ptr_11 = memref.reinterpret_cast %mixed_qkvz to offset: [%blk_v_ptr_10], sizes: [64], strides: [1] : memref<?xbf16> to memref<64xbf16, strided<[1], offset: ?>> loc(#loc53)
    %blk_z_ptr_12 = arith.addi %blk_q_ptr_6, %blk_z_ptr : index loc(#loc52)
    %blk_z_ptr_13 = memref.reinterpret_cast %mixed_qkvz to offset: [%blk_z_ptr_12], sizes: [64], strides: [1] : memref<?xbf16> to memref<64xbf16, strided<[1], offset: ?>> loc(#loc52)
    %blk_q_st_ptr_14 = arith.muli %arg11, %blk_q_st_ptr_0 : i32 loc(#loc60)
    %blk_q_st_ptr_15 = arith.index_cast %blk_q_st_ptr_14 : i32 to index loc(#loc60)
    %blk_q_st_ptr_16 = arith.muli %arg12, %blk_q_st_ptr : i32 loc(#loc57)
    %blk_q_st_ptr_17 = arith.index_cast %blk_q_st_ptr_16 : i32 to index loc(#loc57)
    %blk_q_st_ptr_18 = arith.addi %blk_q_st_ptr_15, %blk_q_st_ptr_17 : index loc(#loc65)
    %blk_q_st_ptr_19 = memref.reinterpret_cast %mixed_qkv to offset: [%blk_q_st_ptr_18], sizes: [64], strides: [1] : memref<?xbf16> to memref<64xbf16, strided<[1], offset: ?>> loc(#loc66)
    %blk_k_st_ptr_20 = arith.addi %blk_q_st_ptr_15, %blk_k_st_ptr : index loc(#loc51)
    %blk_k_st_ptr_21 = arith.addi %blk_k_st_ptr_20, %blk_q_st_ptr_17 : index loc(#loc67)
    %blk_k_st_ptr_22 = memref.reinterpret_cast %mixed_qkv to offset: [%blk_k_st_ptr_21], sizes: [64], strides: [1] : memref<?xbf16> to memref<64xbf16, strided<[1], offset: ?>> loc(#loc68)
    %blk_v_st_ptr_23 = arith.addi %blk_q_st_ptr_15, %blk_v_st_ptr : index loc(#loc50)
    %blk_v_st_ptr_24 = arith.divsi %blk_q_ptr_4, %blk_b_st_ptr : i32 loc(#loc69)
    %blk_v_st_ptr_25 = arith.index_cast %blk_v_st_ptr_24 : i32 to index loc(#loc69)
    %blk_v_st_ptr_26 = arith.addi %blk_v_st_ptr_23, %blk_v_st_ptr_25 : index loc(#loc70)
    %blk_v_st_ptr_27 = memref.reinterpret_cast %mixed_qkv to offset: [%blk_v_st_ptr_26], sizes: [64], strides: [1] : memref<?xbf16> to memref<64xbf16, strided<[1], offset: ?>> loc(#loc71)
    %blk_z_st_ptr_28 = arith.muli %arg11, %blk_z_st_ptr : i32 loc(#loc56)
    %blk_z_st_ptr_29 = arith.index_cast %blk_z_st_ptr_28 : i32 to index loc(#loc56)
    %blk_z_st_ptr_30 = arith.addi %blk_z_st_ptr_29, %blk_v_st_ptr_25 : index loc(#loc72)
    %blk_z_st_ptr_31 = memref.reinterpret_cast %z to offset: [%blk_z_st_ptr_30], sizes: [64], strides: [1] : memref<?xbf16> to memref<64xbf16, strided<[1], offset: ?>> loc(#loc73)
    %alloc = memref.alloc() : memref<64xbf16> loc(#loc27)
    memref.copy %blk_q_ptr_7, %alloc : memref<64xbf16, strided<[1], offset: ?>> to memref<64xbf16> loc(#loc27)
    %0 = bufferization.to_tensor %alloc restrict writable : memref<64xbf16> loc(#loc27)
    bufferization.materialize_in_destination %0 in writable %blk_q_st_ptr_19 : (tensor<64xbf16>, memref<64xbf16, strided<[1], offset: ?>>) -> () loc(#loc28)
    %alloc_32 = memref.alloc() : memref<64xbf16> loc(#loc29)
    memref.copy %blk_k_ptr_9, %alloc_32 : memref<64xbf16, strided<[1], offset: ?>> to memref<64xbf16> loc(#loc29)
    %1 = bufferization.to_tensor %alloc_32 restrict writable : memref<64xbf16> loc(#loc29)
    bufferization.materialize_in_destination %1 in writable %blk_k_st_ptr_22 : (tensor<64xbf16>, memref<64xbf16, strided<[1], offset: ?>>) -> () loc(#loc30)
    %alloc_33 = memref.alloc() : memref<64xbf16> loc(#loc31)
    memref.copy %blk_v_ptr_11, %alloc_33 : memref<64xbf16, strided<[1], offset: ?>> to memref<64xbf16> loc(#loc31)
    %2 = bufferization.to_tensor %alloc_33 restrict writable : memref<64xbf16> loc(#loc31)
    bufferization.materialize_in_destination %2 in writable %blk_v_st_ptr_27 : (tensor<64xbf16>, memref<64xbf16, strided<[1], offset: ?>>) -> () loc(#loc32)
    %alloc_34 = memref.alloc() : memref<64xbf16> loc(#loc33)
    memref.copy %blk_z_ptr_13, %alloc_34 : memref<64xbf16, strided<[1], offset: ?>> to memref<64xbf16> loc(#loc33)
    %3 = bufferization.to_tensor %alloc_34 restrict writable : memref<64xbf16> loc(#loc33)
    bufferization.materialize_in_destination %3 in writable %blk_z_st_ptr_31 : (tensor<64xbf16>, memref<64xbf16, strided<[1], offset: ?>>) -> () loc(#loc34)
    %blk_b_ptr_35 = arith.muli %arg11, %blk_b_ptr_1 : i32 loc(#loc61)
    %blk_b_ptr_36 = arith.index_cast %blk_b_ptr_35 : i32 to index loc(#loc61)
    %blk_b_ptr_37 = arith.muli %arg12, %blk_b_ptr : i32 loc(#loc58)
    %blk_b_ptr_38 = arith.index_cast %blk_b_ptr_37 : i32 to index loc(#loc58)
    %blk_b_ptr_39 = arith.addi %blk_b_ptr_36, %blk_b_ptr_38 : index loc(#loc74)
    %blk_b_ptr_40 = memref.reinterpret_cast %mixed_ba to offset: [%blk_b_ptr_39], sizes: [1], strides: [1] : memref<?xbf16> to memref<1xbf16, strided<[1], offset: ?>> loc(#loc75)
    %blk_b_st_ptr_41 = arith.muli %arg11, %blk_b_st_ptr : i32 loc(#loc76)
    %blk_b_st_ptr_42 = arith.index_cast %blk_b_st_ptr_41 : i32 to index loc(#loc76)
    %blk_b_st_ptr_43 = arith.muli %arg12, %blk_b_st_ptr : i32 loc(#loc55)
    %blk_b_st_ptr_44 = arith.divsi %blk_b_st_ptr_43, %blk_b_st_ptr : i32 loc(#loc77)
    %blk_b_st_ptr_45 = arith.index_cast %blk_b_st_ptr_44 : i32 to index loc(#loc77)
    %blk_b_st_ptr_46 = arith.addi %blk_b_st_ptr_42, %blk_b_st_ptr_45 : index loc(#loc78)
    %4 = memref.load %blk_b_ptr_40[%c0] : memref<1xbf16, strided<[1], offset: ?>> loc(#loc2)
    %5 = tensor.empty() : tensor<1xbf16> loc(#loc40)
    %inserted = tensor.insert %4 into %5[%c0] : tensor<1xbf16> loc(#loc40)
    %reinterpret_cast = memref.reinterpret_cast %b to offset: [%blk_b_st_ptr_46], sizes: [1], strides: [1] : memref<?xbf16> to memref<1xbf16, strided<[1], offset: ?>> loc(#loc40)
    bufferization.materialize_in_destination %inserted in writable %reinterpret_cast : (tensor<1xbf16>, memref<1xbf16, strided<[1], offset: ?>>) -> () loc(#loc40)
    %blk_a_ptr_47 = arith.addi %blk_b_ptr_39, %blk_a_ptr : index loc(#loc49)
    %blk_a_ptr_48 = memref.reinterpret_cast %mixed_ba to offset: [%blk_a_ptr_47], sizes: [1], strides: [1] : memref<?xbf16> to memref<1xbf16, strided<[1], offset: ?>> loc(#loc49)
    %6 = memref.load %blk_a_ptr_48[%c0] : memref<1xbf16, strided<[1], offset: ?>> loc(#loc41)
    %inserted_49 = tensor.insert %6 into %5[%c0] : tensor<1xbf16> loc(#loc42)
    %reinterpret_cast_50 = memref.reinterpret_cast %a to offset: [%blk_b_st_ptr_46], sizes: [1], strides: [1] : memref<?xbf16> to memref<1xbf16, strided<[1], offset: ?>> loc(#loc42)
    bufferization.materialize_in_destination %inserted_49 in writable %reinterpret_cast_50 : (tensor<1xbf16>, memref<1xbf16, strided<[1], offset: ?>>) -> () loc(#loc42)
    return loc(#loc)
  } loc(#loc)
} loc(#loc)
#loc1 = loc("/tmp/kernels_vllm_fused_qkvzba_split_reshape_cat_kernel.TihAYd.py":48:82)
#loc2 = loc("/tmp/kernels_vllm_fused_qkvzba_split_reshape_cat_kernel.TihAYd.py":46:39)
#loc3 = loc("/tmp/kernels_vllm_fused_qkvzba_split_reshape_cat_kernel.TihAYd.py":33:66)
#loc4 = loc("/tmp/kernels_vllm_fused_qkvzba_split_reshape_cat_kernel.TihAYd.py":31:66)
#loc5 = loc("/tmp/kernels_vllm_fused_qkvzba_split_reshape_cat_kernel.TihAYd.py":29:85)
#loc6 = loc("/tmp/kernels_vllm_fused_qkvzba_split_reshape_cat_kernel.TihAYd.py":27:85)
#loc7 = loc("/tmp/kernels_vllm_fused_qkvzba_split_reshape_cat_kernel.TihAYd.py":25:85)
#loc8 = loc("/tmp/kernels_vllm_fused_qkvzba_split_reshape_cat_kernel.TihAYd.py":45:55)
#loc9 = loc("/tmp/kernels_vllm_fused_qkvzba_split_reshape_cat_kernel.TihAYd.py":35:45)
#loc10 = loc("/tmp/kernels_vllm_fused_qkvzba_split_reshape_cat_kernel.TihAYd.py":30:73)
#loc11 = loc("/tmp/kernels_vllm_fused_qkvzba_split_reshape_cat_kernel.TihAYd.py":44:71)
#loc12 = loc("/tmp/kernels_vllm_fused_qkvzba_split_reshape_cat_kernel.TihAYd.py":23:52)
#loc13 = loc("/tmp/kernels_vllm_fused_qkvzba_split_reshape_cat_kernel.TihAYd.py":30:54)
#loc14 = loc("/tmp/kernels_vllm_fused_qkvzba_split_reshape_cat_kernel.TihAYd.py":44:53)
#loc15 = loc("/tmp/kernels_vllm_fused_qkvzba_split_reshape_cat_kernel.TihAYd.py":23:72)
#loc16 = loc("/tmp/kernels_vllm_fused_qkvzba_split_reshape_cat_kernel.TihAYd.py":23:65)
#loc17 = loc("/tmp/kernels_vllm_fused_qkvzba_split_reshape_cat_kernel.TihAYd.py":23:85)
#loc18 = loc("/tmp/kernels_vllm_fused_qkvzba_split_reshape_cat_kernel.TihAYd.py":30:66)
#loc19 = loc("/tmp/kernels_vllm_fused_qkvzba_split_reshape_cat_kernel.TihAYd.py":30:83)
#loc20 = loc("/tmp/kernels_vllm_fused_qkvzba_split_reshape_cat_kernel.TihAYd.py":31:91)
#loc21 = loc("/tmp/kernels_vllm_fused_qkvzba_split_reshape_cat_kernel.TihAYd.py":32:20)
#loc22 = loc("/tmp/kernels_vllm_fused_qkvzba_split_reshape_cat_kernel.TihAYd.py":34:51)
#loc23 = loc("/tmp/kernels_vllm_fused_qkvzba_split_reshape_cat_kernel.TihAYd.py":34:20)
#loc24 = loc("/tmp/kernels_vllm_fused_qkvzba_split_reshape_cat_kernel.TihAYd.py":34:66)
#loc25 = loc("/tmp/kernels_vllm_fused_qkvzba_split_reshape_cat_kernel.TihAYd.py":35:54)
#loc26 = loc("/tmp/kernels_vllm_fused_qkvzba_split_reshape_cat_kernel.TihAYd.py":36:20)
#loc27 = loc("/tmp/kernels_vllm_fused_qkvzba_split_reshape_cat_kernel.TihAYd.py":37:35)
#loc28 = loc("/tmp/kernels_vllm_fused_qkvzba_split_reshape_cat_kernel.TihAYd.py":37:27)
#loc29 = loc("/tmp/kernels_vllm_fused_qkvzba_split_reshape_cat_kernel.TihAYd.py":38:35)
#loc30 = loc("/tmp/kernels_vllm_fused_qkvzba_split_reshape_cat_kernel.TihAYd.py":38:27)
#loc31 = loc("/tmp/kernels_vllm_fused_qkvzba_split_reshape_cat_kernel.TihAYd.py":39:35)
#loc32 = loc("/tmp/kernels_vllm_fused_qkvzba_split_reshape_cat_kernel.TihAYd.py":39:27)
#loc33 = loc("/tmp/kernels_vllm_fused_qkvzba_split_reshape_cat_kernel.TihAYd.py":40:35)
#loc34 = loc("/tmp/kernels_vllm_fused_qkvzba_split_reshape_cat_kernel.TihAYd.py":40:27)
#loc35 = loc("/tmp/kernels_vllm_fused_qkvzba_split_reshape_cat_kernel.TihAYd.py":44:64)
#loc36 = loc("/tmp/kernels_vllm_fused_qkvzba_split_reshape_cat_kernel.TihAYd.py":44:82)
#loc37 = loc("/tmp/kernels_vllm_fused_qkvzba_split_reshape_cat_kernel.TihAYd.py":45:34)
#loc38 = loc("/tmp/kernels_vllm_fused_qkvzba_split_reshape_cat_kernel.TihAYd.py":45:70)
#loc39 = loc("/tmp/kernels_vllm_fused_qkvzba_split_reshape_cat_kernel.TihAYd.py":45:48)
#loc40 = loc("/tmp/kernels_vllm_fused_qkvzba_split_reshape_cat_kernel.TihAYd.py":46:31)
#loc41 = loc("/tmp/kernels_vllm_fused_qkvzba_split_reshape_cat_kernel.TihAYd.py":50:39)
#loc42 = loc("/tmp/kernels_vllm_fused_qkvzba_split_reshape_cat_kernel.TihAYd.py":50:31)
#loc49 = loc("blk_a_ptr"(#loc1))
#loc50 = loc("blk_v_st_ptr"(#loc3))
#loc51 = loc("blk_k_st_ptr"(#loc4))
#loc52 = loc("blk_z_ptr"(#loc5))
#loc53 = loc("blk_v_ptr"(#loc6))
#loc54 = loc("blk_k_ptr"(#loc7))
#loc55 = loc("blk_b_st_ptr"(#loc8))
#loc56 = loc("blk_z_st_ptr"(#loc9))
#loc57 = loc("blk_q_st_ptr"(#loc10))
#loc58 = loc("blk_b_ptr"(#loc11))
#loc59 = loc("blk_q_ptr"(#loc12))
#loc60 = loc("blk_q_st_ptr"(#loc13))
#loc61 = loc("blk_b_ptr"(#loc14))
#loc62 = loc("blk_q_ptr"(#loc15))
#loc63 = loc("blk_q_ptr"(#loc16))
#loc64 = loc("blk_q_ptr"(#loc17))
#loc65 = loc("blk_q_st_ptr"(#loc18))
#loc66 = loc("blk_q_st_ptr"(#loc19))
#loc67 = loc("blk_k_st_ptr"(#loc20))
#loc68 = loc("blk_k_st_ptr"(#loc21))
#loc69 = loc("blk_v_st_ptr"(#loc22))
#loc70 = loc("blk_v_st_ptr"(#loc23))
#loc71 = loc("blk_v_st_ptr"(#loc24))
#loc72 = loc("blk_z_st_ptr"(#loc25))
#loc73 = loc("blk_z_st_ptr"(#loc26))
#loc74 = loc("blk_b_ptr"(#loc35))
#loc75 = loc("blk_b_ptr"(#loc36))
#loc76 = loc("blk_b_st_ptr"(#loc37))
#loc77 = loc("blk_b_st_ptr"(#loc38))
#loc78 = loc("blk_b_st_ptr"(#loc39))
