#loc = loc("/tmp/kernels_vllm_merge_16x16_to_64x64_inverse_kernel.LBCK22.py":8:0)
#loc67 = loc("A"(#loc))
#loc68 = loc("Ad"(#loc))
#loc69 = loc("Ai"(#loc))
#loc70 = loc("T"(#loc))
module attributes {hacc.target = #hacc.target<"Ascend910_9362">} {
  func.func @merge_16x16_to_64x64_inverse_kernel(%arg0: memref<?xi8> loc("/tmp/kernels_vllm_merge_16x16_to_64x64_inverse_kernel.LBCK22.py":8:0), %arg1: memref<?xi8> loc("/tmp/kernels_vllm_merge_16x16_to_64x64_inverse_kernel.LBCK22.py":8:0), %A: memref<?xbf16> {tt.divisibility = 16 : i32, tt.tensor_kind = 0 : i32} loc("A"(#loc)), %Ad: memref<?xbf16> {tt.divisibility = 16 : i32, tt.tensor_kind = 0 : i32} loc("Ad"(#loc)), %Ai: memref<?xbf16> {tt.divisibility = 16 : i32, tt.tensor_kind = 1 : i32} loc("Ai"(#loc)), %T: i32 loc("T"(#loc)), %arg6: i32 loc("/tmp/kernels_vllm_merge_16x16_to_64x64_inverse_kernel.LBCK22.py":8:0), %arg7: i32 loc("/tmp/kernels_vllm_merge_16x16_to_64x64_inverse_kernel.LBCK22.py":8:0), %arg8: i32 loc("/tmp/kernels_vllm_merge_16x16_to_64x64_inverse_kernel.LBCK22.py":8:0), %arg9: i32 loc("/tmp/kernels_vllm_merge_16x16_to_64x64_inverse_kernel.LBCK22.py":8:0), %arg10: i32 loc("/tmp/kernels_vllm_merge_16x16_to_64x64_inverse_kernel.LBCK22.py":8:0), %arg11: i32 loc("/tmp/kernels_vllm_merge_16x16_to_64x64_inverse_kernel.LBCK22.py":8:0)) attributes {SyncBlockLockArgIdx = 0 : i64, WorkspaceArgIdx = 1 : i64, global_kernel = "local", mix_mode = "mix", parallel_mode = "simd"} {
    %ptr_A = arith.constant 32 : index loc(#loc71)
    %ptr_A_0 = arith.constant 256 : index loc(#loc72)
    %Ai_22 = arith.constant 16 : index loc(#loc73)
    %ptr_Ad = arith.constant 64 : index loc(#loc74)
    %A_21_32 = arith.constant 0.000000e+00 : bf16 loc(#loc75)
    %offs_m = arith.constant 32 : i32 loc(#loc76)
    %offs_m_1 = arith.constant 48 : i32 loc(#loc77)
    %A_2 = arith.constant 4 : i32 loc(#loc78)
    %offs_m_3 = arith.constant 64 : i32 loc(#loc79)
    %offs_m_4 = arith.constant 16 : i32 loc(#loc80)
    %Ai_21_32 = arith.constant 0.000000e+00 : f32 loc(#loc81)
    %Ai_43 = tensor.empty() : tensor<16x16xf32> loc(#loc82)
    %Ai_43_5 = linalg.fill ins(%Ai_21_32 : f32) outs(%Ai_43 : tensor<16x16xf32>) -> tensor<16x16xf32> loc(#loc82)
    %Ai_21_32_6 = tensor.empty() : tensor<32x32xf32> loc(#loc81)
    %Ai_21_32_7 = linalg.fill ins(%Ai_21_32 : f32) outs(%Ai_21_32_6 : tensor<32x32xf32>) -> tensor<32x32xf32> loc(#loc81)
    %0 = tensor.empty() : tensor<32x32xbf16> loc(#loc13)
    %1 = linalg.fill ins(%A_21_32 : bf16) outs(%0 : tensor<32x32xbf16>) -> tensor<32x32xbf16> loc(#loc13)
    %2 = arith.divsi %arg10, %A_2 : i32 loc(#loc14)
    %3 = arith.remsi %arg10, %A_2 : i32 loc(#loc15)
    %4 = arith.muli %2, %T : i32 loc(#loc16)
    %A_8 = arith.muli %4, %A_2 : i32 loc(#loc78)
    %A_9 = arith.addi %A_8, %3 : i32 loc(#loc83)
    %A_10 = arith.muli %A_9, %offs_m_3 : i32 loc(#loc84)
    %A_11 = arith.index_cast %A_10 : i32 to index loc(#loc84)
    %Ad_12 = arith.muli %A_9, %offs_m_4 : i32 loc(#loc85)
    %Ad_13 = arith.index_cast %Ad_12 : i32 to index loc(#loc85)
    %offs_m_14 = arith.muli %arg9, %offs_m_3 : i32 loc(#loc79)
    %offs_m_15 = arith.addi %offs_m_14, %offs_m_4 : i32 loc(#loc80)
    %offs_m_16 = arith.index_cast %offs_m_15 : i32 to index loc(#loc80)
    %ptr_Ad_17 = arith.muli %offs_m_16, %ptr_Ad : index loc(#loc74)
    %ptr_Ad_18 = arith.addi %Ad_13, %ptr_Ad_17 : index loc(#loc74)
    %ptr_Ad_19 = memref.reinterpret_cast %Ad to offset: [%ptr_Ad_18], sizes: [16, 16], strides: [64, 1] : memref<?xbf16> to memref<16x16xbf16, strided<[64, 1], offset: ?>> loc(#loc86)
    %Ai_22_20 = memref.alloc() : memref<16x16xbf16> loc(#loc73)
    %Ai_22_21 = arith.addi %offs_m_16, %Ai_22 : index loc(#loc73)
    %T_22 = arith.index_cast %T : i32 to index loc(#loc70)
    %Ai_22_23 = arith.maxsi %offs_m_16, %T_22 : index loc(#loc73)
    %Ai_22_24 = arith.minsi %Ai_22_21, %Ai_22_23 : index loc(#loc73)
    %Ai_22_25 = arith.subi %Ai_22_24, %offs_m_16 : index loc(#loc73)
    %Ai_22_26 = arith.minsi %Ai_22_25, %Ai_22 : index loc(#loc73)
    %Ai_22_27 = arith.cmpi slt, %Ai_22_26, %Ai_22 : index loc(#loc73)
    scf.if %Ai_22_27 {
      linalg.fill ins(%A_21_32 : bf16) outs(%Ai_22_20 : memref<16x16xbf16>) loc(#loc73)
    } {hivm.unlikely_condition} loc(#loc73)
    %Ai_22_28 = memref.subview %ptr_Ad_19[0, 0] [%Ai_22_26, 16] [1, 1] : memref<16x16xbf16, strided<[64, 1], offset: ?>> to memref<?x16xbf16, strided<[64, 1], offset: ?>> loc(#loc73)
    %Ai_22_29 = memref.subview %Ai_22_20[0, 0] [%Ai_22_26, 16] [1, 1] : memref<16x16xbf16> to memref<?x16xbf16, strided<[16, 1]>> loc(#loc73)
    memref.copy %Ai_22_28, %Ai_22_29 : memref<?x16xbf16, strided<[64, 1], offset: ?>> to memref<?x16xbf16, strided<[16, 1]>> loc(#loc73)
    %Ai_22_30 = bufferization.to_tensor %Ai_22_20 restrict writable : memref<16x16xbf16> loc(#loc73)
    %Ai_22_31 = arith.extf %Ai_22_30 : tensor<16x16xbf16> to tensor<16x16xf32> loc(#loc87)
    %ptr_A_32 = arith.muli %offs_m_16, %ptr_A_0 : index loc(#loc72)
    %ptr_A_33 = arith.addi %A_11, %ptr_A_32 : index loc(#loc72)
    %ptr_A_34 = memref.reinterpret_cast %A to offset: [%ptr_A_33], sizes: [16, 16], strides: [256, 1] : memref<?xbf16> to memref<16x16xbf16, strided<[256, 1], offset: ?>> loc(#loc88)
    %A_21 = memref.alloc() : memref<16x16xbf16> loc(#loc89)
    scf.if %Ai_22_27 {
      linalg.fill ins(%A_21_32 : bf16) outs(%A_21 : memref<16x16xbf16>) loc(#loc89)
    } {hivm.unlikely_condition} loc(#loc89)
    %A_21_35 = memref.subview %ptr_A_34[0, 0] [%Ai_22_26, 16] [1, 1] : memref<16x16xbf16, strided<[256, 1], offset: ?>> to memref<?x16xbf16, strided<[256, 1], offset: ?>> loc(#loc89)
    %A_21_36 = memref.subview %A_21[0, 0] [%Ai_22_26, 16] [1, 1] : memref<16x16xbf16> to memref<?x16xbf16, strided<[16, 1]>> loc(#loc89)
    memref.copy %A_21_35, %A_21_36 : memref<?x16xbf16, strided<[256, 1], offset: ?>> to memref<?x16xbf16, strided<[16, 1]>> loc(#loc89)
    %A_21_37 = bufferization.to_tensor %A_21 restrict writable : memref<16x16xbf16> loc(#loc89)
    %A_21_38 = arith.extf %A_21_37 : tensor<16x16xbf16> to tensor<16x16xf32> loc(#loc90)
    %tmp = linalg.matmul {input_precision = "ieee"} ins(%Ai_22_31, %A_21_38 : tensor<16x16xf32>, tensor<16x16xf32>) outs(%Ai_43_5 : tensor<16x16xf32>) -> tensor<16x16xf32> loc(#loc91)
    %offs_m_39 = arith.index_cast %offs_m_14 : i32 to index loc(#loc79)
    %ptr_Ad_40 = arith.muli %offs_m_39, %ptr_Ad : index loc(#loc92)
    %ptr_Ad_41 = arith.addi %Ad_13, %ptr_Ad_40 : index loc(#loc92)
    %ptr_Ad_42 = memref.reinterpret_cast %Ad to offset: [%ptr_Ad_41], sizes: [16, 16], strides: [64, 1] : memref<?xbf16> to memref<16x16xbf16, strided<[64, 1], offset: ?>> loc(#loc93)
    %Ai_11 = memref.alloc() : memref<16x16xbf16> loc(#loc94)
    %Ai_11_43 = arith.addi %offs_m_39, %Ai_22 : index loc(#loc94)
    %Ai_11_44 = arith.maxsi %offs_m_39, %T_22 : index loc(#loc94)
    %Ai_11_45 = arith.minsi %Ai_11_43, %Ai_11_44 : index loc(#loc94)
    %Ai_11_46 = arith.subi %Ai_11_45, %offs_m_39 : index loc(#loc94)
    %Ai_11_47 = arith.minsi %Ai_11_46, %Ai_22 : index loc(#loc94)
    %Ai_11_48 = arith.cmpi slt, %Ai_11_47, %Ai_22 : index loc(#loc94)
    scf.if %Ai_11_48 {
      linalg.fill ins(%A_21_32 : bf16) outs(%Ai_11 : memref<16x16xbf16>) loc(#loc94)
    } {hivm.unlikely_condition} loc(#loc94)
    %Ai_11_49 = memref.subview %ptr_Ad_42[0, 0] [%Ai_11_47, 16] [1, 1] : memref<16x16xbf16, strided<[64, 1], offset: ?>> to memref<?x16xbf16, strided<[64, 1], offset: ?>> loc(#loc94)
    %Ai_11_50 = memref.subview %Ai_11[0, 0] [%Ai_11_47, 16] [1, 1] : memref<16x16xbf16> to memref<?x16xbf16, strided<[16, 1]>> loc(#loc94)
    memref.copy %Ai_11_49, %Ai_11_50 : memref<?x16xbf16, strided<[64, 1], offset: ?>> to memref<?x16xbf16, strided<[16, 1]>> loc(#loc94)
    %Ai_11_51 = bufferization.to_tensor %Ai_11 restrict writable : memref<16x16xbf16> loc(#loc94)
    %Ai_11_52 = arith.extf %Ai_11_51 : tensor<16x16xbf16> to tensor<16x16xf32> loc(#loc95)
    %Ai_21 = linalg.matmul {input_precision = "ieee"} ins(%tmp, %Ai_11_52 : tensor<16x16xf32>, tensor<16x16xf32>) outs(%Ai_43_5 : tensor<16x16xf32>) -> tensor<16x16xf32> loc(#loc96)
    %Ai_21_53 = arith.subf %Ai_43_5, %Ai_21 : tensor<16x16xf32> loc(#loc97)
    %offs_m_54 = arith.addi %offs_m_14, %offs_m_1 : i32 loc(#loc77)
    %offs_m_55 = arith.index_cast %offs_m_54 : i32 to index loc(#loc77)
    %ptr_Ad_56 = arith.muli %offs_m_55, %ptr_Ad : index loc(#loc98)
    %ptr_Ad_57 = arith.addi %Ad_13, %ptr_Ad_56 : index loc(#loc98)
    %ptr_Ad_58 = memref.reinterpret_cast %Ad to offset: [%ptr_Ad_57], sizes: [16, 16], strides: [64, 1] : memref<?xbf16> to memref<16x16xbf16, strided<[64, 1], offset: ?>> loc(#loc99)
    %Ai_44 = memref.alloc() : memref<16x16xbf16> loc(#loc100)
    %Ai_44_59 = arith.addi %offs_m_55, %Ai_22 : index loc(#loc100)
    %Ai_44_60 = arith.maxsi %offs_m_55, %T_22 : index loc(#loc100)
    %Ai_44_61 = arith.minsi %Ai_44_59, %Ai_44_60 : index loc(#loc100)
    %Ai_44_62 = arith.subi %Ai_44_61, %offs_m_55 : index loc(#loc100)
    %Ai_44_63 = arith.minsi %Ai_44_62, %Ai_22 : index loc(#loc100)
    %Ai_44_64 = arith.cmpi slt, %Ai_44_63, %Ai_22 : index loc(#loc100)
    scf.if %Ai_44_64 {
      linalg.fill ins(%A_21_32 : bf16) outs(%Ai_44 : memref<16x16xbf16>) loc(#loc100)
    } {hivm.unlikely_condition} loc(#loc100)
    %Ai_44_65 = memref.subview %ptr_Ad_58[0, 0] [%Ai_44_63, 16] [1, 1] : memref<16x16xbf16, strided<[64, 1], offset: ?>> to memref<?x16xbf16, strided<[64, 1], offset: ?>> loc(#loc100)
    %Ai_44_66 = memref.subview %Ai_44[0, 0] [%Ai_44_63, 16] [1, 1] : memref<16x16xbf16> to memref<?x16xbf16, strided<[16, 1]>> loc(#loc100)
    memref.copy %Ai_44_65, %Ai_44_66 : memref<?x16xbf16, strided<[64, 1], offset: ?>> to memref<?x16xbf16, strided<[16, 1]>> loc(#loc100)
    %Ai_44_67 = bufferization.to_tensor %Ai_44 restrict writable : memref<16x16xbf16> loc(#loc100)
    %Ai_44_68 = arith.extf %Ai_44_67 : tensor<16x16xbf16> to tensor<16x16xf32> loc(#loc101)
    %ptr_A_69 = arith.muli %offs_m_55, %ptr_A_0 : index loc(#loc102)
    %ptr_A_70 = arith.addi %A_11, %ptr_A_69 : index loc(#loc102)
    %ptr_A_71 = arith.addi %ptr_A_70, %ptr_A : index loc(#loc71)
    %ptr_A_72 = memref.reinterpret_cast %A to offset: [%ptr_A_71], sizes: [16, 16], strides: [256, 1] : memref<?xbf16> to memref<16x16xbf16, strided<[256, 1], offset: ?>> loc(#loc71)
    %A_43 = memref.alloc() : memref<16x16xbf16> loc(#loc103)
    scf.if %Ai_44_64 {
      linalg.fill ins(%A_21_32 : bf16) outs(%A_43 : memref<16x16xbf16>) loc(#loc103)
    } {hivm.unlikely_condition} loc(#loc103)
    %A_43_73 = memref.subview %ptr_A_72[0, 0] [%Ai_44_63, 16] [1, 1] : memref<16x16xbf16, strided<[256, 1], offset: ?>> to memref<?x16xbf16, strided<[256, 1], offset: ?>> loc(#loc103)
    %A_43_74 = memref.subview %A_43[0, 0] [%Ai_44_63, 16] [1, 1] : memref<16x16xbf16> to memref<?x16xbf16, strided<[16, 1]>> loc(#loc103)
    memref.copy %A_43_73, %A_43_74 : memref<?x16xbf16, strided<[256, 1], offset: ?>> to memref<?x16xbf16, strided<[16, 1]>> loc(#loc103)
    %A_43_75 = bufferization.to_tensor %A_43 restrict writable : memref<16x16xbf16> loc(#loc103)
    %A_43_76 = arith.extf %A_43_75 : tensor<16x16xbf16> to tensor<16x16xf32> loc(#loc104)
    %tmp_77 = linalg.matmul {input_precision = "ieee"} ins(%Ai_44_68, %A_43_76 : tensor<16x16xf32>, tensor<16x16xf32>) outs(%Ai_43_5 : tensor<16x16xf32>) -> tensor<16x16xf32> loc(#loc105)
    %offs_m_78 = arith.addi %offs_m_14, %offs_m : i32 loc(#loc76)
    %offs_m_79 = arith.index_cast %offs_m_78 : i32 to index loc(#loc76)
    %ptr_Ad_80 = arith.muli %offs_m_79, %ptr_Ad : index loc(#loc106)
    %ptr_Ad_81 = arith.addi %Ad_13, %ptr_Ad_80 : index loc(#loc106)
    %ptr_Ad_82 = memref.reinterpret_cast %Ad to offset: [%ptr_Ad_81], sizes: [16, 16], strides: [64, 1] : memref<?xbf16> to memref<16x16xbf16, strided<[64, 1], offset: ?>> loc(#loc107)
    %Ai_33 = memref.alloc() : memref<16x16xbf16> loc(#loc108)
    %Ai_33_83 = arith.addi %offs_m_79, %Ai_22 : index loc(#loc108)
    %Ai_33_84 = arith.maxsi %offs_m_79, %T_22 : index loc(#loc108)
    %Ai_33_85 = arith.minsi %Ai_33_83, %Ai_33_84 : index loc(#loc108)
    %Ai_33_86 = arith.subi %Ai_33_85, %offs_m_79 : index loc(#loc108)
    %Ai_33_87 = arith.minsi %Ai_33_86, %Ai_22 : index loc(#loc108)
    %Ai_33_88 = arith.cmpi slt, %Ai_33_87, %Ai_22 : index loc(#loc108)
    scf.if %Ai_33_88 {
      linalg.fill ins(%A_21_32 : bf16) outs(%Ai_33 : memref<16x16xbf16>) loc(#loc108)
    } {hivm.unlikely_condition} loc(#loc108)
    %Ai_33_89 = memref.subview %ptr_Ad_82[0, 0] [%Ai_33_87, 16] [1, 1] : memref<16x16xbf16, strided<[64, 1], offset: ?>> to memref<?x16xbf16, strided<[64, 1], offset: ?>> loc(#loc108)
    %Ai_33_90 = memref.subview %Ai_33[0, 0] [%Ai_33_87, 16] [1, 1] : memref<16x16xbf16> to memref<?x16xbf16, strided<[16, 1]>> loc(#loc108)
    memref.copy %Ai_33_89, %Ai_33_90 : memref<?x16xbf16, strided<[64, 1], offset: ?>> to memref<?x16xbf16, strided<[16, 1]>> loc(#loc108)
    %Ai_33_91 = bufferization.to_tensor %Ai_33 restrict writable : memref<16x16xbf16> loc(#loc108)
    %Ai_33_92 = arith.extf %Ai_33_91 : tensor<16x16xbf16> to tensor<16x16xf32> loc(#loc109)
    %Ai_43_93 = linalg.matmul {input_precision = "ieee"} ins(%tmp_77, %Ai_33_92 : tensor<16x16xf32>, tensor<16x16xf32>) outs(%Ai_43_5 : tensor<16x16xf32>) -> tensor<16x16xf32> loc(#loc110)
    %Ai_43_94 = arith.subf %Ai_43_5, %Ai_43_93 : tensor<16x16xf32> loc(#loc82)
    %Ai_22_32 = tensor.insert_slice %Ai_33_92 into %Ai_21_32_7[0, 0] [16, 16] [1, 1] : tensor<16x16xf32> into tensor<32x32xf32> loc(#loc111)
    %Ai_22_32_95 = tensor.insert_slice %Ai_44_68 into %Ai_22_32[16, 16] [16, 16] [1, 1] : tensor<16x16xf32> into tensor<32x32xf32> loc(#loc112)
    %Ai_22_32_96 = tensor.insert_slice %Ai_43_94 into %Ai_22_32_95[16, 0] [16, 16] [1, 1] : tensor<16x16xf32> into tensor<32x32xf32> loc(#loc113)
    %ptr_A_97 = arith.muli %offs_m_79, %ptr_A_0 : index loc(#loc114)
    %ptr_A_98 = arith.addi %A_11, %ptr_A_97 : index loc(#loc114)
    %ptr_A_99 = memref.reinterpret_cast %A to offset: [%ptr_A_98], sizes: [32, 32], strides: [256, 1] : memref<?xbf16> to memref<32x32xbf16, strided<[256, 1], offset: ?>> loc(#loc115)
    %A_21_32_100 = memref.alloc() : memref<32x32xbf16> loc(#loc75)
    %A_21_32_101 = arith.addi %offs_m_79, %ptr_A : index loc(#loc75)
    %A_21_32_102 = arith.minsi %A_21_32_101, %Ai_33_84 : index loc(#loc75)
    %A_21_32_103 = arith.subi %A_21_32_102, %offs_m_79 : index loc(#loc75)
    %A_21_32_104 = arith.minsi %A_21_32_103, %ptr_A : index loc(#loc75)
    %A_21_32_105 = arith.cmpi slt, %A_21_32_104, %ptr_A : index loc(#loc75)
    scf.if %A_21_32_105 {
      linalg.fill ins(%A_21_32 : bf16) outs(%A_21_32_100 : memref<32x32xbf16>) loc(#loc75)
    } {hivm.unlikely_condition} loc(#loc75)
    %A_21_32_106 = memref.subview %ptr_A_99[0, 0] [%A_21_32_104, 32] [1, 1] : memref<32x32xbf16, strided<[256, 1], offset: ?>> to memref<?x32xbf16, strided<[256, 1], offset: ?>> loc(#loc75)
    %A_21_32_107 = memref.subview %A_21_32_100[0, 0] [%A_21_32_104, 32] [1, 1] : memref<32x32xbf16> to memref<?x32xbf16, strided<[32, 1]>> loc(#loc75)
    memref.copy %A_21_32_106, %A_21_32_107 : memref<?x32xbf16, strided<[256, 1], offset: ?>> to memref<?x32xbf16, strided<[32, 1]>> loc(#loc75)
    %A_21_32_108 = bufferization.to_tensor %A_21_32_100 restrict writable : memref<32x32xbf16> loc(#loc75)
    %A_21_32_109 = arith.extf %A_21_32_108 : tensor<32x32xbf16> to tensor<32x32xf32> loc(#loc116)
    %tmp_110 = linalg.matmul {input_precision = "ieee"} ins(%Ai_22_32_96, %A_21_32_109 : tensor<32x32xf32>, tensor<32x32xf32>) outs(%Ai_21_32_7 : tensor<32x32xf32>) -> tensor<32x32xf32> loc(#loc117)
    %Ai_11_32 = tensor.insert_slice %Ai_11_52 into %Ai_21_32_7[0, 0] [16, 16] [1, 1] : tensor<16x16xf32> into tensor<32x32xf32> loc(#loc118)
    %Ai_11_32_111 = tensor.insert_slice %Ai_22_31 into %Ai_11_32[16, 16] [16, 16] [1, 1] : tensor<16x16xf32> into tensor<32x32xf32> loc(#loc119)
    %Ai_11_32_112 = tensor.insert_slice %Ai_21_53 into %Ai_11_32_111[16, 0] [16, 16] [1, 1] : tensor<16x16xf32> into tensor<32x32xf32> loc(#loc120)
    %Ai_21_32_113 = linalg.matmul {input_precision = "ieee"} ins(%tmp_110, %Ai_11_32_112 : tensor<32x32xf32>, tensor<32x32xf32>) outs(%Ai_21_32_7 : tensor<32x32xf32>) -> tensor<32x32xf32> loc(#loc121)
    %Ai_21_32_114 = arith.subf %Ai_21_32_7, %Ai_21_32_113 : tensor<32x32xf32> loc(#loc81)
    %ptr_Ai = arith.muli %offs_m_39, %ptr_A_0 : index loc(#loc122)
    %ptr_Ai_115 = arith.addi %A_11, %ptr_Ai : index loc(#loc122)
    %ptr_Ai_116 = memref.reinterpret_cast %Ai to offset: [%ptr_Ai_115], sizes: [32, 32], strides: [256, 1] : memref<?xbf16> to memref<32x32xbf16, strided<[256, 1], offset: ?>> loc(#loc123)
    %5 = arith.truncf %Ai_11_32_112 : tensor<32x32xf32> to tensor<32x32xbf16> loc(#loc58)
    %6 = arith.addi %offs_m_39, %ptr_A : index loc(#loc59)
    %7 = arith.minsi %6, %Ai_11_44 : index loc(#loc59)
    %8 = arith.subi %7, %offs_m_39 : index loc(#loc59)
    %9 = arith.minsi %8, %ptr_A : index loc(#loc59)
    %extracted_slice = tensor.extract_slice %5[0, 0] [%9, 32] [1, 1] : tensor<32x32xbf16> to tensor<?x32xbf16> loc(#loc59)
    %subview = memref.subview %ptr_Ai_116[0, 0] [%9, 32] [1, 1] : memref<32x32xbf16, strided<[256, 1], offset: ?>> to memref<?x32xbf16, strided<[256, 1], offset: ?>> loc(#loc59)
    bufferization.materialize_in_destination %extracted_slice in writable %subview : (tensor<?x32xbf16>, memref<?x32xbf16, strided<[256, 1], offset: ?>>) -> () loc(#loc59)
    %ptr_Ai_117 = arith.addi %ptr_A_98, %ptr_A : index loc(#loc124)
    %ptr_Ai_118 = memref.reinterpret_cast %Ai to offset: [%ptr_Ai_117], sizes: [32, 32], strides: [256, 1] : memref<?xbf16> to memref<32x32xbf16, strided<[256, 1], offset: ?>> loc(#loc124)
    %10 = arith.truncf %Ai_22_32_96 : tensor<32x32xf32> to tensor<32x32xbf16> loc(#loc61)
    %extracted_slice_119 = tensor.extract_slice %10[0, 0] [%A_21_32_104, 32] [1, 1] : tensor<32x32xbf16> to tensor<?x32xbf16> loc(#loc62)
    %subview_120 = memref.subview %ptr_Ai_118[0, 0] [%A_21_32_104, 32] [1, 1] : memref<32x32xbf16, strided<[256, 1], offset: ?>> to memref<?x32xbf16, strided<[256, 1], offset: ?>> loc(#loc62)
    bufferization.materialize_in_destination %extracted_slice_119 in writable %subview_120 : (tensor<?x32xbf16>, memref<?x32xbf16, strided<[256, 1], offset: ?>>) -> () loc(#loc62)
    %ptr_Ai_121 = memref.reinterpret_cast %Ai to offset: [%ptr_A_98], sizes: [32, 32], strides: [256, 1] : memref<?xbf16> to memref<32x32xbf16, strided<[256, 1], offset: ?>> loc(#loc125)
    %11 = arith.truncf %Ai_21_32_114 : tensor<32x32xf32> to tensor<32x32xbf16> loc(#loc64)
    %extracted_slice_122 = tensor.extract_slice %11[0, 0] [%A_21_32_104, 32] [1, 1] : tensor<32x32xbf16> to tensor<?x32xbf16> loc(#loc65)
    %subview_123 = memref.subview %ptr_Ai_121[0, 0] [%A_21_32_104, 32] [1, 1] : memref<32x32xbf16, strided<[256, 1], offset: ?>> to memref<?x32xbf16, strided<[256, 1], offset: ?>> loc(#loc65)
    bufferization.materialize_in_destination %extracted_slice_122 in writable %subview_123 : (tensor<?x32xbf16>, memref<?x32xbf16, strided<[256, 1], offset: ?>>) -> () loc(#loc65)
    %ptr_Ai_124 = arith.addi %ptr_Ai_115, %ptr_A : index loc(#loc126)
    %ptr_Ai_125 = memref.reinterpret_cast %Ai to offset: [%ptr_Ai_124], sizes: [32, 32], strides: [256, 1] : memref<?xbf16> to memref<32x32xbf16, strided<[256, 1], offset: ?>> loc(#loc126)
    %extracted_slice_126 = tensor.extract_slice %1[0, 0] [%9, 32] [1, 1] : tensor<32x32xbf16> to tensor<?x32xbf16> loc(#loc13)
    %subview_127 = memref.subview %ptr_Ai_125[0, 0] [%9, 32] [1, 1] : memref<32x32xbf16, strided<[256, 1], offset: ?>> to memref<?x32xbf16, strided<[256, 1], offset: ?>> loc(#loc13)
    bufferization.materialize_in_destination %extracted_slice_126 in writable %subview_127 : (tensor<?x32xbf16>, memref<?x32xbf16, strided<[256, 1], offset: ?>>) -> () loc(#loc13)
    return loc(#loc)
  } loc(#loc)
} loc(#loc)
#loc1 = loc("/tmp/kernels_vllm_merge_16x16_to_64x64_inverse_kernel.LBCK22.py":72:45)
#loc2 = loc("/tmp/kernels_vllm_merge_16x16_to_64x64_inverse_kernel.LBCK22.py":49:16)
#loc3 = loc("/tmp/kernels_vllm_merge_16x16_to_64x64_inverse_kernel.LBCK22.py":45:20)
#loc4 = loc("/tmp/kernels_vllm_merge_16x16_to_64x64_inverse_kernel.LBCK22.py":44:18)
#loc5 = loc("/tmp/kernels_vllm_merge_16x16_to_64x64_inverse_kernel.LBCK22.py":96:22)
#loc6 = loc("/tmp/kernels_vllm_merge_16x16_to_64x64_inverse_kernel.LBCK22.py":77:24)
#loc7 = loc("/tmp/kernels_vllm_merge_16x16_to_64x64_inverse_kernel.LBCK22.py":63:24)
#loc8 = loc("/tmp/kernels_vllm_merge_16x16_to_64x64_inverse_kernel.LBCK22.py":36:16)
#loc9 = loc("/tmp/kernels_vllm_merge_16x16_to_64x64_inverse_kernel.LBCK22.py":41:19)
#loc10 = loc("/tmp/kernels_vllm_merge_16x16_to_64x64_inverse_kernel.LBCK22.py":41:24)
#loc11 = loc("/tmp/kernels_vllm_merge_16x16_to_64x64_inverse_kernel.LBCK22.py":105:16)
#loc12 = loc("/tmp/kernels_vllm_merge_16x16_to_64x64_inverse_kernel.LBCK22.py":83:13)
#loc13 = loc("/tmp/kernels_vllm_merge_16x16_to_64x64_inverse_kernel.LBCK22.py":133:21)
#loc14 = loc("/tmp/kernels_vllm_merge_16x16_to_64x64_inverse_kernel.LBCK22.py":20:23)
#loc15 = loc("/tmp/kernels_vllm_merge_16x16_to_64x64_inverse_kernel.LBCK22.py":20:33)
#loc16 = loc("/tmp/kernels_vllm_merge_16x16_to_64x64_inverse_kernel.LBCK22.py":33:25)
#loc17 = loc("/tmp/kernels_vllm_merge_16x16_to_64x64_inverse_kernel.LBCK22.py":36:20)
#loc18 = loc("/tmp/kernels_vllm_merge_16x16_to_64x64_inverse_kernel.LBCK22.py":36:27)
#loc19 = loc("/tmp/kernels_vllm_merge_16x16_to_64x64_inverse_kernel.LBCK22.py":37:28)
#loc20 = loc("/tmp/kernels_vllm_merge_16x16_to_64x64_inverse_kernel.LBCK22.py":44:47)
#loc21 = loc("/tmp/kernels_vllm_merge_16x16_to_64x64_inverse_kernel.LBCK22.py":45:56)
#loc22 = loc("/tmp/kernels_vllm_merge_16x16_to_64x64_inverse_kernel.LBCK22.py":49:45)
#loc23 = loc("/tmp/kernels_vllm_merge_16x16_to_64x64_inverse_kernel.LBCK22.py":50:19)
#loc24 = loc("/tmp/kernels_vllm_merge_16x16_to_64x64_inverse_kernel.LBCK22.py":50:53)
#loc25 = loc("/tmp/kernels_vllm_merge_16x16_to_64x64_inverse_kernel.LBCK22.py":51:24)
#loc26 = loc("/tmp/kernels_vllm_merge_16x16_to_64x64_inverse_kernel.LBCK22.py":57:18)
#loc27 = loc("/tmp/kernels_vllm_merge_16x16_to_64x64_inverse_kernel.LBCK22.py":57:47)
#loc28 = loc("/tmp/kernels_vllm_merge_16x16_to_64x64_inverse_kernel.LBCK22.py":58:20)
#loc29 = loc("/tmp/kernels_vllm_merge_16x16_to_64x64_inverse_kernel.LBCK22.py":58:56)
#loc30 = loc("/tmp/kernels_vllm_merge_16x16_to_64x64_inverse_kernel.LBCK22.py":60:25)
#loc31 = loc("/tmp/kernels_vllm_merge_16x16_to_64x64_inverse_kernel.LBCK22.py":60:13)
#loc32 = loc("/tmp/kernels_vllm_merge_16x16_to_64x64_inverse_kernel.LBCK22.py":66:18)
#loc33 = loc("/tmp/kernels_vllm_merge_16x16_to_64x64_inverse_kernel.LBCK22.py":66:47)
#loc34 = loc("/tmp/kernels_vllm_merge_16x16_to_64x64_inverse_kernel.LBCK22.py":67:20)
#loc35 = loc("/tmp/kernels_vllm_merge_16x16_to_64x64_inverse_kernel.LBCK22.py":67:56)
#loc36 = loc("/tmp/kernels_vllm_merge_16x16_to_64x64_inverse_kernel.LBCK22.py":72:16)
#loc37 = loc("/tmp/kernels_vllm_merge_16x16_to_64x64_inverse_kernel.LBCK22.py":73:19)
#loc38 = loc("/tmp/kernels_vllm_merge_16x16_to_64x64_inverse_kernel.LBCK22.py":73:53)
#loc39 = loc("/tmp/kernels_vllm_merge_16x16_to_64x64_inverse_kernel.LBCK22.py":74:24)
#loc40 = loc("/tmp/kernels_vllm_merge_16x16_to_64x64_inverse_kernel.LBCK22.py":80:18)
#loc41 = loc("/tmp/kernels_vllm_merge_16x16_to_64x64_inverse_kernel.LBCK22.py":80:47)
#loc42 = loc("/tmp/kernels_vllm_merge_16x16_to_64x64_inverse_kernel.LBCK22.py":81:20)
#loc43 = loc("/tmp/kernels_vllm_merge_16x16_to_64x64_inverse_kernel.LBCK22.py":81:56)
#loc44 = loc("/tmp/kernels_vllm_merge_16x16_to_64x64_inverse_kernel.LBCK22.py":83:25)
#loc45 = loc("/tmp/kernels_vllm_merge_16x16_to_64x64_inverse_kernel.LBCK22.py":87:73)
#loc46 = loc("/tmp/kernels_vllm_merge_16x16_to_64x64_inverse_kernel.LBCK22.py":88:75)
#loc47 = loc("/tmp/kernels_vllm_merge_16x16_to_64x64_inverse_kernel.LBCK22.py":89:74)
#loc48 = loc("/tmp/kernels_vllm_merge_16x16_to_64x64_inverse_kernel.LBCK22.py":95:16)
#loc49 = loc("/tmp/kernels_vllm_merge_16x16_to_64x64_inverse_kernel.LBCK22.py":95:45)
#loc50 = loc("/tmp/kernels_vllm_merge_16x16_to_64x64_inverse_kernel.LBCK22.py":96:56)
#loc51 = loc("/tmp/kernels_vllm_merge_16x16_to_64x64_inverse_kernel.LBCK22.py":97:27)
#loc52 = loc("/tmp/kernels_vllm_merge_16x16_to_64x64_inverse_kernel.LBCK22.py":101:73)
#loc53 = loc("/tmp/kernels_vllm_merge_16x16_to_64x64_inverse_kernel.LBCK22.py":102:75)
#loc54 = loc("/tmp/kernels_vllm_merge_16x16_to_64x64_inverse_kernel.LBCK22.py":103:74)
#loc55 = loc("/tmp/kernels_vllm_merge_16x16_to_64x64_inverse_kernel.LBCK22.py":105:28)
#loc56 = loc("/tmp/kernels_vllm_merge_16x16_to_64x64_inverse_kernel.LBCK22.py":111:18)
#loc57 = loc("/tmp/kernels_vllm_merge_16x16_to_64x64_inverse_kernel.LBCK22.py":111:47)
#loc58 = loc("/tmp/kernels_vllm_merge_16x16_to_64x64_inverse_kernel.LBCK22.py":112:33)
#loc59 = loc("/tmp/kernels_vllm_merge_16x16_to_64x64_inverse_kernel.LBCK22.py":112:21)
#loc60 = loc("/tmp/kernels_vllm_merge_16x16_to_64x64_inverse_kernel.LBCK22.py":118:47)
#loc61 = loc("/tmp/kernels_vllm_merge_16x16_to_64x64_inverse_kernel.LBCK22.py":119:33)
#loc62 = loc("/tmp/kernels_vllm_merge_16x16_to_64x64_inverse_kernel.LBCK22.py":119:21)
#loc63 = loc("/tmp/kernels_vllm_merge_16x16_to_64x64_inverse_kernel.LBCK22.py":124:47)
#loc64 = loc("/tmp/kernels_vllm_merge_16x16_to_64x64_inverse_kernel.LBCK22.py":125:33)
#loc65 = loc("/tmp/kernels_vllm_merge_16x16_to_64x64_inverse_kernel.LBCK22.py":125:21)
#loc66 = loc("/tmp/kernels_vllm_merge_16x16_to_64x64_inverse_kernel.LBCK22.py":131:47)
#loc71 = loc("ptr_A"(#loc1))
#loc72 = loc("ptr_A"(#loc2))
#loc73 = loc("Ai_22"(#loc3))
#loc74 = loc("ptr_Ad"(#loc4))
#loc75 = loc("A_21_32"(#loc5))
#loc76 = loc("offs_m"(#loc6))
#loc77 = loc("offs_m"(#loc7))
#loc78 = loc("A"(#loc8))
#loc79 = loc("offs_m"(#loc9))
#loc80 = loc("offs_m"(#loc10))
#loc81 = loc("Ai_21_32"(#loc11))
#loc82 = loc("Ai_43"(#loc12))
#loc83 = loc("A"(#loc17))
#loc84 = loc("A"(#loc18))
#loc85 = loc("Ad"(#loc19))
#loc86 = loc("ptr_Ad"(#loc20))
#loc87 = loc("Ai_22"(#loc21))
#loc88 = loc("ptr_A"(#loc22))
#loc89 = loc("A_21"(#loc23))
#loc90 = loc("A_21"(#loc24))
#loc91 = loc("tmp"(#loc25))
#loc92 = loc("ptr_Ad"(#loc26))
#loc93 = loc("ptr_Ad"(#loc27))
#loc94 = loc("Ai_11"(#loc28))
#loc95 = loc("Ai_11"(#loc29))
#loc96 = loc("Ai_21"(#loc30))
#loc97 = loc("Ai_21"(#loc31))
#loc98 = loc("ptr_Ad"(#loc32))
#loc99 = loc("ptr_Ad"(#loc33))
#loc100 = loc("Ai_44"(#loc34))
#loc101 = loc("Ai_44"(#loc35))
#loc102 = loc("ptr_A"(#loc36))
#loc103 = loc("A_43"(#loc37))
#loc104 = loc("A_43"(#loc38))
#loc105 = loc("tmp"(#loc39))
#loc106 = loc("ptr_Ad"(#loc40))
#loc107 = loc("ptr_Ad"(#loc41))
#loc108 = loc("Ai_33"(#loc42))
#loc109 = loc("Ai_33"(#loc43))
#loc110 = loc("Ai_43"(#loc44))
#loc111 = loc("Ai_22_32"(#loc45))
#loc112 = loc("Ai_22_32"(#loc46))
#loc113 = loc("Ai_22_32"(#loc47))
#loc114 = loc("ptr_A"(#loc48))
#loc115 = loc("ptr_A"(#loc49))
#loc116 = loc("A_21_32"(#loc50))
#loc117 = loc("tmp"(#loc51))
#loc118 = loc("Ai_11_32"(#loc52))
#loc119 = loc("Ai_11_32"(#loc53))
#loc120 = loc("Ai_11_32"(#loc54))
#loc121 = loc("Ai_21_32"(#loc55))
#loc122 = loc("ptr_Ai"(#loc56))
#loc123 = loc("ptr_Ai"(#loc57))
#loc124 = loc("ptr_Ai"(#loc60))
#loc125 = loc("ptr_Ai"(#loc63))
#loc126 = loc("ptr_Ai"(#loc66))
